tflu-kws-cortex-m/Pretrained_models/DNN/DNN_M/dnn_m_quantized.tflite (tflite, 204480 bytes, 4 tensors)

functional_1/dense/MatMul i1 [256, 250] scale=0.0039838236 zero_point=0
0	0x05	0.019919118
1	0xf8	-0.03187059
2	0x08	0.03187059
3	0xd8	-0.15935294
4	0x28	0.15935294
5	0x01	0.0039838236
6	0xfe	-0.007967647
7	0xeb	-0.0836603
8	0x03	0.011951471
9	0x01	0.0039838236
10	0xf8	-0.03187059
11	0x0a	0.039838236
12	0xeb	-0.0836603
13	0x07	0.027886765
14	0x26	0.15138529
15	0x1a	0.10357942
16	0xe9	-0.09162794
17	0xd3	-0.17927206
18	0xed	-0.075692646
19	0xfe	-0.007967647
20	0x10	0.06374118
21	0x02	0.007967647
22	0xe8	-0.095611766
23	0x06	0.023902941
24	0x22	0.13545
25	0xdf	-0.13146618
26	0x06	0.023902941
27	0xf5	-0.043822058
28	0xcd	-0.20317501
29	0xe7	-0.09959559
30	0x10	0.06374118
31	0xef	-0.067725
32	0xf5	-0.043822058
33	0x1e	0.119514704
34	0x0b	0.043822058
35	0xf6	-0.039838236
36	0xee	-0.07170883
37	0xf2	-0.05577353
38	0xf3	-0.05178971
39	0xf6	-0.039838236
40	0x11	0.067725
41	0xec	-0.07967647
42	0xeb	-0.0836603
43	0x26	0.15138529
44	0x1f	0.12349853
45	0xfc	-0.015935294
46	0xdc	-0.14341766
47	0xdc	-0.14341766
48	0xff	-0.0039838236
49	0xf5	-0.043822058
50	0xe6	-0.10357942
51	0xf1	-0.059757352
52	0xee	-0.07170883
53	0x16	0.087644115
54	0x2a	0.1673206
55	0xf1	-0.059757352
56	0xe5	-0.107563235
57	0x07	0.027886765
58	0x01	0.0039838236
59	0x15	0.0836603
60	0xf9	-0.027886765
61	0x0b	0.043822058
62	0x00	0.0
63	0x0c	0.047805883
64	0x1d	0.115530886
65	0xf3	-0.05178971
66	0xe4	-0.11154706
67	0x14	0.07967647
68	0x04	0.015935294
69	0xf7	-0.035854414
70	0x00	0.0
71	0x12	0.07170883
72	0x0b	0.043822058
73	0x03	0.011951471
74	0x31	0.19520736
75	0xe8	-0.095611766
76	0x10	0.06374118
77	0xeb	-0.0836603
78	0xe5	-0.107563235
79	0x0c	0.047805883
80	0xee	-0.07170883
81	0x0d	0.05178971
82	0xfb	-0.019919118
83	0x25	0.14740147
84	0x13	0.075692646
85	0x09	0.035854414
86	0x0f	0.059757352
87	0x00	0.0
88	0xf9	-0.027886765
89	0x0b	0.043822058
90	0x02	0.007967647
91	0x0f	0.059757352
92	0xf2	-0.05577353
93	0xfe	-0.007967647
94	0x06	0.023902941
95	0x08	0.03187059
96	0x14	0.07967647
97	0xf8	-0.03187059
98	0xe8	-0.095611766
99	0x1a	0.10357942
100	0xe0	-0.12748235
101	0xe9	-0.09162794
102	0xf4	-0.047805883
103	0x1d	0.115530886
104	0xe2	-0.119514704
105	0xf4	-0.047805883
106	0xfb	-0.019919118
107	0x08	0.03187059
108	0xf6	-0.039838236
109	0x0d	0.05178971
110	0x05	0.019919118
111	0x16	0.087644115
112	0xe0	-0.12748235
113	0xf9	-0.027886765
114	0x0e	0.05577353
115	0xe7	-0.09959559
116	0x07	0.027886765
117	0xe7	-0.09959559
118	0xec	-0.07967647
119	0x1d	0.115530886
120	0xf6	-0.039838236
121	0xf9	-0.027886765
122	0xfc	-0.015935294
123	0xfd	-0.011951471
124	0x1b	0.107563235
125	0xea	-0.087644115
126	0x1a	0.10357942
127	0xe8	-0.095611766
128	0xda	-0.15138529
129	0x1f	0.12349853
130	0x10	0.06374118
131	0xf0	-0.06374118
132	0xd2	-0.18325588
133	0xfb	-0.019919118
134	0xf8	-0.03187059
135	0x08	0.03187059
136	0x06	0.023902941
137	0xe1	-0.12349853
138	0xe5	-0.107563235
139	0x33	0.20317501
140	0xfd	-0.011951471
141	0xfa	-0.023902941
142	0xe6	-0.10357942
143	0x06	0.023902941
144	0x09	0.035854414
145	0xfd	-0.011951471
146	0x2a	0.1673206
147	0xf9	-0.027886765
148	0xcc	-0.20715883
149	0x35	0.21114264
150	0xf5	-0.043822058
151	0x00	0.0
152	0xd9	-0.15536912
153	0x1a	0.10357942
154	0xfe	-0.007967647
155	0xf6	-0.039838236
156	0x27	0.15536912
157	0x04	0.015935294
158	0xde	-0.13545
159	0x2f	0.1872397
160	0x01	0.0039838236
161	0x09	0.035854414
162	0x02	0.007967647
163	0x28	0.15935294
164	0x10	0.06374118
165	0x04	0.015935294
166	0x2e	0.18325588
167	0xe0	-0.12748235
168	0xfd	-0.011951471
169	0x1e	0.119514704
170	0xe8	-0.095611766
171	0xf4	-0.047805883
172	0x1f	0.12349853
173	0x08	0.03187059
174	0xdf	-0.13146618
175	0x25	0.14740147
176	0x08	0.03187059
177	0xe1	-0.12349853
178	0xf0	-0.06374118
179	0x3d	0.24301323
180	0x0d	0.05178971
181	0xcf	-0.19520736
182	0x31	0.19520736
183	0xf5	-0.043822058
184	0xca	-0.21512647
185	0x14	0.07967647
186	0xf0	-0.06374118
187	0xcc	-0.20715883
188	0x1d	0.115530886
189	0x18	0.095611766
190	0x03	0.011951471
191	0xe5	-0.107563235
192	0x47	0.2828515
193	0xe5	-0.107563235
194	0xcb	-0.21114264
195	0x07	0.027886765
196	0xe6	-0.10357942
197	0xda	-0.15138529
198	0x29	0.16333677
199	0x36	0.21512647
200	0xfa	-0.023902941
201	0xfc	-0.015935294
202	0x2d	0.17927206
203	0xce	-0.19919118
204	0xc1	-0.25098088
205	0x2f	0.1872397
206	0xda	-0.15138529
207	0xeb	-0.0836603
208	0x00	0.0
209	0xf8	-0.03187059
210	0xfa	-0.023902941
211	0x07	0.027886765
212	0x3b	0.2350456
213	0xdc	-0.14341766
214	0xdd	-0.13943383
215	0x1a	0.10357942
216	0xe4	-0.11154706
217	0xdd	-0.13943383
218	0x07	0.027886765
219	0xf8	-0.03187059
220	0x1e	0.119514704
221	0x0e	0.05577353
222	0x3f	0.25098088
223	0xd6	-0.1673206
224	0xe9	-0.09162794
225	0xfe	-0.007967647
226	0xdc	-0.14341766
227	0x10	0.06374118
228	0x04	0.015935294
229	0x0f	0.059757352
230	0x28	0.15935294
231	0x0d	0.05178971
232	0x0e	0.05577353
233	0xed	-0.075692646
234	0xf1	-0.059757352
235	0xf5	-0.043822058
236	0xfe	-0.007967647
237	0x0d	0.05178971
238	0xf3	-0.05178971
239	0xe8	-0.095611766
240	0xfe	-0.007967647
241	0x15	0.0836603
242	0x03	0.011951471
243	0xda	-0.15138529
244	0xfd	-0.011951471
245	0x13	0.075692646
246	0xe1	-0.12349853
247	0x25	0.14740147
248	0xe7	-0.09959559
249	0xe5	-0.107563235
250	0xfa	-0.023902941
251	0xf8	-0.03187059
252	0x07	0.027886765
253	0xf1	-0.059757352
254	0xf1	-0.059757352
255	0xff	-0.0039838236

functional_1/dense_1/MatMul i1 [256, 256] scale=0.0028162843 zero_point=0
0	0xe2	-0.084488526
1	0xdd	-0.09856995
2	0x0e	0.03942798
3	0x1c	0.07885596
4	0xce	-0.14081421
5	0x26	0.107018806
6	0x07	0.01971399
7	0x2e	0.12954907
8	0x2f	0.13236536
9	0x09	0.025346559
10	0xfa	-0.016897706
11	0xcf	-0.13799793
12	0x05	0.014081421
13	0x0d	0.036611695
14	0x1a	0.07322339
15	0xf1	-0.042244263
16	0xfb	-0.014081421
17	0x0b	0.030979127
18	0x0a	0.028162843
19	0x06	0.016897706
20	0xed	-0.053509403
21	0x14	0.056325685
22	0xf4	-0.033795413
23	0x1e	0.084488526
24	0x2e	0.12954907
25	0x32	0.14081421
26	0x07	0.01971399
27	0xfa	-0.016897706
28	0x10	0.04506055
29	0x06	0.016897706
30	0x0a	0.028162843
31	0xcd	-0.1436305
32	0xe8	-0.067590825
33	0x19	0.07040711
34	0xf7	-0.025346559
35	0x26	0.107018806
36	0xde	-0.09575367
37	0xf7	-0.025346559
38	0x11	0.047876835
39	0x00	0.0
40	0xfc	-0.011265137
41	0xe0	-0.0901211
42	0xd3	-0.1267328
43	0xc8	-0.15771192
44	0x03	0.008448853
45	0xef	-0.047876835
46	0x0e	0.03942798
47	0xd6	-0.11828394
48	0x17	0.064774536
49	0xee	-0.050693117
50	0x2d	0.1267328
51	0xec	-0.056325685
52	0xb5	-0.21122132
53	0xfa	-0.016897706
54	0x08	0.022530274
55	0x13	0.053509403
56	0x17	0.064774536
57	0x07	0.01971399
58	0xe2	-0.084488526
59	0xdb	-0.10420252
60	0x4a	0.20840503
61	0x09	0.025346559
62	0xdb	-0.10420252
63	0x02	0.0056325686
64	0xd4	-0.12391651
65	0xf3	-0.036611695
66	0x30	0.13518165
67	0xe3	-0.081672244
68	0x0c	0.033795413
69	0x10	0.04506055
70	0xe1	-0.087304816
71	0xf7	-0.025346559
72	0xce	-0.14081421
73	0xe4	-0.07885596
74	0x02	0.0056325686
75	0x2f	0.13236536
76	0xce	-0.14081421
77	0x15	0.05914197
78	0x0f	0.042244263
79	0x14	0.056325685
80	0xfc	-0.011265137
81	0xf7	-0.025346559
82	0xbf	-0.18305849
83	0xe4	-0.07885596
84	0x20	0.0901211
85	0x21	0.09293738
86	0x10	0.04506055
87	0xdf	-0.09293738
88	0xf3	-0.036611695
89	0x29	0.11546766
90	0xfc	-0.011265137
91	0x19	0.07040711
92	0xf2	-0.03942798
93	0x2f	0.13236536
94	0xee	-0.050693117
95	0xd1	-0.13236536
96	0x10	0.04506055
97	0x0d	0.036611695
98	0xeb	-0.05914197
99	0x21	0.09293738
100	0xdc	-0.101386234
101	0x0d	0.036611695
102	0xfe	-0.0056325686
103	0xef	-0.047876835
104	0x05	0.014081421
105	0x0a	0.028162843
106	0xda	-0.107018806
107	0x07	0.01971399
108	0x05	0.014081421
109	0xe8	-0.067590825
110	0x06	0.016897706
111	0x13	0.053509403
112	0xef	-0.047876835
113	0xf3	-0.036611695
114	0x17	0.064774536
115	0xce	-0.14081421
116	0xdd	-0.09856995
117	0xf3	-0.036611695
118	0xfe	-0.0056325686
119	0x08	0.022530274
120	0x11	0.047876835
121	0xdc	-0.101386234
122	0x06	0.016897706
123	0x1e	0.084488526
124	0xee	-0.050693117
125	0xf8	-0.022530274
126	0xe1	-0.087304816
127	0xe1	-0.087304816
128	0xf6	-0.028162843
129	0xde	-0.09575367
130	0xf6	-0.028162843
131	0xdf	-0.09293738
132	0xf9	-0.01971399
133	0x05	0.014081421
134	0xeb	-0.05914197
135	0x15	0.05914197
136	0xe6	-0.07322339
137	0xe7	-0.07040711
138	0x02	0.0056325686
139	0xfc	-0.011265137
140	0x2a	0.11828394
141	0xd7	-0.11546766
142	0xe5	-0.07603968
143	0xfa	-0.016897706
144	0xe3	-0.081672244
145	0x18	0.067590825
146	0x19	0.07040711
147	0x02	0.0056325686
148	0x21	0.09293738
149	0xea	-0.061958253
150	0x0f	0.042244263
151	0x00	0.0
152	0xfb	-0.014081421
153	0x03	0.008448853
154	0xeb	-0.05914197
155	0x1a	0.07322339
156	0xef	-0.047876835
157	0xb6	-0.20840503
158	0x0e	0.03942798
159	0x08	0.022530274
160	0x2f	0.13236536
161	0xd4	-0.12391651
162	0xf9	-0.01971399
163	0xec	-0.056325685
164	0x1d	0.081672244
165	0xc9	-0.15489563
166	0x00	0.0
167	0x29	0.11546766
168	0xfa	-0.016897706
169	0xdd	-0.09856995
170	0x0e	0.03942798
171	0xef	-0.047876835
172	0x24	0.101386234
173	0x18	0.067590825
174	0x40	0.1802422
175	0x10	0.04506055
176	0xf6	-0.028162843
177	0xe9	-0.064774536
178	0xf8	-0.022530274
179	0x11	0.047876835
180	0xdb	-0.10420252
181	0xe3	-0.081672244
182	0xe0	-0.0901211
183	0xf3	-0.036611695
184	0xe1	-0.087304816
185	0xe4	-0.07885596
186	0x2f	0.13236536
187	0x05	0.014081421
188	0xdd	-0.09856995
189	0xf2	-0.03942798
190	0x29	0.11546766
191	0x07	0.01971399
192	0xe4	-0.07885596
193	0xf3	-0.036611695
194	0x0c	0.033795413
195	0x27	0.10983509
196	0x01	0.0028162843
197	0x0d	0.036611695
198	0x1f	0.087304816
199	0xd9	-0.10983509
200	0x14	0.056325685
201	0x01	0.0028162843
202	0x04	0.011265137
203	0x28	0.11265137
204	0xf8	-0.022530274
205	0xe9	-0.064774536
206	0x0b	0.030979127
207	0x21	0.09293738
208	0xea	-0.061958253
209	0xe5	-0.07603968
210	0x16	0.061958253
211	0xeb	-0.05914197
212	0x05	0.014081421
213	0xef	-0.047876835
214	0x00	0.0
215	0x0a	0.028162843
216	0xf0	-0.04506055
217	0xc5	-0.16616078
218	0x10	0.04506055
219	0xef	-0.047876835
220	0xf7	-0.025346559
221	0x1f	0.087304816
222	0xdf	-0.09293738
223	0x15	0.05914197
224	0xf1	-0.042244263
225	0x25	0.10420252
226	0xf3	-0.036611695
227	0x09	0.025346559
228	0x0c	0.033795413
229	0xf6	-0.028162843
230	0x1b	0.07603968
231	0x15	0.05914197
232	0x1f	0.087304816
233	0x34	0.14644678
234	0x02	0.0056325686
235	0xda	-0.107018806
236	0xec	-0.056325685
237	0xeb	-0.05914197
238	0xda	-0.107018806
239	0xea	-0.061958253
240	0xfc	-0.011265137
241	0x1b	0.07603968
242	0xfa	-0.016897706
243	0xe2	-0.084488526
244	0xcc	-0.14644678
245	0xea	-0.061958253
246	0xff	-0.0028162843
247	0x22	0.09575367
248	0xe4	-0.07885596
249	0xdd	-0.09856995
250	0x1a	0.07322339
251	0xee	-0.050693117
252	0xea	-0.061958253
253	0x02	0.0056325686
254	0xd2	-0.12954907
255	0x1a	0.07322339

functional_1/dense_2/MatMul i1 [256, 256] scale=0.002694519 zero_point=0
0	0xeb	-0.0565849
1	0x2d	0.12125336
2	0xf5	-0.02963971
3	0x0c	0.032334227
4	0x05	0.013472595
5	0xe8	-0.064668454
6	0xf7	-0.024250671
7	0xee	-0.048501343
8	0x0b	0.02963971
9	0xff	-0.002694519
10	0xea	-0.05927942
11	0x1a	0.0700575
12	0xc7	-0.15358758
13	0xf6	-0.02694519
14	0x21	0.088919125
15	0x07	0.018861633
16	0xd5	-0.115864314
17	0x10	0.043112304
18	0x25	0.0996972
19	0x19	0.06736297
20	0xec	-0.05389038
21	0x03	0.008083557
22	0xd2	-0.12394787
23	0x35	0.14280951
24	0x04	0.010778076
25	0x1b	0.072752014
26	0xed	-0.05119586
27	0xe1	-0.08353009
28	0x16	0.05927942
29	0xe6	-0.0700575
30	0xf9	-0.018861633
31	0x05	0.013472595
32	0xf7	-0.024250671
33	0x0f	0.040417787
34	0xf5	-0.02963971
35	0x13	0.05119586
36	0x16	0.05927942
37	0xea	-0.05927942
38	0x25	0.0996972
39	0x1d	0.07814105
40	0xe2	-0.08083557
41	0x2e	0.12394787
42	0x28	0.10778076
43	0xfe	-0.005389038
44	0xd8	-0.10778076
45	0x02	0.005389038
46	0xd7	-0.11047528
47	0xc7	-0.15358758
48	0xea	-0.05927942
49	0x0c	0.032334227
50	0x24	0.097002685
51	0xf5	-0.02963971
52	0xc2	-0.16706018
53	0xfd	-0.008083557
54	0x0c	0.032334227
55	0xed	-0.05119586
56	0x1d	0.07814105
57	0xf6	-0.02694519
58	0xee	-0.048501343
59	0x10	0.043112304
60	0x14	0.05389038
61	0xea	-0.05927942
62	0x16	0.05927942
63	0x1d	0.07814105
64	0xea	-0.05927942
65	0xfd	-0.008083557
66	0xd4	-0.11855884
67	0xec	-0.05389038
68	0xf5	-0.02963971
69	0x0d	0.03502875
70	0xc1	-0.1697547
71	0x1c	0.07544653
72	0xd2	-0.12394787
73	0x11	0.04580682
74	0x05	0.013472595
75	0x29	0.11047528
76	0x0c	0.032334227
77	0xe4	-0.07544653
78	0xef	-0.04580682
79	0xf7	-0.024250671
80	0xf1	-0.040417787
81	0x16	0.05927942
82	0xdf	-0.088919125
83	0x10	0.043112304
84	0xe8	-0.064668454
85	0xdb	-0.0996972
86	0x13	0.05119586
87	0xf5	-0.02963971
88	0x0d	0.03502875
89	0x3a	0.1562821
90	0x07	0.018861633
91	0x0f	0.040417787
92	0xf9	-0.018861633
93	0x14	0.05389038
94	0x19	0.06736297
95	0xfa	-0.016167114
96	0x22	0.09161364
97	0xf7	-0.024250671
98	0x0f	0.040417787
99	0x0c	0.032334227
100	0xe5	-0.072752014
101	0xe2	-0.08083557
102	0xf6	-0.02694519
103	0xe7	-0.06736297
104	0x11	0.04580682
105	0xf2	-0.037723266
106	0xf1	-0.040417787
107	0xf8	-0.021556152
108	0xdf	-0.088919125
109	0x1a	0.0700575
110	0x15	0.0565849
111	0xdb	-0.0996972
112	0x19	0.06736297
113	0xd5	-0.115864314
114	0x20	0.08622461
115	0x01	0.002694519
116	0xbb	-0.18592182
117	0x08	0.021556152
118	0xec	-0.05389038
119	0xe9	-0.061973937
120	0xca	-0.14550403
121	0xe8	-0.064668454
122	0x2f	0.12664239
123	0xcf	-0.13203143
124	0x25	0.0996972
125	0xfd	-0.008083557
126	0xbe	-0.17783825
127	0xee	-0.048501343
128	0x02	0.005389038
129	0x0e	0.037723266
130	0xd2	-0.12394787
131	0xdd	-0.09430817
132	0x16	0.05927942
133	0x04	0.010778076
134	0x00	0.0
135	0x2e	0.12394787
136	0xfe	-0.005389038
137	0xf0	-0.043112304
138	0xd7	-0.11047528
139	0xf4	-0.032334227
140	0x1b	0.072752014
141	0x4a	0.1993944
142	0x10	0.043112304
143	0x17	0.061973937
144	0x00	0.0
145	0xf6	-0.02694519
146	0xff	-0.002694519
147	0x05	0.013472595
148	0x03	0.008083557
149	0x01	0.002694519
150	0xdc	-0.097002685
151	0xfd	-0.008083557
152	0xc6	-0.1562821
153	0x13	0.05119586
154	0xdb	-0.0996972
155	0xe4	-0.07544653
156	0x17	0.061973937
157	0x20	0.08622461
158	0x20	0.08622461
159	0x17	0.061973937
160	0x07	0.018861633
161	0xf8	-0.021556152
162	0x22	0.09161364
163	0x0c	0.032334227
164	0x06	0.016167114
165	0x1f	0.08353009
166	0x18	0.064668454
167	0x25	0.0996972
168	0x1c	0.07544653
169	0x1c	0.07544653
170	0x11	0.04580682
171	0x03	0.008083557
172	0x19	0.06736297
173	0x12	0.048501343
174	0xf5	-0.02963971
175	0xfb	-0.013472595
176	0xfb	-0.013472595
177	0xe2	-0.08083557
178	0x0a	0.02694519
179	0x02	0.005389038
180	0xe5	-0.072752014
181	0xd4	-0.11855884
182	0xfb	-0.013472595
183	0x2d	0.12125336
184	0xd7	-0.11047528
185	0xf7	-0.024250671
186	0xe2	-0.08083557
187	0xea	-0.05927942
188	0xe7	-0.06736297
189	0xbc	-0.18322729
190	0x0b	0.02963971
191	0xee	-0.048501343
192	0xf3	-0.03502875
193	0xff	-0.002694519
194	0x15	0.0565849
195	0x0d	0.03502875
196	0xee	-0.048501343
197	0xf3	-0.03502875
198	0x06	0.016167114
199	0xdf	-0.088919125
200	0x18	0.064668454
201	0xdc	-0.097002685
202	0xfd	-0.008083557
203	0xf1	-0.040417787
204	0x28	0.10778076
205	0xf9	-0.018861633
206	0x0b	0.02963971
207	0x00	0.0
208	0xde	-0.09161364
209	0xf0	-0.043112304
210	0xfa	-0.016167114
211	0xe7	-0.06736297
212	0xdd	-0.09430817
213	0x15	0.0565849
214	0x02	0.005389038
215	0xfc	-0.010778076
216	0x02	0.005389038
217	0xee	-0.048501343
218	0xfb	-0.013472595
219	0x11	0.04580682
220	0x22	0.09161364
221	0x19	0.06736297
222	0xf5	-0.02963971
223	0xd0	-0.12933691
224	0xf2	-0.037723266
225	0x0e	0.037723266
226	0x11	0.04580682
227	0x10	0.043112304
228	0xba	-0.18861634
229	0x10	0.043112304
230	0x02	0.005389038
231	0xd5	-0.115864314
232	0x04	0.010778076
233	0x28	0.10778076
234	0xea	-0.05927942
235	0xd4	-0.11855884
236	0x32	0.13472594
237	0x1a	0.0700575
238	0x04	0.010778076
239	0xce	-0.13472594
240	0xe2	-0.08083557
241	0x0e	0.037723266
242	0x15	0.0565849
243	0xeb	-0.0565849
244	0x16	0.05927942
245	0x12	0.048501343
246	0x15	0.0565849
247	0xfb	-0.013472595
248	0xc4	-0.16167115
249	0x0f	0.040417787
250	0x11	0.04580682
251	0x02	0.005389038
252	0x2a	0.1131698
253	0xdb	-0.0996972
254	0xe1	-0.08353009
255	0x2b	0.115864314

functional_1/dense_3/MatMul i1 [12, 256] scale=0.004918551 zero_point=0
0	0xe8	-0.118045226
1	0xde	-0.16723074
2	0x05	0.024592755
3	0x45	0.33938003
4	0x0f	0.073778264
5	0xe5	-0.13280088
6	0x0c	0.059022613
7	0xe2	-0.14755653
8	0xff	-0.004918551
9	0xd9	-0.1918235
10	0xdd	-0.17214929
11	0x1a	0.12788233
12	0x14	0.09837102
13	0xfe	-0.009837102
14	0xb4	-0.37380987
15	0x0f	0.073778264
16	0x39	0.28035742
17	0xdc	-0.17706785
18	0x00	0.0
19	0xe7	-0.12296378
20	0x1a	0.12788233
21	0xe6	-0.12788233
22	0xbb	-0.33938003
23	0x00	0.0
24	0xa9	-0.42791393
25	0xe6	-0.12788233
26	0x2c	0.21641624
27	0xe3	-0.14263798
28	0xcf	-0.241009
29	0xd2	-0.22625335
30	0x01	0.004918551
31	0xe3	-0.14263798
32	0xf0	-0.07869682
33	0xe5	-0.13280088
34	0xdc	-0.17706785
35	0x0c	0.059022613
36	0xeb	-0.103289574
37	0xee	-0.08853392
38	0xe4	-0.13771942
39	0xf3	-0.063941166
40	0xda	-0.18690494
41	0xd7	-0.20166059
42	0xfa	-0.029511306
43	0x55	0.41807684
44	0xb4	-0.37380987
45	0x51	0.39840263
46	0xe6	-0.12788233
47	0xfc	-0.019674204
48	0xf5	-0.05410406
49	0xc7	-0.28035742
50	0xdf	-0.16231218
51	0x0f	0.073778264
52	0xf0	-0.07869682
53	0xc3	-0.3000316
54	0x1e	0.14755653
55	0xf0	-0.07869682
56	0xdf	-0.16231218
57	0xb9	-0.34921712
58	0xc9	-0.2705203
59	0xf0	-0.07869682
60	0xdf	-0.16231218
61	0xec	-0.09837102
62	0x05	0.024592755
63	0x07	0.034429856
64	0xe5	-0.13280088
65	0x09	0.04426696
66	0xeb	-0.103289574
67	0xfe	-0.009837102
68	0xde	-0.16723074
69	0xb1	-0.38856554
70	0xca	-0.26560175
71	0xf2	-0.06885971
72	0x17	0.11312667
73	0xed	-0.09345247
74	0xb9	-0.34921712
75	0x04	0.019674204
76	0xc0	-0.31478727
77	0xe9	-0.11312667
78	0xf6	-0.04918551
79	0xcb	-0.2606832
80	0xdb	-0.18198639
81	0x18	0.118045226
82	0xe4	-0.13771942
83	0xd1	-0.2311719
84	0xcd	-0.25084612
85	0xde	-0.16723074
86	0xce	-0.24592756
87	0xe9	-0.11312667
88	0x25	0.18198639
89	0x12	0.08853392
90	0x3a	0.28527597
91	0x04	0.019674204
92	0x2c	0.21641624
93	0x12	0.08853392
94	0xd9	-0.1918235
95	0xf4	-0.059022613
96	0xba	-0.34429857
97	0xf3	-0.063941166
98	0xd4	-0.21641624
99	0x13	0.09345247
100	0x0d	0.063941166
101	0xea	-0.10820812
102	0x00	0.0
103	0xd4	-0.21641624
104	0x2a	0.20657915
105	0xea	-0.10820812
106	0xe7	-0.12296378
107	0x1a	0.12788233
108	0x2b	0.2114977
109	0xc6	-0.28527597
110	0x09	0.04426696
111	0x11	0.08361537
112	0x10	0.07869682
113	0xdb	-0.18198639
114	0xf8	-0.03934841
115	0x16	0.10820812
116	0x2d	0.2213348
117	0xd2	-0.22625335
118	0xe4	-0.13771942
119	0xfc	-0.019674204
120	0xde	-0.16723074
121	0xb0	-0.3934841
122	0xeb	-0.103289574
123	0x00	0.0
124	0xc9	-0.2705203
125	0xe7	-0.12296378
126	0x02	0.009837102
127	0xe3	-0.14263798
128	0xca	-0.26560175
129	0xef	-0.08361537
130	0xb9	-0.34921712
131	0xbf	-0.3197058
132	0xbe	-0.32462436
133	0xf3	-0.063941166
134	0xce	-0.24592756
135	0x2d	0.2213348
136	0xfa	-0.029511306
137	0xda	-0.18690494
138	0xfa	-0.029511306
139	0xb8	-0.3541357
140	0xf2	-0.06885971
141	0xca	-0.26560175
142	0xdf	-0.16231218
143	0xe2	-0.14755653
144	0x02	0.009837102
145	0x03	0.014755653
146	0xc6	-0.28527597
147	0xcb	-0.2606832
148	0x1e	0.14755653
149	0x20	0.15739363
150	0x1f	0.15247509
151	0xf4	-0.059022613
152	0xf1	-0.073778264
153	0xfd	-0.014755653
154	0x1d	0.14263798
155	0xb2	-0.383647
156	0xde	-0.16723074
157	0xf6	-0.04918551
158	0xf3	-0.063941166
159	0x81	-0.62465596
160	0xf1	-0.073778264
161	0xf5	-0.05410406
162	0x2b	0.2114977
163	0xf6	-0.04918551
164	0xde	-0.16723074
165	0x05	0.024592755
166	0xc4	-0.29511306
167	0xfd	-0.014755653
168	0xc5	-0.2901945
169	0xb0	-0.3934841
170	0xe0	-0.15739363
171	0xbe	-0.32462436
172	0xf8	-0.03934841
173	0xf7	-0.04426696
174	0x16	0.10820812
175	0xe2	-0.14755653
176	0xef	-0.08361537
177	0x13	0.09345247
178	0x29	0.20166059
179	0x08	0.03934841
180	0x22	0.16723074
181	0x11	0.08361537
182	0x03	0.014755653
183	0xca	-0.26560175
184	0xb9	-0.34921712
185	0x5e	0.4623438
186	0xda	-0.18690494
187	0xfc	-0.019674204
188	0x3f	0.30986872
189	0xec	-0.09837102
190	0xed	-0.09345247
191	0xde	-0.16723074
192	0xe9	-0.11312667
193	0x31	0.241009
194	0xea	-0.10820812
195	0xc3	-0.3000316
196	0xbd	-0.32954293
197	0xe7	-0.12296378
198	0xd1	-0.2311719
199	0xd9	-0.1918235
200	0xe3	-0.14263798
201	0xe2	-0.14755653
202	0x39	0.28035742
203	0xaa	-0.4229954
204	0x27	0.1918235
205	0xf1	-0.073778264
206	0x05	0.024592755
207	0xdc	-0.17706785
208	0x1d	0.14263798
209	0xef	-0.08361537
210	0xc9	-0.2705203
211	0x1d	0.14263798
212	0xd5	-0.2114977
213	0xe2	-0.14755653
214	0xea	-0.10820812
215	0xf8	-0.03934841
216	0x23	0.17214929
217	0x24	0.17706785
218	0x0d	0.063941166
219	0x10	0.07869682
220	0xf1	-0.073778264
221	0x18	0.118045226
222	0x23	0.17214929
223	0xe3	-0.14263798
224	0xcd	-0.25084612
225	0xc7	-0.28035742
226	0xfb	-0.024592755
227	0xdf	-0.16231218
228	0xef	-0.08361537
229	0xd5	-0.2114977
230	0xf6	-0.04918551
231	0xfb	-0.024592755
232	0xa5	-0.44758815
233	0x02	0.009837102
234	0xd2	-0.22625335
235	0xdd	-0.17214929
236	0x31	0.241009
237	0x9e	-0.482018
238	0xf7	-0.04426696
239	0xf8	-0.03934841
240	0xb7	-0.35905424
241	0x04	0.019674204
242	0xfb	-0.024592755
243	0xfd	-0.014755653
244	0xe3	-0.14263798
245	0xe4	-0.13771942
246	0xc6	-0.28527597
247	0xd4	-0.21641624
248	0xde	-0.16723074
249	0xf5	-0.05410406
250	0x9a	-0.50169224
251	0xc5	-0.2901945
252	0x29	0.20166059
253	0xe5	-0.13280088
254	0xea	-0.10820812
255	0xb9	-0.34921712
