tflu-kws-cortex-m/Pretrained_models/DS_CNN/DS_CNN_L/ds_cnn_l_quantized.tflite (tflite, 530688 bytes, 12 tensors)

functional_1/batch_normalization_1/FusedBatchNormV3;functional_1/depthwise_conv2d/depthwise;functional_1/depthwise_conv2d/BiasAdd;functional_1/conv2d_5/Conv2D;functional_1/depthwise_conv2d/BiasAdd/ReadVariableOp/resource i1 [1, 3, 3, 276]
0	0x36	54
1	0x7f	127
2	0x1c	28
3	0xb7	-73
4	0x0a	10
5	0x3a	58
6	0x81	-127
7	0xd3	-45
8	0x2a	42
9	0xd0	-48
10	0x16	22
11	0x81	-127
12	0x46	70
13	0x3d	61
14	0x9a	-102
15	0x04	4
16	0xb5	-75
17	0x56	86
18	0xda	-38
19	0x81	-127
20	0xcd	-51
21	0x16	22
22	0xc5	-59
23	0x30	48
24	0x68	104
25	0x00	0
26	0x6a	106
27	0x95	-107
28	0x11	17
29	0x37	55
30	0xce	-50
31	0xa8	-88
32	0x36	54
33	0xe1	-31
34	0xd6	-42
35	0x7f	127
36	0xe7	-25
37	0xd5	-43
38	0xc7	-57
39	0xdc	-36
40	0xb0	-80
41	0xcc	-52
42	0x7f	127
43	0x79	121
44	0xd3	-45
45	0xb5	-75
46	0xb3	-77
47	0x68	104
48	0x2d	45
49	0x24	36
50	0xd8	-40
51	0xd8	-40
52	0x1b	27
53	0xfa	-6
54	0xee	-18
55	0x22	34
56	0x81	-127
57	0x28	40
58	0x7f	127
59	0xe6	-26
60	0xd4	-44
61	0xbb	-69
62	0x92	-110
63	0x26	38
64	0x6d	109
65	0xa2	-94
66	0xf6	-10
67	0x92	-110
68	0xde	-34
69	0x0d	13
70	0x65	101
71	0x0b	11
72	0x07	7
73	0x81	-127
74	0x3d	61
75	0xee	-18
76	0x0f	15
77	0xe4	-28
78	0xf5	-11
79	0x0c	12
80	0xdc	-36
81	0xc5	-59
82	0x64	100
83	0x10	16
84	0x81	-127
85	0xe0	-32
86	0x08	8
87	0x81	-127
88	0xd8	-40
89	0x12	18
90	0xee	-18
91	0x31	49
92	0xdb	-37
93	0xb0	-80
94	0x7f	127
95	0x28	40
96	0x49	73
97	0x03	3
98	0xb1	-79
99	0x89	-119
100	0x81	-127
101	0x0d	13
102	0x0f	15
103	0x15	21
104	0x81	-127
105	0x81	-127
106	0x3e	62
107	0xc0	-64
108	0x4b	75
109	0xad	-83
110	0x5a	90
111	0x10	16
112	0x35	53
113	0x81	-127
114	0x07	7
115	0xb1	-79
116	0x41	65
117	0x25	37
118	0xd0	-48
119	0xc4	-60
120	0xf7	-9
121	0x95	-107
122	0x87	-121
123	0xf6	-10
124	0x17	23
125	0x89	-119
126	0xef	-17
127	0x02	2
128	0x1c	28
129	0xb3	-77
130	0xff	-1
131	0xd2	-46
132	0x54	84
133	0xa5	-91
134	0xef	-17
135	0xa1	-95
136	0x36	54
137	0xda	-38
138	0x62	98
139	0xb1	-79
140	0xb0	-80
141	0x3e	62
142	0xbd	-67
143	0x22	34
144	0xe1	-31
145	0x7f	127
146	0x0a	10
147	0xf8	-8
148	0xd8	-40
149	0x81	-127
150	0xdf	-33
151	0x3b	59
152	0x7f	127
153	0xec	-20
154	0xfc	-4
155	0xd2	-46
156	0xa8	-88
157	0x0d	13
158	0xc9	-55
159	0x10	16
160	0xbd	-67
161	0xde	-34
162	0xc8	-56
163	0xf2	-14
164	0x14	20
165	0xe2	-30
166	0xbf	-65
167	0xec	-20
168	0x3d	61
169	0x52	82
170	0x03	3
171	0x81	-127
172	0xe3	-29
173	0xfc	-4
174	0xdc	-36
175	0x7f	127
176	0x09	9
177	0xd0	-48
178	0xdb	-37
179	0xb2	-78
180	0x58	88
181	0xe2	-30
182	0xc3	-61
183	0x7f	127
184	0xe6	-26
185	0x32	50
186	0x8a	-118
187	0xd1	-47
188	0x0a	10
189	0x1d	29
190	0xb4	-76
191	0xe8	-24
192	0xcf	-49
193	0xc9	-55
194	0x16	22
195	0x2a	42
196	0x48	72
197	0xba	-70
198	0x8a	-118
199	0xec	-20
200	0x05	5
201	0xe8	-24
202	0xdf	-33
203	0x2d	45
204	0xe8	-24
205	0x7a	122
206	0x1e	30
207	0x54	84
208	0x56	86
209	0x42	66
210	0x7f	127
211	0x63	99
212	0xac	-84
213	0x9a	-102
214	0xf9	-7
215	0xd5	-43
216	0xc6	-58
217	0xee	-18
218	0x22	34
219	0x0e	14
220	0xbb	-69
221	0x04	4
222	0xf1	-15
223	0xbc	-68
224	0x81	-127
225	0x81	-127
226	0xb1	-79
227	0x70	112
228	0x5b	91
229	0x7f	127
230	0x5d	93
231	0xf8	-8
232	0xf2	-14
233	0xb0	-80
234	0x28	40
235	0x0b	11
236	0x0b	11
237	0x20	32
238	0x70	112
239	0xcf	-49
240	0x85	-123
241	0x42	66
242	0x55	85
243	0xc7	-57
244	0xa0	-96
245	0x7f	127
246	0x20	32
247	0x7a	122
248	0x81	-127
249	0x94	-108
250	0xb0	-80
251	0x18	24
252	0x00	0
253	0x00	0
254	0x2d	45
255	0xb3	-77

functional_1/batch_normalization_3/FusedBatchNormV3;functional_1/depthwise_conv2d_1/depthwise;functional_1/depthwise_conv2d_1/BiasAdd;functional_1/conv2d_5/Conv2D;functional_1/depthwise_conv2d_1/BiasAdd/ReadVariableOp/resource i1 [1, 3, 3, 276]
0	0xb8	-72
1	0x85	-123
2	0xbe	-66
3	0x29	41
4	0xf4	-12
5	0x58	88
6	0xbd	-67
7	0xca	-54
8	0x21	33
9	0xcd	-51
10	0xac	-84
11	0x1b	27
12	0xa8	-88
13	0xc3	-61
14	0xab	-85
15	0xf1	-15
16	0xbf	-65
17	0x8f	-113
18	0x50	80
19	0x00	0
20	0xad	-83
21	0x4d	77
22	0x67	103
23	0x3e	62
24	0x0a	10
25	0x16	22
26	0xfa	-6
27	0xed	-19
28	0x08	8
29	0xe0	-32
30	0x36	54
31	0xb9	-71
32	0x09	9
33	0x64	100
34	0x24	36
35	0x59	89
36	0xbc	-68
37	0xe7	-25
38	0xb4	-76
39	0xbc	-68
40	0x38	56
41	0xd9	-39
42	0xcf	-49
43	0xdd	-35
44	0x85	-123
45	0x7f	127
46	0x5d	93
47	0x7f	127
48	0x10	16
49	0x22	34
50	0x7f	127
51	0x7f	127
52	0x08	8
53	0x29	41
54	0x03	3
55	0x30	48
56	0x00	0
57	0xdb	-37
58	0xce	-50
59	0x04	4
60	0x15	21
61	0x31	49
62	0x04	4
63	0x12	18
64	0xce	-50
65	0x03	3
66	0x00	0
67	0x7f	127
68	0xda	-38
69	0x31	49
70	0x9f	-97
71	0x09	9
72	0x7a	122
73	0x52	82
74	0x45	69
75	0x29	41
76	0xd1	-47
77	0x1d	29
78	0xea	-22
79	0xb6	-74
80	0x20	32
81	0x1d	29
82	0xe3	-29
83	0x65	101
84	0x3d	61
85	0x81	-127
86	0xe9	-23
87	0x08	8
88	0x48	72
89	0x7f	127
90	0xf5	-11
91	0xc9	-55
92	0xfe	-2
93	0xfc	-4
94	0xa4	-92
95	0x14	20
96	0xe3	-29
97	0x50	80
98	0x81	-127
99	0x55	85
100	0xa3	-93
101	0x7a	122
102	0xe5	-27
103	0x16	22
104	0xa9	-87
105	0x2b	43
106	0xc0	-64
107	0xb3	-77
108	0x5d	93
109	0x40	64
110	0x19	25
111	0x27	39
112	0x0d	13
113	0xc8	-56
114	0x3d	61
115	0xb7	-73
116	0x81	-127
117	0x81	-127
118	0xb0	-80
119	0x15	21
120	0x21	33
121	0xdc	-36
122	0x2f	47
123	0x8d	-115
124	0x83	-125
125	0xab	-85
126	0xa9	-87
127	0xfe	-2
128	0x41	65
129	0x96	-106
130	0x40	64
131	0xf2	-14
132	0xec	-20
133	0x1b	27
134	0xe1	-31
135	0x27	39
136	0x2c	44
137	0xf0	-16
138	0x14	20
139	0xc4	-60
140	0xde	-34
141	0xee	-18
142	0x0c	12
143	0xd8	-40
144	0x9d	-99
145	0xa5	-91
146	0x81	-127
147	0xe8	-24
148	0x40	64
149	0x34	52
150	0x06	6
151	0xf5	-11
152	0xf8	-8
153	0x2c	44
154	0x45	69
155	0x95	-107
156	0x01	1
157	0xcc	-52
158	0x01	1
159	0xd3	-45
160	0xa9	-87
161	0xec	-20
162	0x62	98
163	0xd4	-44
164	0x46	70
165	0xc6	-58
166	0x96	-106
167	0x4f	79
168	0x98	-104
169	0x68	104
170	0x41	65
171	0xa5	-91
172	0x96	-106
173	0xd5	-43
174	0x66	102
175	0xf3	-13
176	0x2b	43
177	0xc7	-57
178	0xe2	-30
179	0x1b	27
180	0x87	-121
181	0x11	17
182	0xb5	-75
183	0x91	-111
184	0xd8	-40
185	0x7f	127
186	0xf9	-7
187	0x5d	93
188	0x1e	30
189	0x7f	127
190	0xe8	-24
191	0x12	18
192	0x1d	29
193	0xf7	-9
194	0x94	-108
195	0x9e	-98
196	0x41	65
197	0x31	49
198	0xf6	-10
199	0xc1	-63
200	0x42	66
201	0xda	-38
202	0x12	18
203	0xd5	-43
204	0xd4	-44
205	0x40	64
206	0x25	37
207	0xf1	-15
208	0xa6	-90
209	0xbc	-68
210	0xfa	-6
211	0xb0	-80
212	0xeb	-21
213	0x18	24
214	0xfc	-4
215	0x3e	62
216	0x97	-105
217	0x2f	47
218	0x60	96
219	0x10	16
220	0x28	40
221	0xe1	-31
222	0x81	-127
223	0xb0	-80
224	0x87	-121
225	0xc1	-63
226	0x04	4
227	0x7f	127
228	0xce	-50
229	0x81	-127
230	0xfc	-4
231	0x92	-110
232	0x71	113
233	0x7f	127
234	0x1a	26
235	0xbe	-66
236	0x2d	45
237	0x0d	13
238	0xde	-34
239	0xeb	-21
240	0x64	100
241	0xb3	-77
242	0xf7	-9
243	0xe4	-28
244	0x98	-104
245	0xad	-83
246	0x67	103
247	0x71	113
248	0xb2	-78
249	0x42	66
250	0x61	97
251	0xe1	-31
252	0xb6	-74
253	0xf4	-12
254	0x07	7
255	0x1d	29

functional_1/batch_normalization_5/FusedBatchNormV3;functional_1/depthwise_conv2d_2/depthwise;functional_1/depthwise_conv2d_2/BiasAdd;functional_1/conv2d_5/Conv2D;functional_1/depthwise_conv2d_2/BiasAdd/ReadVariableOp/resource i1 [1, 3, 3, 276]
0	0x81	-127
1	0x77	119
2	0xde	-34
3	0xe2	-30
4	0x95	-107
5	0xd3	-45
6	0x44	68
7	0x48	72
8	0x32	50
9	0x81	-127
10	0xb1	-79
11	0x95	-107
12	0x45	69
13	0xc7	-57
14	0x7f	127
15	0x7f	127
16	0x78	120
17	0x81	-127
18	0xbe	-66
19	0x31	49
20	0xe0	-32
21	0xab	-85
22	0x81	-127
23	0x38	56
24	0x37	55
25	0x46	70
26	0xb4	-76
27	0x7f	127
28	0x1b	27
29	0xa9	-87
30	0x81	-127
31	0x28	40
32	0x95	-107
33	0x28	40
34	0xaa	-86
35	0x97	-105
36	0x3a	58
37	0xfe	-2
38	0x64	100
39	0xe5	-27
40	0x7f	127
41	0xac	-84
42	0x60	96
43	0xe2	-30
44	0x81	-127
45	0x58	88
46	0x81	-127
47	0xe1	-31
48	0x36	54
49	0xbe	-66
50	0xda	-38
51	0x45	69
52	0xca	-54
53	0x26	38
54	0x99	-103
55	0x81	-127
56	0x05	5
57	0x34	52
58	0x19	25
59	0xad	-83
60	0x7f	127
61	0x7f	127
62	0x7f	127
63	0x24	36
64	0xb6	-74
65	0xc4	-60
66	0x60	96
67	0xe8	-24
68	0xd2	-46
69	0xd9	-39
70	0x32	50
71	0xcd	-51
72	0x64	100
73	0x66	102
74	0xd7	-41
75	0x81	-127
76	0x2c	44
77	0xb5	-75
78	0xcc	-52
79	0x81	-127
80	0xed	-19
81	0x58	88
82	0x2e	46
83	0x5c	92
84	0x9c	-100
85	0x12	18
86	0xcc	-52
87	0xda	-38
88	0xbe	-66
89	0x7f	127
90	0x7f	127
91	0xaa	-86
92	0xcf	-49
93	0x7b	123
94	0x56	86
95	0x28	40
96	0x2c	44
97	0x7f	127
98	0x48	72
99	0x37	55
100	0x6a	106
101	0x9a	-102
102	0xf4	-12
103	0xca	-54
104	0x7f	127
105	0x06	6
106	0xe3	-29
107	0x9a	-102
108	0x08	8
109	0xe4	-28
110	0xf8	-8
111	0x81	-127
112	0x3e	62
113	0xb6	-74
114	0x59	89
115	0xd5	-43
116	0xdf	-33
117	0x47	71
118	0xc4	-60
119	0x98	-104
120	0x81	-127
121	0x81	-127
122	0x46	70
123	0xd0	-48
124	0x1c	28
125	0x03	3
126	0x81	-127
127	0x44	68
128	0xac	-84
129	0x2d	45
130	0x19	25
131	0xa6	-90
132	0x74	116
133	0x5f	95
134	0x3c	60
135	0xf9	-7
136	0x15	21
137	0xe1	-31
138	0x2d	45
139	0x7f	127
140	0xba	-70
141	0xaa	-86
142	0xba	-70
143	0xf7	-9
144	0x7f	127
145	0xa1	-95
146	0xf3	-13
147	0xfb	-5
148	0x61	97
149	0xd4	-44
150	0x44	68
151	0xd9	-39
152	0x02	2
153	0x2d	45
154	0x27	39
155	0x5f	95
156	0xfc	-4
157	0x12	18
158	0x3d	61
159	0x42	66
160	0x64	100
161	0x69	105
162	0x73	115
163	0x2e	46
164	0x81	-127
165	0xc3	-61
166	0x3d	61
167	0x9d	-99
168	0xd2	-46
169	0xf6	-10
170	0xb9	-71
171	0x97	-105
172	0x12	18
173	0xd2	-46
174	0xef	-17
175	0x1a	26
176	0xa5	-91
177	0xeb	-21
178	0x81	-127
179	0xa3	-93
180	0x86	-122
181	0xce	-50
182	0xfb	-5
183	0xbd	-67
184	0xb3	-77
185	0xc4	-60
186	0x81	-127
187	0x7f	127
188	0x7f	127
189	0x81	-127
190	0x0c	12
191	0xe2	-30
192	0xdc	-36
193	0x81	-127
194	0xa3	-93
195	0xa5	-91
196	0xf0	-16
197	0x81	-127
198	0x4e	78
199	0x94	-108
200	0x2e	46
201	0x74	116
202	0x81	-127
203	0xbe	-66
204	0xf6	-10
205	0xa5	-91
206	0x04	4
207	0xca	-54
208	0x1d	29
209	0xf9	-7
210	0x86	-122
211	0x7f	127
212	0x76	118
213	0x8c	-116
214	0x7f	127
215	0xf3	-13
216	0x57	87
217	0x2f	47
218	0xd5	-43
219	0x1b	27
220	0xbc	-68
221	0xfe	-2
222	0x4e	78
223	0xa4	-92
224	0xfc	-4
225	0x24	36
226	0x9a	-102
227	0xac	-84
228	0x81	-127
229	0xe8	-24
230	0xd9	-39
231	0x0d	13
232	0x20	32
233	0x73	115
234	0x2a	42
235	0x34	52
236	0xcc	-52
237	0x81	-127
238	0xe9	-23
239	0x4b	75
240	0x3b	59
241	0x39	57
242	0xc1	-63
243	0xa5	-91
244	0x8e	-114
245	0xe9	-23
246	0xd1	-47
247	0xae	-82
248	0x91	-111
249	0xdb	-37
250	0xa3	-93
251	0x4f	79
252	0x5e	94
253	0x5d	93
254	0xa3	-93
255	0xab	-85

functional_1/batch_normalization_7/FusedBatchNormV3;functional_1/depthwise_conv2d_3/depthwise;functional_1/depthwise_conv2d_3/BiasAdd;functional_1/conv2d_5/Conv2D;functional_1/depthwise_conv2d_3/BiasAdd/ReadVariableOp/resource i1 [1, 3, 3, 276]
0	0x59	89
1	0x03	3
2	0x81	-127
3	0x32	50
4	0xca	-54
5	0xd5	-43
6	0x04	4
7	0x81	-127
8	0x2d	45
9	0x12	18
10	0xb7	-73
11	0xe1	-31
12	0x1a	26
13	0x1e	30
14	0xa7	-89
15	0x18	24
16	0x81	-127
17	0xf4	-12
18	0x58	88
19	0xb1	-79
20	0xf4	-12
21	0xfb	-5
22	0x7b	123
23	0xcc	-52
24	0x02	2
25	0xb5	-75
26	0x47	71
27	0xc5	-59
28	0x5d	93
29	0x85	-123
30	0x7f	127
31	0x7c	124
32	0xa1	-95
33	0xcd	-51
34	0x7f	127
35	0x4d	77
36	0xe4	-28
37	0x24	36
38	0xbf	-65
39	0x57	87
40	0x6d	109
41	0xe4	-28
42	0x05	5
43	0xd5	-43
44	0x97	-105
45	0x45	69
46	0x09	9
47	0x4c	76
48	0x7f	127
49	0x3d	61
50	0x20	32
51	0x7f	127
52	0xa0	-96
53	0x19	25
54	0x74	116
55	0x7f	127
56	0x98	-104
57	0x8c	-116
58	0x97	-105
59	0x81	-127
60	0x1a	26
61	0xe5	-27
62	0x5a	90
63	0x5d	93
64	0x1c	28
65	0xf1	-15
66	0x81	-127
67	0x9d	-99
68	0x81	-127
69	0x7f	127
70	0x7f	127
71	0x7f	127
72	0x1d	29
73	0xb7	-73
74	0xc9	-55
75	0x81	-127
76	0x84	-124
77	0xac	-84
78	0xb2	-78
79	0x1a	26
80	0x16	22
81	0x66	102
82	0x3b	59
83	0x36	54
84	0x5f	95
85	0x6e	110
86	0x81	-127
87	0xcc	-52
88	0x98	-104
89	0xa6	-90
90	0x03	3
91	0x64	100
92	0x3b	59
93	0xa4	-92
94	0x84	-124
95	0x2f	47
96	0xa2	-94
97	0xfb	-5
98	0x9c	-100
99	0xf7	-9
100	0xe6	-26
101	0x28	40
102	0x12	18
103	0xe8	-24
104	0xaa	-86
105	0x33	51
106	0x18	24
107	0x77	119
108	0x3f	63
109	0xd5	-43
110	0xa3	-93
111	0x59	89
112	0x39	57
113	0xcf	-49
114	0xeb	-21
115	0xa8	-88
116	0x64	100
117	0xc4	-60
118	0xa1	-95
119	0x7f	127
120	0x5a	90
121	0x30	48
122	0xd5	-43
123	0x81	-127
124	0x7f	127
125	0x0e	14
126	0x2f	47
127	0xdb	-37
128	0x90	-112
129	0x5a	90
130	0xb7	-73
131	0xf9	-7
132	0x18	24
133	0xda	-38
134	0xd9	-39
135	0xae	-82
136	0x4f	79
137	0xf8	-8
138	0x4f	79
139	0xe7	-25
140	0x7f	127
141	0x7f	127
142	0x9e	-98
143	0x0a	10
144	0xcb	-53
145	0x72	114
146	0xf5	-11
147	0xae	-82
148	0x22	34
149	0x79	121
150	0xb9	-71
151	0xc4	-60
152	0x42	66
153	0x81	-127
154	0x2a	42
155	0x13	19
156	0x37	55
157	0x3b	59
158	0x70	112
159	0xcb	-53
160	0x2e	46
161	0xd5	-43
162	0x41	65
163	0xb2	-78
164	0x7f	127
165	0x42	66
166	0x04	4
167	0x61	97
168	0xca	-54
169	0x70	112
170	0xf3	-13
171	0xdd	-35
172	0x7f	127
173	0x20	32
174	0x81	-127
175	0xbd	-67
176	0xab	-85
177	0x1a	26
178	0xbf	-65
179	0x43	67
180	0x17	23
181	0x40	64
182	0xeb	-21
183	0xdb	-37
184	0x88	-120
185	0xfa	-6
186	0x4d	77
187	0x10	16
188	0x3f	63
189	0xbe	-66
190	0x4e	78
191	0x81	-127
192	0x33	51
193	0xfe	-2
194	0x2b	43
195	0xec	-20
196	0x04	4
197	0x58	88
198	0x78	120
199	0x12	18
200	0x9b	-101
201	0x81	-127
202	0xf5	-11
203	0x56	86
204	0x38	56
205	0x22	34
206	0x7f	127
207	0x94	-108
208	0x1e	30
209	0xf8	-8
210	0xec	-20
211	0xfc	-4
212	0x81	-127
213	0xc6	-58
214	0x66	102
215	0x91	-111
216	0x14	20
217	0x1e	30
218	0x7f	127
219	0x35	53
220	0x81	-127
221	0xe6	-26
222	0x0a	10
223	0x94	-108
224	0x2d	45
225	0x41	65
226	0x3f	63
227	0x7f	127
228	0x32	50
229	0x7f	127
230	0x79	121
231	0x81	-127
232	0x88	-120
233	0x17	23
234	0xbb	-69
235	0x32	50
236	0x49	73
237	0x7f	127
238	0xcd	-51
239	0x2f	47
240	0x8f	-113
241	0xdd	-35
242	0xc3	-61
243	0x2b	43
244	0xba	-70
245	0x93	-109
246	0xaf	-81
247	0x4b	75
248	0x5e	94
249	0xe3	-29
250	0xee	-18
251	0x15	21
252	0xdf	-33
253	0x7f	127
254	0x0a	10
255	0xae	-82

functional_1/batch_normalization_9/FusedBatchNormV3;functional_1/depthwise_conv2d_4/depthwise;functional_1/depthwise_conv2d_4/BiasAdd;functional_1/conv2d_5/Conv2D;functional_1/depthwise_conv2d_4/BiasAdd/ReadVariableOp/resource i1 [1, 3, 3, 276]
0	0x6f	111
1	0x7f	127
2	0x96	-106
3	0xa1	-95
4	0x81	-127
5	0x06	6
6	0x40	64
7	0x7f	127
8	0x81	-127
9	0x0a	10
10	0x6e	110
11	0x52	82
12	0x7f	127
13	0x81	-127
14	0x7f	127
15	0x86	-122
16	0x00	0
17	0x87	-121
18	0x0e	14
19	0xe9	-23
20	0xcb	-53
21	0xb9	-71
22	0xd2	-46
23	0x11	17
24	0xe5	-27
25	0x60	96
26	0x29	41
27	0x81	-127
28	0x13	19
29	0x9b	-101
30	0x62	98
31	0x2a	42
32	0x79	121
33	0x3f	63
34	0x96	-106
35	0x81	-127
36	0x81	-127
37	0x84	-124
38	0xa1	-95
39	0x6e	110
40	0xd2	-46
41	0x38	56
42	0xbc	-68
43	0x7f	127
44	0x4f	79
45	0x81	-127
46	0xff	-1
47	0x7f	127
48	0x5a	90
49	0x58	88
50	0xcc	-52
51	0x3a	58
52	0x38	56
53	0x92	-110
54	0x49	73
55	0x81	-127
56	0x8d	-115
57	0x7f	127
58	0x39	57
59	0x81	-127
60	0x7f	127
61	0x53	83
62	0x81	-127
63	0x38	56
64	0x14	20
65	0x56	86
66	0x53	83
67	0x61	97
68	0x2d	45
69	0x1f	31
70	0x7f	127
71	0x51	81
72	0xa8	-88
73	0x7f	127
74	0x47	71
75	0x7f	127
76	0xbd	-67
77	0x16	22
78	0x57	87
79	0x93	-109
80	0x7f	127
81	0xb0	-80
82	0x66	102
83	0x9a	-102
84	0x79	121
85	0x81	-127
86	0xd4	-44
87	0xfe	-2
88	0x2c	44
89	0x06	6
90	0x5b	91
91	0x1e	30
92	0x94	-108
93	0x0d	13
94	0x5a	90
95	0x81	-127
96	0x4d	77
97	0x47	71
98	0xe0	-32
99	0x23	35
100	0x94	-108
101	0x7f	127
102	0x9e	-98
103	0x63	99
104	0x46	70
105	0x28	40
106	0xf8	-8
107	0xb5	-75
108	0x3a	58
109	0x58	88
110	0xc6	-58
111	0x50	80
112	0xa7	-89
113	0x4f	79
114	0xbb	-69
115	0x39	57
116	0x50	80
117	0x75	117
118	0x0d	13
119	0x62	98
120	0x76	118
121	0x58	88
122	0x8d	-115
123	0x59	89
124	0x41	65
125	0xf2	-14
126	0xba	-70
127	0x64	100
128	0x62	98
129	0x90	-112
130	0x85	-123
131	0x4d	77
132	0x67	103
133	0x67	103
134	0x7f	127
135	0x43	67
136	0xaf	-81
137	0x5a	90
138	0x78	120
139	0x49	73
140	0x8b	-117
141	0x3f	63
142	0x13	19
143	0x9f	-97
144	0x7f	127
145	0x5e	94
146	0x44	68
147	0xce	-50
148	0x68	104
149	0xbc	-68
150	0xfa	-6
151	0xf7	-9
152	0x7f	127
153	0x9c	-100
154	0x69	105
155	0xd7	-41
156	0x76	118
157	0x4d	77
158	0xa0	-96
159	0xa7	-89
160	0x6d	109
161	0x9b	-101
162	0x75	117
163	0x92	-110
164	0x9e	-98
165	0xed	-19
166	0x7f	127
167	0x9a	-102
168	0x81	-127
169	0x81	-127
170	0xa2	-94
171	0x8e	-114
172	0x95	-107
173	0x49	73
174	0x2f	47
175	0x17	23
176	0xd7	-41
177	0x89	-119
178	0xff	-1
179	0x67	103
180	0x4a	74
181	0x3f	63
182	0x32	50
183	0x7f	127
184	0xd4	-44
185	0x74	116
186	0xc1	-63
187	0x59	89
188	0x5e	94
189	0x11	17
190	0x8d	-115
191	0x81	-127
192	0x7a	122
193	0xa8	-88
194	0xbe	-66
195	0xa2	-94
196	0x81	-127
197	0x78	120
198	0x93	-109
199	0x81	-127
200	0x86	-122
201	0x51	81
202	0x34	52
203	0x7f	127
204	0xbc	-68
205	0x4c	76
206	0x91	-111
207	0xb6	-74
208	0x5b	91
209	0xad	-83
210	0x7f	127
211	0xe1	-31
212	0x7f	127
213	0xbf	-65
214	0x7f	127
215	0x52	82
216	0x29	41
217	0xa9	-87
218	0x60	96
219	0x41	65
220	0x7f	127
221	0x2f	47
222	0x78	120
223	0xdf	-33
224	0x81	-127
225	0x86	-122
226	0x6d	109
227	0x2e	46
228	0x5f	95
229	0x81	-127
230	0x81	-127
231	0x74	116
232	0xef	-17
233	0x3d	61
234	0x7f	127
235	0x83	-125
236	0x81	-127
237	0x41	65
238	0xac	-84
239	0x8a	-118
240	0x7f	127
241	0xee	-18
242	0x6a	106
243	0x7f	127
244	0x5c	92
245	0xc7	-57
246	0x7f	127
247	0x4c	76
248	0x7c	124
249	0x57	87
250	0x69	105
251	0x57	87
252	0x99	-103
253	0xa2	-94
254	0x7f	127
255	0x8d	-115

functional_1/dense/MatMul i1 [12, 276] scale=0.0054066284 zero_point=0
0	0x2d	0.24329828
1	0xea	-0.11894582
2	0xa9	-0.47037667
3	0xd3	-0.24329828
4	0xb1	-0.42712364
5	0x2f	0.25411153
6	0xdc	-0.19463862
7	0xe9	-0.124352455
8	0xc9	-0.29736456
9	0x1d	0.15679222
10	0x00	0.0
11	0xff	-0.0054066284
12	0xcf	-0.2649248
13	0xb9	-0.3838706
14	0xb9	-0.3838706
15	0xe7	-0.1351657
16	0x31	0.2649248
17	0xaa	-0.46497005
18	0xbe	-0.35683748
19	0xa0	-0.5190363
20	0x2d	0.24329828
21	0xbf	-0.35143083
22	0x12	0.09731931
23	0xde	-0.18382536
24	0xac	-0.4541568
25	0xc3	-0.32980433
26	0x18	0.12975907
27	0xbc	-0.36765072
28	0xdc	-0.19463862
29	0xe7	-0.1351657
30	0xe9	-0.124352455
31	0x9f	-0.524443
32	0xdc	-0.19463862
33	0xbc	-0.36765072
34	0x0e	0.075692795
35	0xd1	-0.25411153
36	0xac	-0.4541568
37	0xe9	-0.124352455
38	0x2c	0.23789164
39	0xd9	-0.21085851
40	0xd5	-0.23248503
41	0xe4	-0.15138559
42	0xc8	-0.30277118
43	0x95	-0.5785092
44	0x2a	0.2270784
45	0xd4	-0.23789164
46	0xc9	-0.29736456
47	0x19	0.1351657
48	0xa2	-0.50822306
49	0xd7	-0.22167176
50	0xc1	-0.3406176
51	0xbf	-0.35143083
52	0x95	-0.5785092
53	0xac	-0.4541568
54	0xb4	-0.41090375
55	0xfd	-0.016219884
56	0xd6	-0.2270784
57	0xbf	-0.35143083
58	0xcf	-0.2649248
59	0xbd	-0.3622441
60	0xcf	-0.2649248
61	0xdd	-0.18923199
62	0xc6	-0.31358445
63	0xbe	-0.35683748
64	0xc6	-0.31358445
65	0x27	0.21085851
66	0x29	0.22167176
67	0x95	-0.5785092
68	0xb5	-0.40549713
69	0x29	0.22167176
70	0xd5	-0.23248503
71	0xbf	-0.35143083
72	0x9f	-0.524443
73	0xc4	-0.3243977
74	0xd8	-0.21626514
75	0x14	0.10813257
76	0xaf	-0.4379369
77	0xdf	-0.17841874
78	0x20	0.17301211
79	0xcf	-0.2649248
80	0x8f	-0.610949
81	0xd7	-0.22167176
82	0xd6	-0.2270784
83	0xd9	-0.21085851
84	0x0c	0.06487954
85	0xc8	-0.30277118
86	0xfd	-0.016219884
87	0xbf	-0.35143083
88	0xbd	-0.3622441
89	0x36	0.29195794
90	0x1b	0.14597897
91	0xc8	-0.30277118
92	0x10	0.086506054
93	0xff	-0.0054066284
94	0xbf	-0.35143083
95	0xe3	-0.15679222
96	0x34	0.28114468
97	0xee	-0.09731931
98	0xb0	-0.43253028
99	0xce	-0.2703314
100	0xc8	-0.30277118
101	0xa7	-0.48118994
102	0xdf	-0.17841874
103	0xb3	-0.41631037
104	0x30	0.25951815
105	0xb4	-0.41090375
106	0xf5	-0.05947291
107	0xb2	-0.42171702
108	0xbf	-0.35143083
109	0xf8	-0.043253027
110	0xe1	-0.16760547
111	0x32	0.2703314
112	0xe0	-0.17301211
113	0xf7	-0.048659656
114	0xe1	-0.16760547
115	0xf1	-0.08109943
116	0xe6	-0.14057234
117	0xc4	-0.3243977
118	0xec	-0.10813257
119	0xf0	-0.086506054
120	0xd0	-0.25951815
121	0xa7	-0.48118994
122	0x39	0.30817783
123	0xcb	-0.2865513
124	0xfe	-0.010813257
125	0xe4	-0.15138559
126	0x30	0.25951815
127	0xf4	-0.06487954
128	0xd9	-0.21085851
129	0xc6	-0.31358445
130	0xdd	-0.18923199
131	0x1b	0.14597897
132	0xd4	-0.23789164
133	0x34	0.28114468
134	0x1f	0.16760547
135	0x2c	0.23789164
136	0xad	-0.44875017
137	0xb0	-0.43253028
138	0xb0	-0.43253028
139	0xa4	-0.49740982
140	0xca	-0.29195794
141	0xeb	-0.1135392
142	0x11	0.09191268
143	0x36	0.29195794
144	0xd1	-0.25411153
145	0x39	0.30817783
146	0xe2	-0.16219886
147	0xcf	-0.2649248
148	0x2c	0.23789164
149	0xdb	-0.20004524
150	0x02	0.010813257
151	0xf2	-0.075692795
152	0xe8	-0.12975907
153	0xd1	-0.25411153
154	0xda	-0.20545188
155	0xbe	-0.35683748
156	0xcb	-0.2865513
157	0xf8	-0.043253027
158	0xd2	-0.24870491
159	0xfc	-0.021626513
160	0x9e	-0.5298496
161	0x30	0.25951815
162	0xd3	-0.24329828
163	0xcf	-0.2649248
164	0xa3	-0.50281644
165	0x29	0.22167176
166	0xf7	-0.048659656
167	0x1b	0.14597897
168	0x0a	0.054066285
169	0xb5	-0.40549713
170	0xd4	-0.23789164
171	0x96	-0.5731026
172	0x22	0.18382536
173	0x01	0.0054066284
174	0xa7	-0.48118994
175	0xd6	-0.2270784
176	0xcf	-0.2649248
177	0xe6	-0.14057234
178	0xbf	-0.35143083
179	0xdc	-0.19463862
180	0x97	-0.567696
181	0x9f	-0.524443
182	0x17	0.124352455
183	0x1e	0.16219886
184	0xf2	-0.075692795
185	0x30	0.25951815
186	0x06	0.03243977
187	0xd9	-0.21085851
188	0xcb	-0.2865513
189	0xe2	-0.16219886
190	0x20	0.17301211
191	0x8e	-0.61635566
192	0xbd	-0.3622441
193	0xd5	-0.23248503
194	0x2f	0.25411153
195	0xd6	-0.2270784
196	0xd5	-0.23248503
197	0xdf	-0.17841874
198	0x1d	0.15679222
199	0xeb	-0.1135392
200	0xba	-0.37846398
201	0xa8	-0.4757833
202	0xfc	-0.021626513
203	0xf2	-0.075692795
204	0xc6	-0.31358445
205	0x2f	0.25411153
206	0x9a	-0.5514761
207	0xf3	-0.07028617
208	0x32	0.2703314
209	0xe8	-0.12975907
210	0x2d	0.24329828
211	0x15	0.1135392
212	0xe1	-0.16760547
213	0xbf	-0.35143083
214	0xbf	-0.35143083
215	0x30	0.25951815
216	0xab	-0.4595634
217	0xc5	-0.31899107
218	0xee	-0.09731931
219	0xf7	-0.048659656
220	0x9f	-0.524443
221	0xc5	-0.31899107
222	0xe0	-0.17301211
223	0xe8	-0.12975907
224	0xc3	-0.32980433
225	0xd5	-0.23248503
226	0xdd	-0.18923199
227	0xa1	-0.5136297
228	0x03	0.016219884
229	0xd6	-0.2270784
230	0xcf	-0.2649248
231	0xbb	-0.37305737
232	0xe9	-0.124352455
233	0xc2	-0.33521095
234	0x04	0.021626513
235	0xa8	-0.4757833
236	0xcf	-0.2649248
237	0xb2	-0.42171702
238	0xe6	-0.14057234
239	0xd3	-0.24329828
240	0xe6	-0.14057234
241	0xac	-0.4541568
242	0xe5	-0.14597897
243	0x2b	0.23248503
244	0xbd	-0.3622441
245	0xb1	-0.42712364
246	0xd5	-0.23248503
247	0xfd	-0.016219884
248	0x1a	0.14057234
249	0xe6	-0.14057234
250	0xee	-0.09731931
251	0x2b	0.23248503
252	0x1a	0.14057234
253	0xc8	-0.30277118
254	0x2f	0.25411153
255	0xfb	-0.027033143

functional_1/conv2d/Conv2D i1 [276, 10, 4, 1]
0	0x00	0
1	0x1d	29
2	0x4e	78
3	0x38	56
4	0xc5	-59
5	0x06	6
6	0x5d	93
7	0x45	69
8	0xc1	-63
9	0x12	18
10	0x0d	13
11	0x12	18
12	0x81	-127
13	0x32	50
14	0xb5	-75
15	0xf0	-16
16	0xb4	-76
17	0xda	-38
18	0xd9	-39
19	0x10	16
20	0xff	-1
21	0xee	-18
22	0xe1	-31
23	0x2e	46
24	0x2a	42
25	0x2d	45
26	0x3b	59
27	0xdb	-37
28	0x3b	59
29	0x2d	45
30	0x3b	59
31	0xce	-50
32	0x28	40
33	0xc1	-63
34	0x0b	11
35	0x12	18
36	0x28	40
37	0xd5	-43
38	0x24	36
39	0x17	23
40	0x0b	11
41	0x5f	95
42	0x2c	44
43	0xf3	-13
44	0x0c	12
45	0x4e	78
46	0x08	8
47	0x1a	26
48	0xff	-1
49	0xc2	-62
50	0x35	53
51	0xfc	-4
52	0x33	51
53	0xca	-54
54	0x22	34
55	0xed	-19
56	0xf5	-11
57	0xe5	-27
58	0xb9	-71
59	0xbe	-66
60	0x0b	11
61	0xac	-84
62	0xc6	-58
63	0x0c	12
64	0xdb	-37
65	0x81	-127
66	0x31	49
67	0x6b	107
68	0xf9	-7
69	0x1d	29
70	0x2b	43
71	0x27	39
72	0xed	-19
73	0x40	64
74	0xe8	-24
75	0x19	25
76	0xe0	-32
77	0x28	40
78	0x13	19
79	0x12	18
80	0xac	-84
81	0x12	18
82	0xd2	-46
83	0xf1	-15
84	0xe6	-26
85	0x3c	60
86	0xd4	-44
87	0xb7	-73
88	0x99	-103
89	0xc3	-61
90	0xbd	-67
91	0xa9	-87
92	0x9b	-101
93	0x8c	-116
94	0xab	-85
95	0xaa	-86
96	0xc9	-55
97	0x81	-127
98	0xce	-50
99	0xff	-1
100	0xe8	-24
101	0xeb	-21
102	0xe2	-30
103	0xf0	-16
104	0xcb	-53
105	0x10	16
106	0xfe	-2
107	0x26	38
108	0x3e	62
109	0x16	22
110	0xdc	-36
111	0xb8	-72
112	0x45	69
113	0x1c	28
114	0xd3	-45
115	0xed	-19
116	0x62	98
117	0x34	52
118	0x07	7
119	0xed	-19
120	0x18	24
121	0xfe	-2
122	0x13	19
123	0xf2	-14
124	0x2c	44
125	0x14	20
126	0x07	7
127	0x06	6
128	0x34	52
129	0x3e	62
130	0x16	22
131	0x0f	15
132	0xfb	-5
133	0xef	-17
134	0xf3	-13
135	0x23	35
136	0xc9	-55
137	0xf9	-7
138	0xdf	-33
139	0xd1	-47
140	0xd4	-44
141	0x1e	30
142	0xc3	-61
143	0x81	-127
144	0x0d	13
145	0x29	41
146	0xf0	-16
147	0xad	-83
148	0x2e	46
149	0x33	51
150	0x09	9
151	0x25	37
152	0x26	38
153	0xfe	-2
154	0xfe	-2
155	0x57	87
156	0xf7	-9
157	0xf5	-11
158	0x02	2
159	0x11	17
160	0xf9	-7
161	0x00	0
162	0x63	99
163	0x17	23
164	0x02	2
165	0xf0	-16
166	0x5c	92
167	0x23	35
168	0xf4	-12
169	0xf7	-9
170	0x51	81
171	0x0c	12
172	0xed	-19
173	0x14	20
174	0x4e	78
175	0x12	18
176	0xe4	-28
177	0x16	22
178	0x7f	127
179	0x11	17
180	0xba	-70
181	0x26	38
182	0x1f	31
183	0x0a	10
184	0xd3	-45
185	0x30	48
186	0x35	53
187	0xea	-22
188	0xe8	-24
189	0x32	50
190	0x1b	27
191	0x08	8
192	0x27	39
193	0x18	24
194	0xe5	-27
195	0xca	-54
196	0x29	41
197	0x25	37
198	0xcf	-49
199	0xe8	-24
200	0xd7	-41
201	0xd6	-42
202	0xc8	-56
203	0x0b	11
204	0xff	-1
205	0xe7	-25
206	0xa6	-90
207	0x0d	13
208	0xeb	-21
209	0xf7	-9
210	0xd2	-46
211	0x71	113
212	0xe7	-25
213	0x33	51
214	0xe4	-28
215	0x7f	127
216	0xe6	-26
217	0x45	69
218	0x47	71
219	0x78	120
220	0xda	-38
221	0x0c	12
222	0x40	64
223	0x28	40
224	0xf1	-15
225	0xf1	-15
226	0x29	41
227	0x1e	30
228	0x19	25
229	0xf5	-11
230	0x33	51
231	0x18	24
232	0x4d	77
233	0xe7	-25
234	0x2a	42
235	0x1c	28
236	0x50	80
237	0x03	3
238	0xed	-19
239	0x29	41
240	0x2e	46
241	0x10	16
242	0x47	71
243	0x7a	122
244	0x1e	30
245	0x0a	10
246	0x16	22
247	0x2a	42
248	0x3c	60
249	0xfc	-4
250	0x2f	47
251	0x2d	45
252	0x7f	127
253	0x0f	15
254	0x24	36
255	0xed	-19

functional_1/conv2d_1/Conv2D i1 [276, 1, 1, 276]
0	0x1a	26
1	0x31	49
2	0xcb	-53
3	0xb9	-71
4	0xcb	-53
5	0x1d	29
6	0x2a	42
7	0xb5	-75
8	0xd9	-39
9	0x16	22
10	0xd4	-44
11	0x14	20
12	0x0f	15
13	0xd7	-41
14	0x04	4
15	0xfb	-5
16	0xd1	-47
17	0xef	-17
18	0xd7	-41
19	0xfe	-2
20	0x4f	79
21	0xbd	-67
22	0xf7	-9
23	0x08	8
24	0xec	-20
25	0x08	8
26	0xbe	-66
27	0xde	-34
28	0x08	8
29	0xf5	-11
30	0xbc	-68
31	0xd1	-47
32	0xdd	-35
33	0xc4	-60
34	0xf8	-8
35	0xcd	-51
36	0x16	22
37	0x10	16
38	0x03	3
39	0xc0	-64
40	0x5b	91
41	0xc0	-64
42	0xf3	-13
43	0xef	-17
44	0xea	-22
45	0xd9	-39
46	0xce	-50
47	0xf3	-13
48	0xac	-84
49	0xc0	-64
50	0x0d	13
51	0x39	57
52	0xca	-54
53	0x08	8
54	0xf5	-11
55	0x10	16
56	0xc5	-59
57	0xe6	-26
58	0xfb	-5
59	0xc5	-59
60	0xed	-19
61	0xce	-50
62	0xb0	-80
63	0x08	8
64	0xff	-1
65	0xdf	-33
66	0x37	55
67	0xc3	-61
68	0x2f	47
69	0x12	18
70	0x11	17
71	0xf9	-7
72	0x2f	47
73	0x1a	26
74	0x25	37
75	0xd5	-43
76	0xb5	-75
77	0xa7	-89
78	0xcf	-49
79	0xc4	-60
80	0x1b	27
81	0x01	1
82	0xee	-18
83	0xf1	-15
84	0x01	1
85	0xf3	-13
86	0x45	69
87	0x81	-127
88	0xe1	-31
89	0x06	6
90	0x29	41
91	0xf3	-13
92	0xcb	-53
93	0xec	-20
94	0xc9	-55
95	0x5b	91
96	0xd9	-39
97	0x3c	60
98	0xf0	-16
99	0x05	5
100	0x17	23
101	0xac	-84
102	0x24	36
103	0x16	22
104	0xca	-54
105	0x1a	26
106	0x15	21
107	0x00	0
108	0xfc	-4
109	0x0e	14
110	0x09	9
111	0x0a	10
112	0x00	0
113	0xf4	-12
114	0xd0	-48
115	0xf7	-9
116	0xab	-85
117	0x4a	74
118	0x04	4
119	0xea	-22
120	0xf9	-7
121	0x2e	46
122	0xe6	-26
123	0x0e	14
124	0xb3	-77
125	0xe2	-30
126	0xbe	-66
127	0x92	-110
128	0xda	-38
129	0xf8	-8
130	0xfb	-5
131	0xdb	-37
132	0x05	5
133	0x18	24
134	0xed	-19
135	0x2d	45
136	0x1f	31
137	0xb1	-79
138	0xca	-54
139	0xfc	-4
140	0x23	35
141	0x44	68
142	0xf1	-15
143	0x16	22
144	0x20	32
145	0x9d	-99
146	0x0d	13
147	0xad	-83
148	0xbc	-68
149	0x13	19
150	0x01	1
151	0xb3	-77
152	0x11	17
153	0xb9	-71
154	0x0c	12
155	0x26	38
156	0x17	23
157	0x01	1
158	0x13	19
159	0xd5	-43
160	0xcb	-53
161	0xba	-70
162	0xd4	-44
163	0xa4	-92
164	0x1a	26
165	0x04	4
166	0x15	21
167	0x3c	60
168	0x00	0
169	0xec	-20
170	0xee	-18
171	0xc9	-55
172	0xf2	-14
173	0xf9	-7
174	0xeb	-21
175	0xa6	-90
176	0x2d	45
177	0xda	-38
178	0xb5	-75
179	0xcc	-52
180	0xd0	-48
181	0xde	-34
182	0xae	-82
183	0x62	98
184	0xb2	-78
185	0xda	-38
186	0x13	19
187	0x03	3
188	0x33	51
189	0x13	19
190	0xe3	-29
191	0xe8	-24
192	0x1f	31
193	0xc2	-62
194	0x15	21
195	0xa9	-87
196	0x25	37
197	0xf8	-8
198	0x3c	60
199	0xb7	-73
200	0x10	16
201	0xf8	-8
202	0x1c	28
203	0xe5	-27
204	0x1d	29
205	0xea	-22
206	0xca	-54
207	0x21	33
208	0x3f	63
209	0xf9	-7
210	0xfa	-6
211	0xf8	-8
212	0x0e	14
213	0x20	32
214	0xe5	-27
215	0xc9	-55
216	0x01	1
217	0x1d	29
218	0xf2	-14
219	0x21	33
220	0xf1	-15
221	0xcf	-49
222	0xae	-82
223	0x0f	15
224	0xdd	-35
225	0x17	23
226	0xc0	-64
227	0xdf	-33
228	0xc5	-59
229	0x8c	-116
230	0x17	23
231	0xe7	-25
232	0x14	20
233	0x25	37
234	0xea	-22
235	0xd7	-41
236	0xb8	-72
237	0xfd	-3
238	0x21	33
239	0x40	64
240	0xc2	-62
241	0x0c	12
242	0xeb	-21
243	0xfa	-6
244	0xbe	-66
245	0x1a	26
246	0xe2	-30
247	0x25	37
248	0x02	2
249	0x44	68
250	0x14	20
251	0x1a	26
252	0x2f	47
253	0xd4	-44
254	0xe0	-32
255	0x6e	110

functional_1/conv2d_2/Conv2D i1 [276, 1, 1, 276]
0	0x37	55
1	0xac	-84
2	0xbd	-67
3	0x04	4
4	0x0b	11
5	0xaa	-86
6	0xd3	-45
7	0x0b	11
8	0x17	23
9	0x13	19
10	0x09	9
11	0xd9	-39
12	0xef	-17
13	0x54	84
14	0x13	19
15	0xfe	-2
16	0xea	-22
17	0xe4	-28
18	0xe2	-30
19	0xb1	-79
20	0x02	2
21	0xfd	-3
22	0xfa	-6
23	0x34	52
24	0xae	-82
25	0x04	4
26	0x01	1
27	0x03	3
28	0xe5	-27
29	0xf3	-13
30	0x24	36
31	0xef	-17
32	0x16	22
33	0xd0	-48
34	0x07	7
35	0x2c	44
36	0x13	19
37	0xeb	-21
38	0x2f	47
39	0xe1	-31
40	0xf9	-7
41	0xf5	-11
42	0x0b	11
43	0x3e	62
44	0xcf	-49
45	0x55	85
46	0x26	38
47	0x4c	76
48	0x24	36
49	0xfc	-4
50	0x28	40
51	0xae	-82
52	0xcb	-53
53	0xdd	-35
54	0xf6	-10
55	0x81	-127
56	0x24	36
57	0x19	25
58	0x16	22
59	0xc3	-61
60	0x09	9
61	0xf4	-12
62	0xd2	-46
63	0x48	72
64	0x1d	29
65	0x22	34
66	0x3b	59
67	0xfb	-5
68	0x1b	27
69	0x02	2
70	0xd1	-47
71	0x19	25
72	0x11	17
73	0x1b	27
74	0x0f	15
75	0xf4	-12
76	0x4b	75
77	0x3a	58
78	0xd9	-39
79	0xeb	-21
80	0xd6	-42
81	0xfb	-5
82	0x1b	27
83	0xec	-20
84	0x31	49
85	0xfa	-6
86	0xd6	-42
87	0xc8	-56
88	0x44	68
89	0xf8	-8
90	0x35	53
91	0xf7	-9
92	0xef	-17
93	0xea	-22
94	0xd5	-43
95	0xd9	-39
96	0xac	-84
97	0x0e	14
98	0x01	1
99	0xe4	-28
100	0xef	-17
101	0x0c	12
102	0xd5	-43
103	0xfb	-5
104	0x12	18
105	0x22	34
106	0xcd	-51
107	0xdf	-33
108	0xf5	-11
109	0xc7	-57
110	0x19	25
111	0x11	17
112	0xe0	-32
113	0xfa	-6
114	0x03	3
115	0xb4	-76
116	0xce	-50
117	0xe2	-30
118	0x35	53
119	0xd2	-46
120	0xcc	-52
121	0xd1	-47
122	0xea	-22
123	0xba	-70
124	0xf2	-14
125	0xc4	-60
126	0x0b	11
127	0x2b	43
128	0xf0	-16
129	0xd5	-43
130	0x12	18
131	0x17	23
132	0xec	-20
133	0x0a	10
134	0x24	36
135	0xe7	-25
136	0xb8	-72
137	0xeb	-21
138	0xc6	-58
139	0x3f	63
140	0x32	50
141	0x0e	14
142	0x3b	59
143	0xdf	-33
144	0x0b	11
145	0xf8	-8
146	0x25	37
147	0xf9	-7
148	0x09	9
149	0xe8	-24
150	0x24	36
151	0x19	25
152	0x16	22
153	0xf7	-9
154	0x17	23
155	0x1a	26
156	0xf6	-10
157	0x06	6
158	0xc4	-60
159	0xe2	-30
160	0xe1	-31
161	0x1e	30
162	0xdf	-33
163	0xf0	-16
164	0x00	0
165	0xb2	-78
166	0x10	16
167	0x2b	43
168	0xf6	-10
169	0x1a	26
170	0x5f	95
171	0xfd	-3
172	0x0b	11
173	0x3c	60
174	0xe2	-30
175	0x05	5
176	0xf9	-7
177	0xce	-50
178	0xda	-38
179	0x34	52
180	0xc5	-59
181	0xec	-20
182	0xe1	-31
183	0xd7	-41
184	0x03	3
185	0x01	1
186	0x1c	28
187	0xf5	-11
188	0x0e	14
189	0x0f	15
190	0x0c	12
191	0x09	9
192	0xea	-22
193	0x08	8
194	0x1a	26
195	0xce	-50
196	0xed	-19
197	0x26	38
198	0x10	16
199	0x21	33
200	0xc0	-64
201	0x46	70
202	0x24	36
203	0xe2	-30
204	0xec	-20
205	0xdd	-35
206	0x27	39
207	0x03	3
208	0x19	25
209	0x0c	12
210	0xfd	-3
211	0x7d	125
212	0x29	41
213	0xb9	-71
214	0x38	56
215	0xaf	-81
216	0x85	-123
217	0x0c	12
218	0xd0	-48
219	0xbf	-65
220	0x0b	11
221	0x46	70
222	0xf6	-10
223	0xdc	-36
224	0x8f	-113
225	0x28	40
226	0xe5	-27
227	0x10	16
228	0x0c	12
229	0xf4	-12
230	0xe2	-30
231	0xb3	-77
232	0xf2	-14
233	0xd7	-41
234	0xe8	-24
235	0xce	-50
236	0x08	8
237	0x09	9
238	0xef	-17
239	0xe8	-24
240	0x15	21
241	0x11	17
242	0x16	22
243	0x1f	31
244	0x2b	43
245	0x73	115
246	0x20	32
247	0x0a	10
248	0xc9	-55
249	0x2b	43
250	0x05	5
251	0x53	83
252	0x2c	44
253	0xd3	-45
254	0x1c	28
255	0xe9	-23

functional_1/conv2d_3/Conv2D i1 [276, 1, 1, 276]
0	0xdc	-36
1	0x19	25
2	0xbf	-65
3	0x00	0
4	0x40	64
5	0xd4	-44
6	0x95	-107
7	0xaf	-81
8	0x2e	46
9	0x0f	15
10	0x0a	10
11	0x32	50
12	0xf2	-14
13	0x35	53
14	0x18	24
15	0x4d	77
16	0x13	19
17	0x1f	31
18	0x19	25
19	0x22	34
20	0x08	8
21	0xd5	-43
22	0x9b	-101
23	0x07	7
24	0x9b	-101
25	0xf5	-11
26	0xfb	-5
27	0xd6	-42
28	0x18	24
29	0x6e	110
30	0xd7	-41
31	0xf5	-11
32	0x29	41
33	0xbf	-65
34	0xc0	-64
35	0x04	4
36	0xa7	-89
37	0xf7	-9
38	0x08	8
39	0x40	64
40	0xdf	-33
41	0x0c	12
42	0x03	3
43	0x08	8
44	0x21	33
45	0xec	-20
46	0x19	25
47	0xe6	-26
48	0xe4	-28
49	0x2a	42
50	0x40	64
51	0xef	-17
52	0xe6	-26
53	0x30	48
54	0xe3	-29
55	0xbd	-67
56	0xad	-83
57	0xc4	-60
58	0xe5	-27
59	0x06	6
60	0xb8	-72
61	0x4e	78
62	0x0d	13
63	0x34	52
64	0xf6	-10
65	0xe2	-30
66	0x2a	42
67	0x0a	10
68	0x26	38
69	0x1f	31
70	0xdc	-36
71	0x1e	30
72	0xbd	-67
73	0x20	32
74	0x10	16
75	0x2e	46
76	0x57	87
77	0x0a	10
78	0x4f	79
79	0xef	-17
80	0x4a	74
81	0xe4	-28
82	0x50	80
83	0xbd	-67
84	0xbb	-69
85	0xc5	-59
86	0x35	53
87	0xf6	-10
88	0xbc	-68
89	0xb3	-77
90	0xce	-50
91	0x43	67
92	0xe6	-26
93	0xfa	-6
94	0x48	72
95	0xb6	-74
96	0xc6	-58
97	0xd9	-39
98	0xe1	-31
99	0xf7	-9
100	0x39	57
101	0x31	49
102	0xc6	-58
103	0xcb	-53
104	0xbf	-65
105	0x19	25
106	0xb8	-72
107	0x0a	10
108	0x20	32
109	0x57	87
110	0x10	16
111	0xc6	-58
112	0xca	-54
113	0x0b	11
114	0xfb	-5
115	0xd8	-40
116	0xed	-19
117	0xdb	-37
118	0x4c	76
119	0x02	2
120	0xbd	-67
121	0xe4	-28
122	0xde	-34
123	0xa8	-88
124	0x3e	62
125	0xfd	-3
126	0x19	25
127	0x0e	14
128	0x30	48
129	0xe0	-32
130	0x53	83
131	0xc1	-63
132	0x3b	59
133	0xd6	-42
134	0xe1	-31
135	0xcb	-53
136	0x00	0
137	0xd5	-43
138	0x18	24
139	0xe8	-24
140	0x21	33
141	0x1c	28
142	0xe5	-27
143	0xda	-38
144	0xba	-70
145	0x19	25
146	0xb2	-78
147	0x0d	13
148	0xe9	-23
149	0xfa	-6
150	0xdf	-33
151	0x48	72
152	0x22	34
153	0xfc	-4
154	0x11	17
155	0x15	21
156	0x3c	60
157	0xea	-22
158	0x2d	45
159	0xc4	-60
160	0x81	-127
161	0x8b	-117
162	0xc4	-60
163	0xa7	-89
164	0xe3	-29
165	0x0a	10
166	0xed	-19
167	0xb1	-79
168	0x49	73
169	0x19	25
170	0x41	65
171	0xf6	-10
172	0x0e	14
173	0xfe	-2
174	0xdf	-33
175	0xfa	-6
176	0x11	17
177	0xb7	-73
178	0x86	-122
179	0x1d	29
180	0x29	41
181	0x3f	63
182	0x07	7
183	0xf0	-16
184	0xd7	-41
185	0x0a	10
186	0x2d	45
187	0xe0	-32
188	0xd8	-40
189	0xfc	-4
190	0xf8	-8
191	0xf9	-7
192	0x08	8
193	0xd8	-40
194	0xa6	-90
195	0x14	20
196	0xbc	-68
197	0xdf	-33
198	0x23	35
199	0xec	-20
200	0xd9	-39
201	0xe7	-25
202	0x2f	47
203	0x20	32
204	0x0e	14
205	0x22	34
206	0x28	40
207	0xee	-18
208	0x00	0
209	0x56	86
210	0x21	33
211	0xda	-38
212	0xf9	-7
213	0x1f	31
214	0xe1	-31
215	0xcc	-52
216	0xec	-20
217	0xd8	-40
218	0x8c	-116
219	0x10	16
220	0x51	81
221	0x05	5
222	0x47	71
223	0xd1	-47
224	0x59	89
225	0x18	24
226	0xb8	-72
227	0x08	8
228	0x1e	30
229	0x14	20
230	0x9c	-100
231	0xe9	-23
232	0xe3	-29
233	0xcf	-49
234	0xde	-34
235	0xe2	-30
236	0x10	16
237	0x02	2
238	0x2a	42
239	0xc4	-60
240	0x01	1
241	0xed	-19
242	0x40	64
243	0x32	50
244	0xfc	-4
245	0x1a	26
246	0x2a	42
247	0xd9	-39
248	0x0c	12
249	0xed	-19
250	0x27	39
251	0xf8	-8
252	0xc4	-60
253	0x02	2
254	0xeb	-21
255	0x40	64

functional_1/conv2d_4/Conv2D i1 [276, 1, 1, 276]
0	0x15	21
1	0x2a	42
2	0xe8	-24
3	0x17	23
4	0xd8	-40
5	0xe6	-26
6	0xcd	-51
7	0x08	8
8	0x14	20
9	0xc6	-58
10	0x15	21
11	0x28	40
12	0x0c	12
13	0x0d	13
14	0x36	54
15	0x23	35
16	0x08	8
17	0x1f	31
18	0x55	85
19	0x3a	58
20	0xfd	-3
21	0xc8	-56
22	0x11	17
23	0x47	71
24	0x07	7
25	0x18	24
26	0xf1	-15
27	0x1a	26
28	0xf6	-10
29	0xde	-34
30	0x96	-106
31	0x23	35
32	0x32	50
33	0x32	50
34	0x05	5
35	0x3e	62
36	0xf5	-11
37	0x3a	58
38	0x30	48
39	0x18	24
40	0x35	53
41	0x08	8
42	0xfe	-2
43	0x1e	30
44	0xd0	-48
45	0x35	53
46	0xc1	-63
47	0xc8	-56
48	0xf9	-7
49	0xbd	-67
50	0xc1	-63
51	0xda	-38
52	0x2f	47
53	0xfb	-5
54	0xe7	-25
55	0x21	33
56	0xe3	-29
57	0xf9	-7
58	0x25	37
59	0x2a	42
60	0xdc	-36
61	0x34	52
62	0xef	-17
63	0xcd	-51
64	0x22	34
65	0xff	-1
66	0x02	2
67	0x42	66
68	0xde	-34
69	0xf6	-10
70	0x31	49
71	0x1b	27
72	0xfd	-3
73	0xdc	-36
74	0x1f	31
75	0x10	16
76	0x07	7
77	0xea	-22
78	0xe5	-27
79	0x31	49
80	0x45	69
81	0xe8	-24
82	0xc9	-55
83	0xf9	-7
84	0xfb	-5
85	0xf7	-9
86	0x0b	11
87	0xee	-18
88	0x0e	14
89	0x30	48
90	0x49	73
91	0xe2	-30
92	0x0d	13
93	0x3b	59
94	0xe7	-25
95	0x21	33
96	0xb6	-74
97	0xd4	-44
98	0x0f	15
99	0x11	17
100	0xf5	-11
101	0x15	21
102	0x35	53
103	0xf3	-13
104	0xec	-20
105	0xcf	-49
106	0x19	25
107	0x01	1
108	0x50	80
109	0x4f	79
110	0x7f	127
111	0x11	17
112	0x37	55
113	0xf4	-12
114	0xfb	-5
115	0xe9	-23
116	0xcf	-49
117	0xea	-22
118	0xfe	-2
119	0xf5	-11
120	0x1a	26
121	0xce	-50
122	0x20	32
123	0x42	66
124	0x01	1
125	0xbc	-68
126	0xdb	-37
127	0xde	-34
128	0x13	19
129	0xe8	-24
130	0x93	-109
131	0x2c	44
132	0x36	54
133	0xe9	-23
134	0x13	19
135	0xba	-70
136	0x17	23
137	0x1c	28
138	0xe8	-24
139	0xf2	-14
140	0xf7	-9
141	0x2a	42
142	0xcf	-49
143	0xd2	-46
144	0x12	18
145	0x1e	30
146	0x23	35
147	0xe2	-30
148	0x0e	14
149	0x1a	26
150	0x11	17
151	0xdf	-33
152	0xde	-34
153	0x32	50
154	0xf2	-14
155	0xd3	-45
156	0x16	22
157	0x04	4
158	0x48	72
159	0xc1	-63
160	0xfa	-6
161	0xfa	-6
162	0x05	5
163	0x00	0
164	0xff	-1
165	0x39	57
166	0xda	-38
167	0xf6	-10
168	0xfa	-6
169	0x15	21
170	0xb3	-77
171	0xae	-82
172	0x99	-103
173	0x16	22
174	0xd4	-44
175	0x16	22
176	0x12	18
177	0x22	34
178	0xbb	-69
179	0x03	3
180	0xbc	-68
181	0x15	21
182	0xf9	-7
183	0xf7	-9
184	0x04	4
185	0xcd	-51
186	0x58	88
187	0xe3	-29
188	0x40	64
189	0x07	7
190	0xc9	-55
191	0xb7	-73
192	0xd0	-48
193	0x12	18
194	0x20	32
195	0x0e	14
196	0xc2	-62
197	0x03	3
198	0x28	40
199	0xdb	-37
200	0x10	16
201	0x0d	13
202	0xaf	-81
203	0x19	25
204	0xff	-1
205	0x10	16
206	0x1f	31
207	0xda	-38
208	0x42	66
209	0xb3	-77
210	0xf7	-9
211	0xd4	-44
212	0x29	41
213	0x4a	74
214	0x22	34
215	0xf1	-15
216	0xd7	-41
217	0xdc	-36
218	0xe6	-26
219	0xdc	-36
220	0x4e	78
221	0xd2	-46
222	0x03	3
223	0xf6	-10
224	0xb2	-78
225	0xdf	-33
226	0xbb	-69
227	0xf4	-12
228	0xc2	-62
229	0xf7	-9
230	0xbe	-66
231	0xed	-19
232	0x22	34
233	0x0b	11
234	0x55	85
235	0x06	6
236	0xff	-1
237	0xe2	-30
238	0xdb	-37
239	0x17	23
240	0x31	49
241	0xfe	-2
242	0xce	-50
243	0xf4	-12
244	0x25	37
245	0x04	4
246	0x0c	12
247	0xc2	-62
248	0x2b	43
249	0x2b	43
250	0x40	64
251	0x0f	15
252	0x37	55
253	0x44	68
254	0xea	-22
255	0x03	3

functional_1/conv2d_5/Conv2D i1 [276, 1, 1, 276]
0	0xe2	-30
1	0xad	-83
2	0x02	2
3	0xb0	-80
4	0x1d	29
5	0x3b	59
6	0x38	56
7	0xf2	-14
8	0xf4	-12
9	0xdb	-37
10	0xd8	-40
11	0x2e	46
12	0xd0	-48
13	0xf0	-16
14	0xeb	-21
15	0xe0	-32
16	0xd5	-43
17	0xb9	-71
18	0x36	54
19	0x37	55
20	0xea	-22
21	0x3d	61
22	0xf7	-9
23	0x4b	75
24	0x02	2
25	0xb1	-79
26	0x23	35
27	0xee	-18
28	0xf0	-16
29	0xa8	-88
30	0x48	72
31	0xe8	-24
32	0x0d	13
33	0xfc	-4
34	0xea	-22
35	0xee	-18
36	0x45	69
37	0xdf	-33
38	0x6f	111
39	0xec	-20
40	0x07	7
41	0xf5	-11
42	0x04	4
43	0xde	-34
44	0x2e	46
45	0xc2	-62
46	0xe7	-25
47	0x1a	26
48	0xff	-1
49	0x3e	62
50	0xd8	-40
51	0x81	-127
52	0x11	17
53	0x17	23
54	0xfe	-2
55	0x01	1
56	0xce	-50
57	0xe7	-25
58	0xc5	-59
59	0x3c	60
60	0xed	-19
61	0xd1	-47
62	0x67	103
63	0xed	-19
64	0x25	37
65	0x9a	-102
66	0x54	84
67	0x24	36
68	0x38	56
69	0xcb	-53
70	0xd0	-48
71	0x10	16
72	0xa5	-91
73	0x02	2
74	0x15	21
75	0xee	-18
76	0xf7	-9
77	0xff	-1
78	0xb9	-71
79	0x0e	14
80	0xf6	-10
81	0x42	66
82	0x14	20
83	0xc4	-60
84	0x19	25
85	0xcb	-53
86	0x42	66
87	0x2a	42
88	0xf2	-14
89	0x57	87
90	0xe7	-25
91	0xec	-20
92	0xd9	-39
93	0x20	32
94	0xdf	-33
95	0xd4	-44
96	0x04	4
97	0xf5	-11
98	0xf6	-10
99	0x08	8
100	0xf5	-11
101	0x16	22
102	0xfa	-6
103	0x10	16
104	0x21	33
105	0xf8	-8
106	0xb8	-72
107	0xfb	-5
108	0xd5	-43
109	0x14	20
110	0xe5	-27
111	0xb7	-73
112	0xf2	-14
113	0xf4	-12
114	0x15	21
115	0x03	3
116	0xc7	-57
117	0xde	-34
118	0xc6	-58
119	0x00	0
120	0x2e	46
121	0xf4	-12
122	0xda	-38
123	0xfe	-2
124	0x31	49
125	0xc3	-61
126	0x26	38
127	0x13	19
128	0x19	25
129	0x49	73
130	0x28	40
131	0x0b	11
132	0x50	80
133	0xdf	-33
134	0xf3	-13
135	0x10	16
136	0x87	-121
137	0xdc	-36
138	0xd7	-41
139	0xec	-20
140	0x0d	13
141	0xb9	-71
142	0xc5	-59
143	0xe3	-29
144	0x1b	27
145	0xf3	-13
146	0xe5	-27
147	0xe3	-29
148	0xce	-50
149	0xe5	-27
150	0xd3	-45
151	0x06	6
152	0xe5	-27
153	0xf9	-7
154	0x4d	77
155	0xfe	-2
156	0x25	37
157	0x32	50
158	0x16	22
159	0xf6	-10
160	0x00	0
161	0xd2	-46
162	0xc1	-63
163	0x2b	43
164	0xc8	-56
165	0x4a	74
166	0x2d	45
167	0xa3	-93
168	0xb4	-76
169	0x39	57
170	0x36	54
171	0x11	17
172	0xab	-85
173	0xd4	-44
174	0xf9	-7
175	0xc4	-60
176	0xe6	-26
177	0xa6	-90
178	0xd0	-48
179	0x30	48
180	0x26	38
181	0xd1	-47
182	0xf3	-13
183	0x62	98
184	0x17	23
185	0x39	57
186	0x3c	60
187	0x23	35
188	0x27	39
189	0x04	4
190	0xd4	-44
191	0x0d	13
192	0x30	48
193	0xf9	-7
194	0xc6	-58
195	0xc0	-64
196	0x36	54
197	0x11	17
198	0xe0	-32
199	0xfe	-2
200	0xde	-34
201	0x02	2
202	0xfc	-4
203	0x1e	30
204	0xd8	-40
205	0x3d	61
206	0xdc	-36
207	0x40	64
208	0xfb	-5
209	0xe2	-30
210	0x10	16
211	0x08	8
212	0x9f	-97
213	0xcc	-52
214	0x22	34
215	0x48	72
216	0x3f	63
217	0xda	-38
218	0x45	69
219	0xef	-17
220	0x47	71
221	0x28	40
222	0xfb	-5
223	0x38	56
224	0x29	41
225	0x2c	44
226	0x1a	26
227	0xf6	-10
228	0xb5	-75
229	0x2e	46
230	0x53	83
231	0x6c	108
232	0x39	57
233	0xf8	-8
234	0xb0	-80
235	0xf8	-8
236	0x16	22
237	0x02	2
238	0x81	-127
239	0xfe	-2
240	0x3a	58
241	0x1e	30
242	0x0e	14
243	0x2c	44
244	0xba	-70
245	0xd9	-39
246	0x0e	14
247	0x11	17
248	0x64	100
249	0x07	7
250	0x1c	28
251	0xf7	-9
252	0xfd	-3
253	0xca	-54
254	0x4d	77
255	0xa0	-96
