tflu-kws-cortex-m/Pretrained_models/DS_CNN/DS_CNN_M/ds_cnn_m_quantized.tflite (tflite, 200928 bytes, 10 tensors)

functional_1/batch_normalization_1/FusedBatchNormV3;functional_1/depthwise_conv2d/depthwise;functional_1/depthwise_conv2d/BiasAdd;functional_1/conv2d_4/Conv2D;functional_1/depthwise_conv2d/BiasAdd/ReadVariableOp/resource i1 [1, 3, 3, 172]
21 68 28 -45 60 -79 -62 -127
-86 -10 -84 -127 -120 113 127 -58
64 42 -25 64 -76 -6 62 -53
-78 -62 9 -10 -81 -21 -91 -57
7 -14 -27 58 -122 4 -120 -70
52 -20 71 75 -99 38 127 30
74 -88 -59 -55 -83 18 103 -5
-76 96 74 -32 -6 13 -85 127
-68 -54 -49 -71 31 -1 14 -23
-28 55 -88 -56 -49 -71 -122 -15
-98 -94 62 48 -24 -127 79 -31
127 -60 35 -36 2 48 -16 49
-52 -20 1 -4 -127 -39 -88 95
-32 127 88 -52 -11 -78 37 28
7 50 -85 -2 93 -31 -62 -127
-25 -47 42 -62 125 63 72 -89
35 -119 25 100 -3 30 -23 127
-56 -24 -120 11 64 -34 84 -47
-57 47 40 42 -27 -127 101 5
-15 -39 -7 -77 78 -59 -96 -102
-37 97 77 64 108 -127 -115 65
127 31 127 1 -37 36 7 -127
52 7 42 -68 101 -9 10 -74
70 29 16 -127 -9 -26 -127 -39
-3 -12 -63 -23 -8 12 22 48
39 93 -75 -104 -13 67 67 -44
-45 -127 14 -40 56 -56 69 -41
-97 -67 90 -60 70 -30 -127 -80
22 48 -84 -80 56 7 -31 90
-42 65 -33 -29 -86 30 69 -22
29 11 -117 -54 127 -22 -2 110
84 71 -73 49 33 14 -63 65
00000000: 1544 1cd3 3cb1 c281 aaf6 ac81 8871 7fc6
00000010: 402a e740 b4fa 3ecb b2c2 09f6 afeb a5c7
00000020: 07f2 e53a 8604 88ba 34ec 474b 9d26 7f1e
00000030: 4aa8 c5c9 ad12 67fb b460 4ae0 fa0d ab7f
00000040: bcca cfb9 1fff 0ee9 e437 a8c8 cfb9 86f1
00000050: 9ea2 3e30 e881 4fe1 7fc4 23dc 0230 f031
00000060: ccec 01fc 81d9 a85f e07f 58cc f5b2 251c
00000070: 0732 abfe 5de1 c281 e7d1 2ac2 7d3f 48a7
00000080: 2389 1964 fd1e e97f c8e8 880b 40de 54d1
00000090: c72f 282a e581 6505 f1d9 f9b3 4ec5 a09a
000000a0: db61 4d40 6c81 8d41 7f1f 7f01 db24 0781
000000b0: 3407 2abc 65f7 0ab6 461d 1081 f7e6 81d9
000000c0: fdf4 c1e9 f80c 1630 275d b598 f343 43d4
000000d0: d381 0ed8 38c8 45d7 9fbd 5ac4 46e2 81b0
000000e0: 1630 acb0 3807 e15a d641 dfe3 aa1e 45ea
000000f0: 1d0b 8bca 7fea fe6e 5447 b731 210e c141

functional_1/batch_normalization_3/FusedBatchNormV3;functional_1/depthwise_conv2d_1/depthwise;functional_1/depthwise_conv2d_1/BiasAdd;functional_1/conv2d_4/Conv2D;functional_1/depthwise_conv2d_1/BiasAdd/ReadVariableOp/resource i1 [1, 3, 3, 172]
-16 64 -32 50 -3 -47 -127 -30
63 -71 -62 -103 -127 11 78 89
44 29 -15 -127 -68 -42 5 -127
72 -127 -31 119 -76 127 91 -127
-2 -7 41 -80 37 -49 82 -20
2 56 -6 12 72 79 -20 15
57 -127 47 65 29 -14 89 44
-119 127 -33 -58 127 70 -48 32
127 -66 -25 6 18 33 41 89
-96 30 44 127 -26 -84 127 72
-48 -48 -30 -73 49 -78 -44 127
96 -45 22 80 -41 -86 9 8
97 93 -86 -28 -10 78 -58 51
61 -127 46 -42 -53 19 92 16
62 73 94 -85 -71 -83 56 -34
-127 -4 112 53 -127 17 127 10
41 -40 83 -24 117 -20 -37 -127
-24 17 -55 -63 -16 14 12 -53
-90 25 -31 41 -122 -127 -116 -50
-66 95 79 34 -54 -60 45 81
42 -60 -38 19 -62 -82 84 35
-12 14 -59 127 -10 -42 -72 -84
82 -60 -43 127 127 47 127 40
-60 -46 -32 -8 11 91 -50 34
-30 22 37 -44 -52 -15 47 -14
15 -24 127 -80 110 -55 -56 -24
39 127 -46 -60 7 -69 127 127
27 127 -8 -2 4 63 -87 -93
73 -16 47 -18 11 6 -20 -59
-72 -2 55 -13 15 -63 36 39
51 -68 17 47 -88 -32 -47 31
-47 45 31 -111 30 127 -25 39
00000000: f040 e032 fdd1 81e2 3fb9 c299 810b 4e59
00000010: 2c1d f181 bcd6 0581 4881 e177 b47f 5b81
00000020: fef9 29b0 25cf 52ec 0238 fa0c 484f ec0f
00000030: 3981 2f41 1df2 592c 897f dfc6 7f46 d020
00000040: 7fbe e706 1221 2959 a01e 2c7f e6ac 7f48
00000050: d0d0 e2b7 31b2 d47f 60d3 1650 d7aa 0908
00000060: 615d aae4 f64e c633 3d81 2ed6 cb13 5c10
00000070: 3e49 5eab b9ad 38de 81fc 7035 8111 7f0a
00000080: 29d8 53e8 75ec db81 e811 c9c1 f00e 0ccb
00000090: a619 e129 8681 8cce be5f 4f22 cac4 2d51
000000a0: 2ac4 da13 c2ae 5423 f40e c57f f6d6 b8ac
000000b0: 52c4 d57f 7f2f 7f28 c4d2 e0f8 0b5b ce22
000000c0: e216 25d4 ccf1 2ff2 0fe8 7fb0 6ec9 c8e8
000000d0: 277f d2c4 07bb 7f7f 1b7f f8fe 043f a9a3
000000e0: 49f0 2fee 0b06 ecc5 b8fe 37f3 0fc1 2427
000000f0: 33bc 112f a8e0 d11f d12d 1f91 1e7f e727

functional_1/batch_normalization_5/FusedBatchNormV3;functional_1/depthwise_conv2d_2/depthwise;functional_1/depthwise_conv2d_2/BiasAdd;functional_1/conv2d_4/Conv2D;functional_1/depthwise_conv2d_2/BiasAdd/ReadVariableOp/resource i1 [1, 3, 3, 172]
-52 127 -99 11 127 35 42 127
24 127 -53 119 25 3 74 -127
79 -84 -20 63 -72 -127 16 -23
-91 -21 37 -119 90 74 -71 -78
89 18 -1 94 52 127 -112 28
30 127 -117 -23 -73 -88 -42 119
-127 62 -56 84 -38 -127 -57 126
27 -105 -65 40 -40 9 38 127
-19 59 60 109 -2 120 -87 -103
30 -78 -87 80 -21 14 -127 -109
60 64 127 50 -103 -28 127 -81
-68 68 127 38 -51 -56 -31 -97
127 12 22 -91 92 127 112 127
56 -69 -32 47 52 -27 -127 -5
49 21 -44 6 127 4 117 31
63 -116 -10 22 -24 -127 79 79
127 7 -24 7 93 116 41 72
127 127 94 40 5 -66 53 83
32 -80 39 -123 -22 84 -53 123
-82 53 -82 -35 -81 53 3 41
-48 5 13 -52 -34 127 127 51
-17 -34 -64 -127 -23 61 60 5
30 55 -127 -83 12 -96 -22 -84
-22 -17 -27 -79 65 -67 42 127
34 110 17 127 62 -2 -87 -108
67 -64 50 -59 -5 -79 31 79
127 29 3 -21 -32 125 107 64
63 -127 -58 -23 -51 65 -9 22
38 -117 88 43 55 -79 43 -3
22 -40 90 84 -14 -127 -54 5
-97 92 69 22 -47 -127 10 -27
28 18 -56 -127 45 2 30 -24
00000000: cc7f 9d0b 7f23 2a7f 187f cb77 1903 4a81
00000010: 4fac ec3f b881 10e9 a5eb 2589 5a4a b9b2
00000020: 5912 ff5e 347f 901c 1e7f 8be9 b7a8 d677
00000030: 813e c854 da81 c77e 1b97 bf28 d809 267f
00000040: ed3b 3c6d fe78 a999 1eb2 a950 eb0e 8193
00000050: 3c40 7f32 99e4 7faf bc44 7f26 cdc8 e19f
00000060: 7f0c 16a5 5c7f 707f 38bb e02f 34e5 81fb
00000070: 3115 d406 7f04 751f 3f8c f616 e881 4f4f
00000080: 7f07 e807 5d74 2948 7f7f 5e28 05be 3553
00000090: 20b0 2785 ea54 cb7b ae35 aedd af35 0329
000000a0: d005 0dcc de7f 7f33 efde c081 e93d 3c05
000000b0: 1e37 81ad 0ca0 eaac eaef e5b1 41bd 2a7f
000000c0: 226e 117f 3efe a994 43c0 32c5 fbb1 1f4f
000000d0: 7f1d 03eb e07d 6b40 3f81 c6e9 cd41 f716
000000e0: 268b 582b 37b1 2bfd 16d8 5a54 f281 ca05
000000f0: 9f5c 4516 d181 0ae5 1c12 c881 2d02 1ee8

functional_1/batch_normalization_7/FusedBatchNormV3;functional_1/depthwise_conv2d_3/depthwise;functional_1/depthwise_conv2d_3/BiasAdd;functional_1/conv2d_4/Conv2D;functional_1/depthwise_conv2d_3/BiasAdd/ReadVariableOp/resource i1 [1, 3, 3, 172]
98 -119 41 -28 126 127 91 -8
109 76 111 69 -119 92 62 -55
-60 -93 -124 57 39 104 -101 -99
-92 110 -80 115 76 114 -102 1
94 -120 49 -31 38 84 -115 -77
97 61 99 -127 79 24 -121 76
-120 121 121 98 -113 -90 -18 126
127 -127 -118 -110 9 -62 -31 127
108 39 -79 34 109 114 100 114
84 -117 -84 -98 -127 34 -118 70
-74 -127 -127 112 127 102 124 36
61 -127 -26 -15 127 -62 -96 120
91 -112 127 -117 97 80 127 111
27 103 44 127 81 -80 118 127
94 -87 -127 54 90 -61 -112 -118
108 127 111 38 -81 22 106 -47
-127 80 105 -88 108 -111 -39 -127
-127 -127 -122 -44 65 127 21 -23
127 18 107 -7 56 -127 -98 59
74 -127 63 127 67 -127 -127 -48
127 -78 87 112 -109 83 -120 127
65 87 -111 -79 65 -45 -127 -127
127 93 96 -57 122 85 75 117
-123 74 13 -11 18 -127 -23 31
-83 104 -127 -74 21 83 61 127
79 72 -80 -45 89 -127 86 -53
7 79 -81 -127 85 26 82 -114
108 -27 -127 62 -92 127 97 127
-96 -83 77 105 106 -71 -127 -127
-27 -63 -127 106 96 -44 88 -62
125 127 69 92 -3 -121 -86 -97
-31 -127 -126 32 -26 -95 -114 101
00000000: 6289 29e4 7e7f 5bf8 6d4c 6f45 895c 3ec9
00000010: c4a3 8439 2768 9b9d a46e b073 4c72 9a01
00000020: 5e88 31e1 2654 8db3 613d 6381 4f18 874c
00000030: 8879 7962 8fa6 ee7e 7f81 8a92 09c2 e17f
00000040: 6c27 b122 6d72 6472 548b ac9e 8122 8a46
00000050: b681 8170 7f66 7c24 3d81 e6f1 7fc2 a078
00000060: 5b90 7f8b 6150 7f6f 1b67 2c7f 51b0 767f
00000070: 5ea9 8136 5ac3 908a 6c7f 6f26 af16 6ad1
00000080: 8150 69a8 6c91 d981 8181 86d4 417f 15e9
00000090: 7f12 6bf9 3881 9e3b 4a81 3f7f 4381 81d0
000000a0: 7fb2 5770 9353 887f 4157 91b1 41d3 8181
000000b0: 7f5d 60c7 7a55 4b75 854a 0df5 1281 e91f
000000c0: ad68 81b6 1553 3d7f 4f48 b0d3 5981 56cb
000000d0: 074f af81 551a 528e 6ce5 813e a47f 617f
000000e0: a0ad 4d69 6ab9 8181 e5c1 816a 60d4 58c2
000000f0: 7d7f 455c fd87 aa9f e181 8220 e6a1 8e65

functional_1/dense/MatMul i1 [12, 172] scale=0.0063378294 zero_point=0
-0.057040464 -0.32956713 -0.5450533 0.39928326 -0.53237766 -0.31055364 -0.24717535 -0.20281054
-0.2788645 -0.08872961 -0.36125627 -0.59575593 0.4119589 0.13943225 0.39928326 -0.0633783
0.36125627 -0.4563237 -0.61476946 -0.076053955 -0.37393194 0.15210791 -0.5894181 -0.4119589
0.38026977 -0.5767425 0.08239178 0.35491845 -0.27252665 0.24083751 -0.259851 -0.60843164
-0.5830803 -0.42463458 -0.67814773 -0.057040464 -0.26618883 -0.19013488 -0.31689146 0.13943225
-0.2344997 -0.6211073 -0.13943225 0.32956713 -0.34224278 -0.16478357 -0.4753372 -0.259851
-0.519702 0.03168915 -0.37393194 -0.53237766 -0.6274451 -0.19013488 0.37393194 -0.35491845
0.3866076 -0.6211073 -0.65279645 -0.48801285 -0.5006885 -0.72885036 -0.28520232 -0.4119589
-0.64012074 -0.5450533 -0.17112139 -0.3232293 -0.31055364 -0.2154862 -0.64012074 -0.2344997
-0.22182404 -0.259851 0.0633783 0.31055364 -0.19013488 -0.53237766 0.29154015 -0.5513912
-0.48801285 -0.5450533 0.35491845 -0.64012074 -0.13943225 -0.5070264 -0.13943225 -0.20914838
-0.34858063 -0.6654721 -0.22816186 -0.4309724 -0.4943507 -0.4563237 0.3675941 -0.28520232
-0.27252665 0.39928326 0.39928326 0.20914838 -0.7351882 -0.519702 -0.4563237 -0.3232293
-0.050702635 -0.35491845 -0.259851 -0.4689994 0.025351318 -0.28520232 -0.3675941 -0.3675941
-0.4563237 -0.14577007 -0.80490434 -0.10140527 -0.35491845 -0.1964727 0.39928326 -0.4563237
-0.65913427 -0.2535132 -0.4119589 -0.31689146 -0.31689146 -0.46266153 0.26618883 -0.4499859
-0.37393194 -0.057040464 -0.24083751 -0.65279645 -0.7732152 -0.28520232 0.32956713 -0.24717535
-0.2535132 -0.012675659 -0.72885036 -0.3232293 -0.4309724 0.32956713 -0.5387155 -0.259851
-0.35491845 -0.4309724 -0.5070264 -0.4753372 -0.4943507 0.34858063 -0.5513912 0.15844573
-0.4943507 -0.1964727 -0.65279645 -0.18379705 -0.0063378294 0.31689146 -0.37393194 -0.3929454
-0.2154862 -0.2344997 -0.57040465 -0.20914838 -0.44364807 -0.48167503 0.3675941 -0.7098369
-0.4499859 0.22816186 -0.5006885 0.3929454 0.17112139 0.22816186 -0.259851 -0.18379705
-0.038026977 0.24083751 -0.29787797 0.0 -0.0633783 -0.10140527 -0.29787797 -0.11408093
-0.08872961 -0.08872961 -0.050702635 0.08872961 -0.044364806 0.2344997 0.15844573 -0.2788645
0.33590496 0.17745923 0.15844573 0.08239178 -0.24717535 -0.20914838 -0.20281054 0.2344997
0.13309442 -0.16478357 0.0063378294 0.31055364 0.27252665 -0.09506744 -0.08239178 0.2344997
-0.019013489 0.0 0.15844573 0.28520232 -0.26618883 0.11408093 -0.2154862 -0.17745923
-0.12041876 0.1267566 -0.20281054 -0.14577007 -0.31689146 -0.28520232 -0.19013488 0.12041876
0.3232293 0.24083751 -0.0063378294 -0.1267566 -0.15210791 0.19013488 -0.17112139 0.32956713
-0.24083751 -0.35491845 0.29154015 -0.17112139 -0.24717535 0.019013489 0.069716126 0.38026977
0.20914838 -0.03168915 0.27252665 0.069716126 0.31689146 -0.13309442 0.12041876 0.33590496
0.31689146 0.24717535 0.15210791 0.20281054 -0.08239178 0.03168915 -0.012675659 -0.2344997
00000000: f7cc aa3f accf d9e0 d4f2 c7a2 4116 3ff6
00000010: 39b8 9ff4 c518 a3bf 3ca5 0d38 d526 d7a0
00000020: a4bd 95f7 d6e2 ce16 db9e ea34 cae6 b5d7
00000030: ae05 c5ac 9de2 3bc8 3d9e 99b3 b18d d3bf
00000040: 9baa e5cd cfde 9bdb ddd7 0a31 e2ac 2ea9
00000050: b3aa 389b eab0 eadf c997 dcbc b2b8 3ad3
00000060: d53f 3f21 8cae b8cd f8c8 d7b6 04d3 c6c6
00000070: b8e9 81f0 c8e1 3fb8 98d8 bfce ceb7 2ab9
00000080: c5f7 da99 86d3 34d9 d8fe 8dcd bc34 abd7
00000090: c8bc b0b5 b237 a919 b2e1 99e3 ff32 c5c2
000000a0: dedb a6df bab4 3a90 b924 b13e 1b24 d7e3
000000b0: fa26 d100 f6f0 d1ee f2f2 f80e f925 19d4
000000c0: 351c 190d d9df e025 15e6 0131 2bf1 f325
000000d0: fd00 192d d612 dee4 ed14 e0e9 ced3 e213
000000e0: 3326 ffec e81e e534 dac8 2ee5 d903 0b3c
000000f0: 21fb 2b0b 32eb 1335 3227 1820 f305 fedb

functional_1/conv2d/Conv2D i1 [172, 10, 4, 1]
127 37 18 27 109 83 59 68
41 103 99 107 21 82 81 119
9 -25 64 70 -12 -58 82 58
0 -76 13 33 -41 -109 -61 4
-74 -118 -70 -20 -43 -28 -94 44
51 4 -92 55 15 -7 -40 46
14 -32 -23 -16 11 -50 0 34
-16 -32 -14 7 -21 -25 11 3
-70 -11 19 -36 -60 -5 -4 -79
-60 1 -15 -127 34 11 -19 -97
-15 -44 -58 48 5 -95 -34 55
2 -68 -22 24 6 -56 -63 1
6 -86 1 -13 18 -88 -28 -67
44 -79 -36 -127 37 -20 -76 -36
115 47 -90 -63 65 43 -7 -71
16 -43 3 60 -19 -24 35 80
21 13 48 101 33 -22 -6 127
34 -29 -37 101 15 -47 36 75
-66 -17 51 93 -37 -35 49 115
-27 3 82 67 -2 3 97 66
-7 -6 38 46 -39 1 -10 32
-9 28 -50 41 7 6 -84 54
2 2 -83 53 -4 -2 -98 16
62 22 -27 -32 49 34 35 -58
73 74 52 -127 18 93 28 -121
9 11 17 23 21 -10 22 2
43 -18 29 78 70 -37 -32 95
50 -8 -69 100 18 23 -45 12
-44 61 -10 -47 -45 22 7 -127
-33 -15 36 -113 -29 -2 11 -56
5 117 -19 46 72 114 -67 89
-15 26 -109 26 3 -21 -48 4
00000000: 7f25 121b 6d53 3b44 2967 636b 1552 5177
00000010: 09e7 4046 f4c6 523a 00b4 0d21 d793 c304
00000020: b68a baec d5e4 a22c 3304 a437 0ff9 d82e
00000030: 0ee0 e9f0 0bce 0022 f0e0 f207 ebe7 0b03
00000040: baf5 13dc c4fb fcb1 c401 f181 220b ed9f
00000050: f1d4 c630 05a1 de37 02bc ea18 06c8 c101
00000060: 06aa 01f3 12a8 e4bd 2cb1 dc81 25ec b4dc
00000070: 732f a6c1 412b f9b9 10d5 033c ede8 2350
00000080: 150d 3065 21ea fa7f 22e3 db65 0fd1 244b
00000090: beef 335d dbdd 3173 e503 5243 fe03 6142
000000a0: f9fa 262e d901 f620 f71c ce29 0706 ac36
000000b0: 0202 ad35 fcfe 9e10 3e16 e5e0 3122 23c6
000000c0: 494a 3481 125d 1c87 090b 1117 15f6 1602
000000d0: 2bee 1d4e 46db e05f 32f8 bb64 1217 d30c
000000e0: d43d f6d1 d316 0781 dff1 248f e3fe 0bc8
000000f0: 0575 ed2e 4872 bd59 f11a 931a 03eb d004

functional_1/conv2d_1/Conv2D i1 [172, 1, 1, 172]
78 63 31 9 -42 -24 -33 -28
28 -68 -51 24 69 71 39 -60
3 56 60 -1 8 -31 -42 38
72 -72 54 36 34 10 -47 -37
-45 52 9 -1 -40 -55 39 -53
26 26 28 -10 4 -84 -39 -11
28 85 -36 -78 -18 -36 64 -25
-11 21 -2 27 -17 -10 67 39
-23 -40 21 -34 43 -39 11 -23
28 -40 -41 26 23 -38 1 -95
-61 -19 -31 39 -94 -33 40 38
60 -119 -24 13 2 -5 30 75
-104 -46 21 27 -42 40 3 75
24 -67 -20 25 11 89 4 -43
32 28 39 32 -6 -53 -30 -5
61 -15 -14 -38 -7 4 38 3
17 -2 -44 4 -11 -17 71 -15
35 -45 17 24 -1 29 39 -6
16 80 -52 -15 -52 33 -5 44
84 34 9 -48 66 118 17 -48
52 47 -34 11 73 -1 91 96
4 60 -127 -42 8 45 36 -57
19 41 70 45 -102 -17 -42 13
127 7 -4 15 26 55 2 53
1 -37 62 56 8 78 -1 -18
-41 69 19 -48 17 -39 -28 60
73 -17 -41 -7 51 54 14 -26
-2 37 2 37 -31 -111 -29 36
-43 -8 -5 35 59 18 -11 5
-81 -88 -8 8 -82 -35 -67 78
16 -124 40 19 70 68 29 -17
20 12 -9 -60 56 7 -14 59
00000000: 4e3f 1f09 d6e8 dfe4 1cbc cd18 4547 27c4
00000010: 0338 3cff 08e1 d626 48b8 3624 220a d1db
00000020: d334 09ff d8c9 27cb 1a1a 1cf6 04ac d9f5
00000030: 1c55 dcb2 eedc 40e7 f515 fe1b eff6 4327
00000040: e9d8 15de 2bd9 0be9 1cd8 d71a 17da 01a1
00000050: c3ed e127 a2df 2826 3c89 e80d 02fb 1e4b
00000060: 98d2 151b d628 034b 18bd ec19 0b59 04d5
00000070: 201c 2720 facb e2fb 3df1 f2da f904 2603
00000080: 11fe d404 f5ef 47f1 23d3 1118 ff1d 27fa
00000090: 1050 ccf1 cc21 fb2c 5422 09d0 4276 11d0
000000a0: 342f de0b 49ff 5b60 043c 81d6 082d 24c7
000000b0: 1329 462d 9aef d60d 7f07 fc0f 1a37 0235
000000c0: 01db 3e38 084e ffee d745 13d0 11d9 e43c
000000d0: 49ef d7f9 3336 0ee6 fe25 0225 e191 e324
000000e0: d5f8 fb23 3b12 f505 afa8 f808 aedd bd4e
000000f0: 1084 2813 4644 1def 140c f7c4 3807 f23b

functional_1/conv2d_2/Conv2D i1 [172, 1, 1, 172]
-48 -78 -31 -9 -29 1 11 -41
-3 9 -2 0 70 -23 5 -27
-31 -43 -46 -59 -53 43 83 13
62 -68 22 -5 -19 7 -2 5
34 -41 20 -19 23 46 25 -18
-13 16 41 32 -13 -25 -10 -15
-13 53 -11 -22 -37 20 -44 -6
-107 -6 -13 49 40 -3 66 92
12 -24 -25 26 -35 35 42 -40
32 34 17 44 21 -19 -64 15
9 4 12 33 -15 6 -69 -24
-25 31 -13 45 36 -16 -63 0
16 -64 -106 13 -79 -72 -98 -31
-64 -10 8 -49 -86 -54 14 -80
-54 59 -9 -92 -127 -31 0 43
-11 -46 -25 38 -22 -8 44 39
-14 25 -34 65 -4 13 -72 -22
21 -45 -55 -7 3 25 -43 -24
-2 0 -25 40 32 -31 -27 33
-80 26 19 -49 63 -66 -29 27
36 54 -58 70 -12 26 -39 30
-11 -82 -84 9 -33 9 -5 -18
17 24 -3 -2 -61 -21 -46 -55
-102 7 -12 19 -58 55 -41 -77
-70 49 68 27 -16 -11 15 29
11 -1 -13 32 65 22 -127 -16
39 16 18 88 -80 3 44 62
26 7 6 8 -70 66 -5 -58
-60 87 -28 28 -13 -18 -44 70
-2 98 107 -90 19 18 34 -36
-18 24 -22 -9 -21 41 -37 25
3 80 -41 99 32 36 -5 43
00000000: d0b2 e1f7 e301 0bd7 fd09 fe00 46e9 05e5
00000010: e1d5 d2c5 cb2b 530d 3ebc 16fb ed07 fe05
00000020: 22d7 14ed 172e 19ee f310 2920 f3e7 f6f1
00000030: f335 f5ea db14 d4fa 95fa f331 28fd 425c
00000040: 0ce8 e71a dd23 2ad8 2022 112c 15ed c00f
00000050: 0904 0c21 f106 bbe8 e71f f32d 24f0 c100
00000060: 10c0 960d b1b8 9ee1 c0f6 08cf aaca 0eb0
00000070: ca3b f7a4 81e1 002b f5d2 e726 eaf8 2c27
00000080: f219 de41 fc0d b8ea 15d3 c9f9 0319 d5e8
00000090: fe00 e728 20e1 e521 b01a 13cf 3fbe e31b
000000a0: 2436 c646 f41a d91e f5ae ac09 df09 fbee
000000b0: 1118 fdfe c3eb d2c9 9a07 f413 c637 d7b3
000000c0: ba31 441b f0f5 0f1d 0bff f320 4116 81f0
000000d0: 2710 1258 b003 2c3e 1a07 0608 ba42 fbc6
000000e0: c457 e41c f3ee d446 fe62 6ba6 1312 22dc
000000f0: ee18 eaf7 eb29 db19 0350 d763 2024 fb2b

functional_1/conv2d_3/Conv2D i1 [172, 1, 1, 172]
27 -16 36 13 -15 32 18 13
-13 -23 71 -51 -30 -23 23 72
42 5 -50 13 30 10 -81 -10
-69 51 -25 -127 11 -3 -25 49
-30 36 24 26 -44 -3 -11 38
-27 -19 -17 -74 4 -34 67 -4
-5 43 9 50 25 -40 -42 54
-23 -26 9 32 19 -55 -11 -24
-2 -50 -27 7 -19 -10 -24 27
-67 -21 10 22 -45 22 -9 29
-27 -13 10 65 9 22 -46 -9
-17 72 -20 31 -23 -17 -34 -44
-44 21 -10 55 29 -36 -9 -14
-63 -41 32 23 42 -51 1 38
-43 -33 -30 -2 38 -34 9 -17
14 20 56 -62 17 -24 60 10
91 -64 0 15 29 16 34 -12
-21 -44 -9 -22 33 -6 7 21
25 21 -12 22 3 -27 21 -22
-23 61 18 -14 -6 33 -23 -10
10 44 -70 -53 -31 -10 -58 11
27 3 -48 37 46 -25 80 -3
-15 54 9 95 -64 -35 -13 -71
-28 87 30 78 22 52 -12 104
72 -29 6 118 20 -19 5 -49
53 35 46 39 -100 -16 -46 84
6 36 -52 66 16 13 34 87
112 -53 65 -99 88 1 3 36
26 -25 -21 32 -50 69 29 -19
-22 -41 45 -19 17 -24 -49 39
-24 19 17 91 -36 9 -39 32
74 5 2 -80 -21 73 86 -9
00000000: 1bf0 240d f120 120d f3e9 47cd e2e9 1748
00000010: 2a05 ce0d 1e0a aff6 bb33 e781 0bfd e731
00000020: e224 181a d4fd f526 e5ed efb6 04de 43fc
00000030: fb2b 0932 19d8 d636 e9e6 0920 13c9 f5e8
00000040: fece e507 edf6 e81b bdeb 0a16 d316 f71d
00000050: e5f3 0a41 0916 d2f7 ef48 ec1f e9ef ded4
00000060: d415 f637 1ddc f7f2 c1d7 2017 2acd 0126
00000070: d5df e2fe 26de 09ef 0e14 38c2 11e8 3c0a
00000080: 5bc0 000f 1d10 22f4 ebd4 f7ea 21fa 0715
00000090: 1915 f416 03e5 15ea e93d 12f2 fa21 e9f6
000000a0: 0a2c bacb e1f6 c60b 1b03 d025 2ee7 50fd
000000b0: f136 095f c0dd f3b9 e457 1e4e 1634 f468
000000c0: 48e3 0676 14ed 05cf 3523 2e27 9cf0 d254
000000d0: 0624 cc42 100d 2257 70cb 419d 5801 0324
000000e0: 1ae7 eb20 ce45 1ded ead7 2ded 11e8 cf27
000000f0: e813 115b dc09 d920 4a05 02b0 eb49 56f7

functional_1/conv2d_4/Conv2D i1 [172, 1, 1, 172]
-66 -43 10 69 57 -28 -3 27
-25 17 57 47 -104 -81 -15 60
31 5 55 -18 81 3 28 -34
-28 18 -77 15 73 25 -50 54
-56 1 25 34 26 54 41 21
30 -2 -5 -73 30 4 -1 20
44 49 -44 -8 -73 56 -22 13
98 62 -70 -1 84 57 1 -41
-19 0 77 114 75 72 10 -42
27 -17 -7 28 41 10 -14 -66
-54 57 -30 -20 -32 -67 59 127
17 -40 -73 40 39 3 -21 -51
13 11 57 -44 -7 -55 -23 42
-25 6 -15 42 12 -54 48 -16
31 28 41 45 -35 16 -77 -22
-46 44 -45 -19 -63 28 14 2
-11 -18 -85 -20 -66 -32 29 4
-35 -20 -19 62 -17 20 49 -64
19 43 22 8 28 -51 -85 34
-29 -48 -1 -40 17 76 -2 37
3 -44 10 -44 22 -1 -39 -73
-43 -15 -36 63 -56 70 -18 10
100 -64 -44 -45 28 -7 67 -45
-55 -70 6 26 26 -47 -22 18
-19 0 -10 41 -63 60 -17 -6
0 -5 5 54 -7 -61 -6 -8
-33 -48 81 56 26 -22 -50 -36
16 29 41 -15 -35 3 -12 41
71 -30 16 53 72 -23 -12 -33
127 -54 -23 -21 64 -33 -46 22
94 -57 -17 22 63 18 21 -51
-36 27 57 -67 -6 16 -73 -44
00000000: bed5 0a45 39e4 fd1b e711 392f 98af f13c
00000010: 1f05 37ee 5103 1cde e412 b30f 4919 ce36
00000020: c801 1922 1a36 2915 1efe fbb7 1e04 ff14
00000030: 2c31 d4f8 b738 ea0d 623e baff 5439 01d7
00000040: ed00 4d72 4b48 0ad6 1bef f91c 290a f2be
00000050: ca39 e2ec e0bd 3b7f 11d8 b728 2703 ebcd
00000060: 0d0b 39d4 f9c9 e92a e706 f12a 0cca 30f0
00000070: 1f1c 292d dd10 b3ea d22c d3ed c11c 0e02
00000080: f5ee abec bee0 1d04 ddec ed3e ef14 31c0
00000090: 132b 1608 1ccd ab22 e3d0 ffd8 114c fe25
000000a0: 03d4 0ad4 16ff d9b7 d5f1 dc3f c846 ee0a
000000b0: 64c0 d4d3 1cf9 43d3 c9ba 061a 1ad1 ea12
000000c0: ed00 f629 c13c effa 00fb 0536 f9c3 faf8
000000d0: dfd0 5138 1aea cedc 101d 29f1 dd03 f429
000000e0: 47e2 1035 48e9 f4df 7fca e9eb 40df d216
000000f0: 5ec7 ef16 3f12 15cd dc1b 39bd fa10 b7d4
