tflu-kws-cortex-m/Pretrained_models/CNN/CNN_S/cnn_s_quantized.tflite (tflite, 76752 bytes, 5 tensors)

functional_1/dense/MatMul i1 [16, 1920] scale=0.0031553623 zero_point=0
000000 fc 09 0e f9 2f 7f 0b 42 11 14 ed fc 06 f4 0d f4
       -0.012621449 0.02839826 0.044175074 -0.022087537 0.14830203 0.40073103 0.034708984 0.20825392 0.05364116 0.063107245 -0.059951883 -0.012621449 0.018932175 -0.03786435 0.04101971 -0.03786435
000010 0a ff ee fd ef 26 0a ca bd e7 59 19 cf e0 13 07
       0.031553622 -0.0031553623 -0.05679652 -0.009466087 -0.05364116 0.119903766 0.031553622 -0.17038956 -0.21140927 -0.07888406 0.28082725 0.07888406 -0.15461275 -0.100971594 0.059951883 0.022087537
000020 19 07 2a 36 17 06 f5 eb 30 1a 26 ed 14 0c f7 f7
       0.07888406 0.022087537 0.13252522 0.17038956 0.072573334 0.018932175 -0.034708984 -0.06626261 0.1514574 0.08203942 0.119903766 -0.059951883 0.063107245 0.03786435 -0.02839826 -0.02839826
000030 0c d7 e6 eb f2 04 d9 f2 fc de f5 e2 02 11 fd d5
       0.03786435 -0.12936985 -0.08203942 -0.06626261 -0.044175074 0.012621449 -0.12305913 -0.044175074 -0.012621449 -0.10728232 -0.034708984 -0.09466087 0.0063107247 0.05364116 -0.009466087 -0.13568059
000040 0d 16 01 f0 11 e7 1b fc 25 d5 0c 01 14 e7 f8 f9
       0.04101971 0.06941797 0.0031553623 -0.050485797 0.05364116 -0.07888406 0.08519478 -0.012621449 0.11674841 -0.13568059 0.03786435 0.0031553623 0.063107245 -0.07888406 -0.025242899 -0.022087537
000050 e5 d8 08 1d f2 15 f8 f6 1e f1 da e7 14 fb 07 04
       -0.08519478 -0.12621449 0.025242899 0.091505505 -0.044175074 0.06626261 -0.025242899 -0.031553622 0.09466087 -0.047330435 -0.119903766 -0.07888406 0.063107245 -0.015776811 0.022087537 0.012621449
000060 fd 03 08 e4 4c 03 03 fb 1a 06 ec ed 07 1c f4 f4
       -0.009466087 0.009466087 0.025242899 -0.08835015 0.23980753 0.009466087 0.009466087 -0.015776811 0.08203942 0.018932175 -0.063107245 -0.059951883 0.022087537 0.08835015 -0.03786435 -0.03786435
000070 f0 33 f0 fd 23 08 2c 1b f1 f3 0d 04 10 34 19 33
       -0.050485797 0.16092348 -0.050485797 -0.009466087 0.110437684 0.025242899 0.13883594 0.08519478 -0.047330435 -0.04101971 0.04101971 0.012621449 0.050485797 0.16407885 0.07888406 0.16092348
000080 fa 10 f3 03 07 05 fa f2 07 0f f5 08 da 0f f9 ed
       -0.018932175 0.050485797 -0.04101971 0.009466087 0.022087537 0.015776811 -0.018932175 -0.044175074 0.022087537 0.047330435 -0.034708984 0.025242899 -0.119903766 0.047330435 -0.022087537 -0.059951883
000090 f5 f6 3d 16 f0 fb fd 05 10 f9 15 0c 0b 03 fe ed
       -0.034708984 -0.031553622 0.1924771 0.06941797 -0.050485797 -0.015776811 -0.009466087 0.015776811 0.050485797 -0.022087537 0.06626261 0.03786435 0.034708984 0.009466087 -0.0063107247 -0.059951883
0000a0 1e 0e 17 09 14 0f 09 f2 fd e2 ea f0 f3 00 e4 04
       0.09466087 0.044175074 0.072573334 0.02839826 0.063107245 0.047330435 0.02839826 -0.044175074 -0.009466087 -0.09466087 -0.06941797 -0.050485797 -0.04101971 0.0 -0.08835015 0.012621449
0000b0 00 f7 ea f9 01 0b ee eb fd 02 fb f5 04 f4 09 f6
       0.0 -0.02839826 -0.06941797 -0.022087537 0.0031553623 0.034708984 -0.05679652 -0.06626261 -0.009466087 0.0063107247 -0.015776811 -0.034708984 0.012621449 -0.03786435 0.02839826 -0.031553622
0000c0 10 da 00 06 0b f5 fb 02 e9 ef f4 0e f4 0f de f5
       0.050485797 -0.119903766 0.0 0.018932175 0.034708984 -0.034708984 -0.015776811 0.0063107247 -0.072573334 -0.05364116 -0.03786435 0.044175074 -0.03786435 0.047330435 -0.10728232 -0.034708984
0000d0 24 ef e7 f6 10 f4 19 06 03 fa 03 ee 1d 0b 14 fb
       0.11359304 -0.05364116 -0.07888406 -0.031553622 0.050485797 -0.03786435 0.07888406 0.018932175 0.009466087 -0.018932175 0.009466087 -0.05679652 0.091505505 0.034708984 0.063107245 -0.015776811
0000e0 05 fd f1 f2 f3 fe f8 05 04 14 f3 ff 11 fe 36 fe
       0.015776811 -0.009466087 -0.047330435 -0.044175074 -0.04101971 -0.0063107247 -0.025242899 0.015776811 0.012621449 0.063107245 -0.04101971 -0.0031553623 0.05364116 -0.0063107247 0.17038956 -0.0063107247
0000f0 fd fc fc 03 16 11 1e 3a 01 11 fe 04 fb 02 09 f8
       -0.009466087 -0.012621449 -0.012621449 0.009466087 0.06941797 0.05364116 0.09466087 0.18301101 0.0031553623 0.05364116 -0.0063107247 0.012621449 -0.015776811 0.0063107247 0.02839826 -0.025242899

functional_1/dense_2/MatMul i1 [12, 128] scale=0.005372017 zero_point=0
000000 34 c9 99 52 a6 ce 37 a3 b4 a5 b2 ac 01 81 88 87
       0.2793449 -0.29546094 -0.5533178 0.44050542 -0.48348156 -0.26860085 0.29546094 -0.4995976 -0.4082733 -0.48885357 -0.41901734 -0.45124945 0.005372017 -0.6822462 -0.64464206 -0.6500141
000010 bc df 10 b8 3f af cf ac c5 e3 a0 fb 0a 03 93 b1
       -0.36529717 -0.17727657 0.085952275 -0.38678524 0.33843708 -0.4351334 -0.26322883 -0.45124945 -0.316949 -0.1557885 -0.51571363 -0.026860086 0.053720172 0.016116051 -0.5855499 -0.42438936
000020 2a 90 90 ea 23 ac c1 b3 9d fd ec 07 e5 ae 1b 01
       0.22562473 -0.6016659 -0.6016659 -0.11818438 0.1880206 -0.45124945 -0.33843708 -0.41364533 -0.5318297 -0.016116051 -0.107440345 0.03760412 -0.14504446 -0.44050542 0.14504446 0.005372017
000030 b1 bf 1b c7 db 50 c7 41 3f ac fb 2a 27 00 1b 04
       -0.42438936 -0.34918112 0.14504446 -0.30620497 -0.19876464 0.42976138 -0.30620497 0.34918112 0.33843708 -0.45124945 -0.026860086 0.22562473 0.20950867 0.0 0.14504446 0.021488069
000040 92 f3 99 22 b1 be c9 dc 14 9d da 9d aa e5 b1 fb
       -0.5909219 -0.06983622 -0.5533178 0.18264858 -0.42438936 -0.35455313 -0.29546094 -0.19339262 0.107440345 -0.5318297 -0.20413665 -0.5318297 -0.4619935 -0.14504446 -0.42438936 -0.026860086
000050 b5 32 45 01 99 13 f9 f3 d3 a9 1a 25 43 c3 93 0f
       -0.4029013 0.26860085 0.3706692 0.005372017 -0.5533178 0.10206833 -0.03760412 -0.06983622 -0.24174078 -0.4673655 0.13967244 0.19876464 0.35992515 -0.32769305 -0.5855499 0.08058026
000060 3d a6 ec e3 3f 0d 9c e6 9d a8 ee b4 9d 09 dc bf
       0.32769305 -0.48348156 -0.107440345 -0.1557885 0.33843708 0.06983622 -0.5372017 -0.13967244 -0.5318297 -0.47273752 -0.09669631 -0.4082733 -0.5318297 0.048348155 -0.19339262 -0.34918112
000070 eb 0b dc c2 12 cc 9d bb b4 3c 22 28 25 c3 17 93
       -0.11281236 0.05909219 -0.19339262 -0.33306506 0.09669631 -0.2793449 -0.5318297 -0.3706692 -0.4082733 0.32232103 0.18264858 0.21488069 0.19876464 -0.32769305 0.1235564 -0.5855499
000080 20 00 08 d1 30 f4 19 01 f6 ec f8 f8 dd 31 29 0a
       0.17190455 0.0 0.042976137 -0.2524848 0.25785682 -0.064464204 0.13430043 0.005372017 -0.053720172 -0.107440345 -0.042976137 -0.042976137 -0.1880206 0.26322883 0.22025271 0.053720172
000090 17 eb c6 12 e1 05 ed 2f 0d e1 06 11 1e ef 2c 43
       0.1235564 -0.11281236 -0.311577 0.09669631 -0.16653253 0.026860086 -0.10206833 0.2524848 0.06983622 -0.16653253 0.032232102 0.09132429 0.16116051 -0.09132429 0.23636876 0.35992515
0000a0 dd 0c 48 d1 fe 18 21 f6 12 1c e2 e5 e4 f2 f8 21
       -0.1880206 0.064464204 0.38678524 -0.2524848 -0.010744034 0.12892841 0.17727657 -0.053720172 0.09669631 0.15041648 -0.16116051 -0.14504446 -0.15041648 -0.07520824 -0.042976137 0.17727657
0000b0 f1 1f e8 2b cb 20 ce be bf ce fa d0 17 06 e2 f8
       -0.08058026 0.16653253 -0.12892841 0.23099674 -0.2847169 0.17190455 -0.26860085 -0.35455313 -0.34918112 -0.26860085 -0.032232102 -0.25785682 0.1235564 0.032232102 -0.16116051 -0.042976137
0000c0 f2 fb 09 fa 1b 1b 0b 11 0f 1b ef 2b de 1a cf ed
       -0.07520824 -0.026860086 0.048348155 -0.032232102 0.14504446 0.14504446 0.05909219 0.09132429 0.08058026 0.14504446 -0.09132429 0.23099674 -0.18264858 0.13967244 -0.26322883 -0.10206833
0000d0 3c 29 e2 11 e9 30 3f 13 f8 ee ed 21 27 1b 23 df
       0.32232103 0.22025271 -0.16116051 0.09132429 -0.1235564 0.25785682 0.33843708 0.10206833 -0.042976137 -0.09669631 -0.10206833 0.17727657 0.20950867 0.14504446 0.1880206 -0.17727657
0000e0 ea e6 d8 f3 26 32 fb fe 19 e1 1f bd ed e6 46 0f
       -0.11818438 -0.13967244 -0.21488069 -0.06983622 0.20413665 0.26860085 -0.026860086 -0.010744034 0.13430043 -0.16653253 0.16653253 -0.35992515 -0.10206833 -0.13967244 0.3760412 0.08058026
0000f0 f4 cf 1f e5 f6 11 15 11 36 f0 1f 27 e3 1a 0f 3f
       -0.064464204 -0.26322883 0.16653253 -0.14504446 -0.053720172 0.09132429 0.11281236 0.09132429 0.29008892 -0.085952275 0.16653253 0.20950867 -0.1557885 0.13967244 0.08058026 0.33843708

functional_1/conv2d/Conv2D i1 [28, 10, 4, 1]
000000 b7 43 0d 3e dc e2 be 15 de da 97 13 42 be 81 1b
       -73 67 13 62 -36 -30 -66 21 -34 -38 -105 19 66 -66 -127 27
000010 46 f1 06 d2 66 26 35 1d 12 23 62 f4 17 de 3a f5
       70 -15 6 -46 102 38 53 29 18 35 98 -12 23 -34 58 -11
000020 bc f3 4a d4 c4 02 0b f6 d2 37 e9 d8 c7 3b df 0f
       -68 -13 74 -44 -60 2 11 -10 -46 55 -23 -40 -57 59 -33 15
000030 0e 40 3d 22 23 5e 3a 04 94 41 77 fc 04 56 1f c6
       14 64 61 34 35 94 58 4 -108 65 119 -4 4 86 31 -58
000040 d3 7a 37 0b d6 43 ff dd ff 7f e7 f3 c0 4c 11 39
       -45 122 55 11 -42 67 -1 -35 -1 127 -25 -13 -64 76 17 57
000050 e0 8e bd 52 0a ba b4 e4 d5 c9 cb 98 ef e2 c6 81
       -32 -114 -67 82 10 -70 -76 -28 -43 -55 -53 -104 -17 -30 -58 -127
000060 fe 38 a3 9e 08 56 14 a7 f2 3d 08 dc 29 0f 6d 3a
       -2 56 -93 -98 8 86 20 -89 -14 61 8 -36 41 15 109 58
000070 38 5b 3d 3d 1c 2d 43 62 6e c2 ed 81 2e fb 0f b5
       56 91 61 61 28 45 67 98 110 -62 -19 -127 46 -5 15 -75
000080 27 bf 48 10 18 d1 24 18 e3 26 e7 42 f5 10 dc 3f
       39 -65 72 16 24 -47 36 24 -29 38 -25 66 -11 16 -36 63
000090 c4 19 e4 5a e8 28 10 13 dc 05 23 43 b9 bc 00 44
       -60 25 -28 90 -24 40 16 19 -36 5 35 67 -71 -68 0 68
0000a0 6b 14 df 32 5e 44 93 4f 74 d5 f8 61 df 11 b7 5b
       107 20 -33 50 94 68 -109 79 116 -43 -8 97 -33 17 -73 91
0000b0 1c 15 51 37 0b 01 75 3d 81 c5 59 18 c9 11 62 b9
       28 21 81 55 11 1 117 61 -127 -59 89 24 -55 17 98 -71
0000c0 bc 4a 0e b2 14 2e e3 fe a3 09 3b d1 e9 b3 e0 25
       -68 74 14 -78 20 46 -29 -2 -93 9 59 -47 -23 -77 -32 37
0000d0 c8 17 32 49 1f fe 07 3c e0 c0 23 50 19 df fc 5f
       -56 23 50 73 31 -2 7 60 -32 -64 35 80 25 -33 -4 95
0000e0 1f df 07 5b 05 e0 db 2b f0 17 03 0a 7f df 19 0c
       31 -33 7 91 5 -32 -37 43 -16 23 3 10 127 -33 25 12
0000f0 63 f1 b5 06 df 16 81 12 b1 29 b4 41 b8 d9 41 13
       99 -15 -75 6 -33 22 -127 18 -79 41 -76 65 -72 -39 65 19

functional_1/conv2d_1/Conv2D i1 [30, 10, 4, 28]
000000 ec ef 2f fe fe 00 f2 fc fe 0d f9 e8 05 f1 d8 f7
       -20 -17 47 -2 -2 0 -14 -4 -2 13 -7 -24 5 -15 -40 -9
000010 db 39 e5 13 db 23 0d fb f4 ef c8 f5 18 09 f0 f8
       -37 57 -27 19 -37 35 13 -5 -12 -17 -56 -11 24 9 -16 -8
000020 f8 ce 3e f2 e6 e0 fa cc df 0d e5 32 ff 11 1a f1
       -8 -50 62 -14 -26 -32 -6 -52 -33 13 -27 50 -1 17 26 -15
000030 e7 12 05 06 d8 f8 d6 f5 cc 0d be 31 2d ce dc f6
       -25 18 5 6 -40 -8 -42 -11 -52 13 -66 49 45 -50 -36 -10
000040 11 18 10 fd d2 e2 fe d1 2f fa da ef f2 10 e2 00
       17 24 16 -3 -46 -30 -2 -47 47 -6 -38 -17 -14 16 -30 0
000050 0d d7 e8 e1 ef fb b2 cd 1a d0 fa e5 f6 03 c2 e9
       13 -41 -24 -31 -17 -5 -78 -51 26 -48 -6 -27 -10 3 -62 -23
000060 ed e0 d5 d1 1b 13 f7 de f0 ed df da f3 c4 fb f9
       -19 -32 -43 -47 27 19 -9 -34 -16 -19 -33 -38 -13 -60 -5 -7
000070 c4 fa 1d 01 1c f9 0a 12 05 1e e9 da 1f f4 db db
       -60 -6 29 1 28 -7 10 18 5 30 -23 -38 31 -12 -37 -37
000080 ec 37 f3 ef de 10 0f fd ff db d0 01 12 fa f9 1b
       -20 55 -13 -17 -34 16 15 -3 -1 -37 -48 1 18 -6 -7 27
000090 ef bf 24 ef ff f9 13 cf e8 ff ff 11 ed 0d 16 e3
       -17 -65 36 -17 -1 -7 19 -49 -24 -1 -1 17 -19 13 22 -29
0000a0 f8 04 0b ff 02 d1 ec e9 fa 20 d3 3a 18 e3 ff 05
       -8 4 11 -1 2 -47 -20 -23 -6 32 -45 58 24 -29 -1 5
0000b0 09 13 04 fa c0 cb 14 e6 32 15 da ea ef 0c e6 f4
       9 19 4 -6 -64 -53 20 -26 50 21 -38 -22 -17 12 -26 -12
0000c0 f7 e1 f3 e5 e9 20 f6 dd 2b ec 08 ec ee e6 eb f2
       -9 -31 -13 -27 -23 32 -10 -35 43 -20 8 -20 -18 -26 -21 -14
0000d0 f9 e8 e8 ed 11 09 f9 13 10 0d 0c d0 02 e0 fa 16
       -7 -24 -24 -19 17 9 -7 19 16 13 12 -48 2 -32 -6 22
0000e0 d7 08 01 00 f6 01 1e 1c ed 26 ea e1 13 24 de e9
       -41 8 1 0 -10 1 30 28 -19 38 -22 -31 19 36 -34 -23
0000f0 e7 35 f4 ff ca 27 07 09 1b f1 be 08 26 1d 02 3f
       -25 53 -12 -1 -54 39 7 9 27 -15 -66 8 38 29 2 63

functional_1/dense_1/BiasAdd i1 [128, 16] scale=0.006936426 zero_point=0
000000 c8 43 0a 19 53 09 d4 04 fe f2 f6 17 33 13 f5 1c
       -0.38843983 0.4647405 0.06936426 0.17341064 0.57572335 0.062427834 -0.30520272 0.027745703 -0.013872852 -0.09710996 -0.06936426 0.15953779 0.3537577 0.13179208 -0.07630068 0.19421992
000010 37 02 42 ff c0 28 01 1b c8 b9 0e f0 db dd f5 01
       0.38150343 0.013872852 0.4578041 -0.006936426 -0.44393125 0.27745703 0.006936426 0.1872835 -0.38843983 -0.49248624 0.09710996 -0.11098281 -0.25664777 -0.2427749 -0.07630068 0.006936426
000020 10 03 18 0f 0e fb f5 1e 4a 16 21 37 11 15 f1 35
       0.11098281 0.020809278 0.16647422 0.10404639 0.09710996 -0.03468213 -0.07630068 0.20809278 0.51329553 0.15260136 0.22890206 0.38150343 0.11791924 0.14566495 -0.10404639 0.36763057
000030 f0 24 25 ed 28 c3 a3 f7 ce 37 45 f8 0e f7 23 f9
       -0.11098281 0.24971133 0.25664777 -0.13179208 0.27745703 -0.423122 -0.6450876 -0.062427834 -0.34682128 0.38150343 0.47861338 -0.055491406 0.09710996 -0.062427834 0.2427749 -0.04855498
000040 de 1e eb f9 0f cb 3d f2 f5 f4 cf d8 e3 5d 31 14
       -0.23583847 0.20809278 -0.14566495 -0.04855498 0.10404639 -0.36763057 0.423122 -0.09710996 -0.07630068 -0.08323711 -0.33988488 -0.27745703 -0.20115635 0.6450876 0.33988488 0.13872851
000050 07 10 00 ff d5 ea 13 ee dc f2 0c 24 38 e7 25 fb
       0.04855498 0.11098281 0.0 -0.006936426 -0.29826632 -0.15260136 0.13179208 -0.12485567 -0.24971133 -0.09710996 0.08323711 0.24971133 0.38843983 -0.17341064 0.25664777 -0.03468213
000060 df 0c 21 ff 0b 21 00 41 c4 3e cb 0e f4 02 fe af
       -0.22890206 0.08323711 0.22890206 -0.006936426 0.07630068 0.22890206 0.0 0.45086768 -0.41618556 0.4300584 -0.36763057 0.09710996 -0.08323711 0.013872852 -0.013872852 -0.5618505
000070 06 25 eb cc 16 3c 10 27 1e 16 c7 c6 12 2d e5 b8
       0.041618556 0.25664777 -0.14566495 -0.36069414 0.15260136 0.41618556 0.11098281 0.2705206 0.20809278 0.15260136 -0.39537627 -0.4023127 0.12485567 0.31213915 -0.1872835 -0.49942267
000080 43 d7 08 05 2a 10 1f 9e 00 0a eb df f3 04 23 33
       0.4647405 -0.28439346 0.055491406 0.03468213 0.2913299 0.11098281 0.2150292 -0.67976975 0.0 0.06936426 -0.14566495 -0.22890206 -0.090173535 0.027745703 0.2427749 0.3537577
000090 28 fe ed c7 04 32 f3 e0 23 d8 de fb 06 f7 cb ce
       0.27745703 -0.013872852 -0.13179208 -0.39537627 0.027745703 0.34682128 -0.090173535 -0.22196563 0.2427749 -0.27745703 -0.23583847 -0.03468213 0.041618556 -0.062427834 -0.36763057 -0.34682128
0000a0 e7 dc 06 fb f7 04 18 1f 16 fd 1c c7 ed 36 fa df
       -0.17341064 -0.24971133 0.041618556 -0.03468213 -0.062427834 0.027745703 0.16647422 0.2150292 0.15260136 -0.020809278 0.19421992 -0.39537627 -0.13179208 0.374567 -0.041618556 -0.22890206
0000b0 42 d2 29 e9 e0 03 27 c7 06 02 28 17 f2 17 06 02
       0.4578041 -0.31907558 0.28439346 -0.15953779 -0.22196563 0.020809278 0.2705206 -0.39537627 0.041618556 0.013872852 0.27745703 0.15953779 -0.09710996 0.15953779 0.041618556 0.013872852
0000c0 da 05 09 f5 15 ec 1c 37 18 26 fd db dc 22 d4 e8
       -0.26358417 0.03468213 0.062427834 -0.07630068 0.14566495 -0.13872851 0.19421992 0.38150343 0.16647422 0.26358417 -0.020809278 -0.25664777 -0.24971133 0.23583847 -0.30520272 -0.16647422
0000d0 e5 f4 ff bf f5 40 dc 4e 00 13 0f e4 3c d9 48 ed
       -0.1872835 -0.08323711 -0.006936426 -0.45086768 -0.07630068 0.44393125 -0.24971133 0.5410412 0.0 0.13179208 0.10404639 -0.19421992 0.41618556 -0.2705206 0.49942267 -0.13179208
0000e0 3a 12 fb 25 ea 09 00 fd 3d 17 14 fe cf 40 f3 19
       0.4023127 0.12485567 -0.03468213 0.25664777 -0.15260136 0.062427834 0.0 -0.020809278 0.423122 0.15953779 0.13872851 -0.013872852 -0.33988488 0.44393125 -0.090173535 0.17341064
0000f0 f3 0e e0 18 e2 0a ee ed 20 16 31 d3 3a 19 23 ee
       -0.090173535 0.09710996 -0.22196563 0.16647422 -0.20809278 0.06936426 -0.12485567 -0.13179208 0.22196563 0.15260136 0.33988488 -0.31213915 0.4023127 0.17341064 0.2427749 -0.12485567
