tflu-kws-cortex-m/Pretrained_models/CNN/CNN_M/cnn_m_quantized.tflite (tflite, 187840 bytes, 5 tensors)

functional_1/dense/MatMul i1 [16, 3072] scale=0.003623078 zero_point=0
0	0xfb	-0.01811539
1	0xf4	-0.04347694
2	0x0a	0.03623078
3	0x0d	0.047100015
4	0x00	0.0
5	0x29	0.1485462
6	0x17	0.083330795
7	0x03	0.010869235
8	0xd7	-0.1485462
9	0xf4	-0.04347694
10	0xf0	-0.05796925
11	0xea	-0.07970772
12	0xe6	-0.09420003
13	0x05	0.01811539
14	0xef	-0.06159233
15	0x13	0.068838485
16	0xfe	-0.007246156
17	0xfa	-0.02173847
18	0x15	0.07608464
19	0x0f	0.05434617
20	0x02	0.007246156
21	0xfc	-0.014492312
22	0x25	0.13405389
23	0x02	0.007246156
24	0xf6	-0.03623078
25	0xe9	-0.083330795
26	0x06	0.02173847
27	0xe0	-0.1159385
28	0xff	-0.003623078
29	0x18	0.08695388
30	0xc9	-0.1992693
31	0x0d	0.047100015
32	0xfc	-0.014492312
33	0xef	-0.06159233
34	0x1c	0.10144619
35	0x06	0.02173847
36	0x1b	0.097823106
37	0xfb	-0.01811539
38	0x03	0.010869235
39	0xe5	-0.097823106
40	0xea	-0.07970772
41	0x07	0.025361547
42	0x10	0.05796925
43	0xd6	-0.15216929
44	0xf7	-0.032607704
45	0xf5	-0.03985386
46	0x14	0.07246156
47	0x1f	0.112315424
48	0xe6	-0.09420003
49	0x16	0.07970772
50	0xf4	-0.04347694
51	0x17	0.083330795
52	0xed	-0.068838485
53	0xec	-0.07246156
54	0x0a	0.03623078
55	0x11	0.06159233
56	0x20	0.1159385
57	0xeb	-0.07608464
58	0xfc	-0.014492312
59	0xf8	-0.028984625
60	0x00	0.0
61	0xee	-0.06521541
62	0x1b	0.097823106
63	0xf8	-0.028984625
64	0x21	0.119561575
65	0xf3	-0.047100015
66	0xe5	-0.097823106
67	0x21	0.119561575
68	0x1c	0.10144619
69	0xe9	-0.083330795
70	0x0f	0.05434617
71	0x14	0.07246156
72	0x06	0.02173847
73	0x1b	0.097823106
74	0xf8	-0.028984625
75	0xeb	-0.07608464
76	0x26	0.13767697
77	0xf2	-0.050723094
78	0xf2	-0.050723094
79	0x09	0.032607704
80	0x1f	0.112315424
81	0x06	0.02173847
82	0x10	0.05796925
83	0x28	0.14492312
84	0x00	0.0
85	0xf7	-0.032607704
86	0xf8	-0.028984625
87	0xf1	-0.05434617
88	0x0e	0.050723094
89	0xe1	-0.112315424
90	0x12	0.06521541
91	0xf3	-0.047100015
92	0xec	-0.07246156
93	0xf5	-0.03985386
94	0xfd	-0.010869235
95	0x23	0.12680773
96	0x04	0.014492312
97	0xf9	-0.025361547
98	0x02	0.007246156
99	0xff	-0.003623078
100	0x09	0.032607704
101	0xd9	-0.14130005
102	0xf4	-0.04347694
103	0xf7	-0.032607704
104	0x00	0.0
105	0x0f	0.05434617
106	0x07	0.025361547
107	0x11	0.06159233
108	0x1a	0.09420003
109	0x23	0.12680773
110	0x19	0.090576954
111	0xfa	-0.02173847
112	0xf0	-0.05796925
113	0xd7	-0.1485462
114	0xfc	-0.014492312
115	0x0e	0.050723094
116	0xef	-0.06159233
117	0x03	0.010869235
118	0xf9	-0.025361547
119	0xfd	-0.010869235
120	0xde	-0.12318466
121	0xf8	-0.028984625
122	0xf4	-0.04347694
123	0xf6	-0.03623078
124	0x27	0.14130005
125	0xd7	-0.1485462
126	0x23	0.12680773
127	0xee	-0.06521541
128	0x0b	0.03985386
129	0x06	0.02173847
130	0x04	0.014492312
131	0xf5	-0.03985386
132	0xed	-0.068838485
133	0x02	0.007246156
134	0x00	0.0
135	0xf2	-0.050723094
136	0x1f	0.112315424
137	0xe5	-0.097823106
138	0xfa	-0.02173847
139	0x17	0.083330795
140	0xed	-0.068838485
141	0xe4	-0.10144619
142	0x09	0.032607704
143	0x01	0.003623078
144	0x0e	0.050723094
145	0xe3	-0.105069265
146	0xff	-0.003623078
147	0xee	-0.06521541
148	0x03	0.010869235
149	0xe6	-0.09420003
150	0xe9	-0.083330795
151	0xe1	-0.112315424
152	0x14	0.07246156
153	0xf3	-0.047100015
154	0x1d	0.105069265
155	0xf8	-0.028984625
156	0xfa	-0.02173847
157	0x25	0.13405389
158	0xf3	-0.047100015
159	0xfa	-0.02173847
160	0x0d	0.047100015
161	0x0d	0.047100015
162	0xf1	-0.05434617
163	0xf3	-0.047100015
164	0x10	0.05796925
165	0x07	0.025361547
166	0xf0	-0.05796925
167	0x0a	0.03623078
168	0xdd	-0.12680773
169	0xf8	-0.028984625
170	0xfb	-0.01811539
171	0x03	0.010869235
172	0x1b	0.097823106
173	0x0c	0.04347694
174	0x1b	0.097823106
175	0xf8	-0.028984625
176	0x18	0.08695388
177	0x03	0.010869235
178	0xdf	-0.119561575
179	0xef	-0.06159233
180	0x04	0.014492312
181	0xea	-0.07970772
182	0x28	0.14492312
183	0x02	0.007246156
184	0xf2	-0.050723094
185	0x07	0.025361547
186	0xf9	-0.025361547
187	0x22	0.12318466
188	0xef	-0.06159233
189	0x0f	0.05434617
190	0xf5	-0.03985386
191	0x00	0.0
192	0x07	0.025361547
193	0x05	0.01811539
194	0xfa	-0.02173847
195	0x03	0.010869235
196	0xfe	-0.007246156
197	0x1a	0.09420003
198	0x11	0.06159233
199	0xfa	-0.02173847
200	0xf0	-0.05796925
201	0xf2	-0.050723094
202	0xff	-0.003623078
203	0xf5	-0.03985386
204	0xfa	-0.02173847
205	0xff	-0.003623078
206	0xfb	-0.01811539
207	0x03	0.010869235
208	0xfa	-0.02173847
209	0xfd	-0.010869235
210	0x16	0.07970772
211	0x12	0.06521541
212	0x12	0.06521541
213	0xfd	-0.010869235
214	0x0b	0.03985386
215	0x07	0.025361547
216	0xf5	-0.03985386
217	0xff	-0.003623078
218	0x06	0.02173847
219	0xed	-0.068838485
220	0x00	0.0
221	0x12	0.06521541
222	0xd7	-0.1485462
223	0xff	-0.003623078
224	0xf6	-0.03623078
225	0xfb	-0.01811539
226	0x13	0.068838485
227	0x02	0.007246156
228	0x0b	0.03985386
229	0xf9	-0.025361547
230	0x01	0.003623078
231	0xe3	-0.105069265
232	0xf0	-0.05796925
233	0x05	0.01811539
234	0x26	0.13767697
235	0xea	-0.07970772
236	0xf7	-0.032607704
237	0xec	-0.07246156
238	0x16	0.07970772
239	0xfe	-0.007246156
240	0xf8	-0.028984625
241	0x0f	0.05434617
242	0xf8	-0.028984625
243	0x10	0.05796925
244	0xfa	-0.02173847
245	0xf9	-0.025361547
246	0x09	0.032607704
247	0x02	0.007246156
248	0x0e	0.050723094
249	0xf3	-0.047100015
250	0x03	0.010869235
251	0xfb	-0.01811539
252	0xf3	-0.047100015
253	0xec	-0.07246156
254	0x18	0.08695388
255	0xf6	-0.03623078

functional_1/dense_2/MatMul i1 [12, 128] scale=0.005099438 zero_point=0
0	0x9e	-0.49974495
1	0x26	0.19377865
2	0x4f	0.4028556
3	0xbe	-0.33656293
4	0x8f	-0.5762365
5	0x86	-0.62213147
6	0xb7	-0.372259
7	0x2a	0.2141764
8	0xd7	-0.20907697
9	0x5c	0.4691483
10	0x1e	0.15298314
11	0x92	-0.5609382
12	0x30	0.24477303
13	0xd2	-0.23457415
14	0x9e	-0.49974495
15	0xbc	-0.3467618
16	0x97	-0.535441
17	0x40	0.32636404
18	0x1b	0.13768482
19	0x92	-0.5609382
20	0xf8	-0.040795505
21	0xd5	-0.21927583
22	0xc7	-0.29066798
23	0x0c	0.061193258
24	0xb5	-0.38245785
25	0xb8	-0.36715955
26	0xa3	-0.47424775
27	0xb6	-0.37735844
28	0x14	0.10198876
29	0xd2	-0.23457415
30	0xbf	-0.3314635
31	0xd2	-0.23457415
32	0x1c	0.14278427
33	0xce	-0.25497192
34	0xaf	-0.4130545
35	0x31	0.24987248
36	0x86	-0.62213147
37	0x25	0.18867922
38	0xba	-0.35696065
39	0xfb	-0.02549719
40	0x2a	0.2141764
41	0x39	0.29066798
42	0xd6	-0.2141764
43	0xa4	-0.4691483
44	0x4f	0.4028556
45	0xc5	-0.30086684
46	0xaa	-0.43855166
47	0xa9	-0.4436511
48	0x1c	0.14278427
49	0x8f	-0.5762365
50	0xc5	-0.30086684
51	0xba	-0.35696065
52	0xe8	-0.122386515
53	0x9f	-0.4946455
54	0x9b	-0.51504326
55	0x81	-0.64762866
56	0xb1	-0.4028556
57	0x9b	-0.51504326
58	0xb3	-0.39265674
59	0xd3	-0.22947472
60	0xaf	-0.4130545
61	0x34	0.26517078
62	0xfb	-0.02549719
63	0xe2	-0.15298314
64	0x02	0.010198876
65	0x3b	0.30086684
66	0xa8	-0.44875056
67	0xb3	-0.39265674
68	0xdd	-0.17848033
69	0x3d	0.31106573
70	0xe4	-0.14278427
71	0xcb	-0.27027023
72	0xa9	-0.4436511
73	0xac	-0.4283528
74	0x4b	0.38245785
75	0xd2	-0.23457415
76	0xe7	-0.12748596
77	0xe5	-0.13768482
78	0x02	0.010198876
79	0xc9	-0.2804691
80	0xd7	-0.20907697
81	0xab	-0.43345225
82	0x9f	-0.4946455
83	0xf1	-0.07649157
84	0xbc	-0.3467618
85	0x07	0.035696067
86	0x16	0.11218764
87	0xaf	-0.4130545
88	0xa8	-0.44875056
89	0xd0	-0.24477303
90	0xb9	-0.3620601
91	0xc4	-0.3059663
92	0x85	-0.6272309
93	0x01	0.005099438
94	0x9a	-0.5201427
95	0xe3	-0.14788371
96	0x48	0.36715955
97	0xbe	-0.33656293
98	0x12	0.09178989
99	0x3a	0.29576743
100	0xfb	-0.02549719
101	0xb5	-0.38245785
102	0x00	0.0
103	0x24	0.18357977
104	0xd3	-0.22947472
105	0x11	0.08669045
106	0xd1	-0.23967358
107	0xbf	-0.3314635
108	0xc9	-0.2804691
109	0x25	0.18867922
110	0xc4	-0.3059663
111	0x37	0.2804691
112	0xe4	-0.14278427
113	0x0b	0.05609382
114	0xb8	-0.36715955
115	0x45	0.35186124
116	0xbc	-0.3467618
117	0x09	0.045894943
118	0x3f	0.3212646
119	0xb1	-0.4028556
120	0xd6	-0.2141764
121	0xf0	-0.08159101
122	0xa0	-0.48954606
123	0x37	0.2804691
124	0xd0	-0.24477303
125	0x31	0.24987248
126	0x06	0.030596629
127	0xab	-0.43345225
128	0x24	0.18357977
129	0xe4	-0.14278427
130	0x1e	0.15298314
131	0x00	0.0
132	0xfd	-0.015298314
133	0x00	0.0
134	0x0a	0.05099438
135	0xb1	-0.4028556
136	0x15	0.1070882
137	0xee	-0.09178989
138	0x0e	0.071392134
139	0xff	-0.005099438
140	0xe4	-0.14278427
141	0x0d	0.066292696
142	0xfb	-0.02549719
143	0x1a	0.13258539
144	0xe0	-0.16318202
145	0xee	-0.09178989
146	0x4b	0.38245785
147	0x37	0.2804691
148	0xe6	-0.13258539
149	0x1b	0.13768482
150	0xf3	-0.066292696
151	0x08	0.040795505
152	0xdd	-0.17848033
153	0x18	0.122386515
154	0xeb	-0.1070882
155	0x0e	0.071392134
156	0xe3	-0.14788371
157	0x26	0.19377865
158	0xe8	-0.122386515
159	0x3c	0.3059663
160	0x1d	0.14788371
161	0x1a	0.13258539
162	0x16	0.11218764
163	0x1a	0.13258539
164	0x0b	0.05609382
165	0xc6	-0.29576743
166	0x03	0.015298314
167	0xe0	-0.16318202
168	0xff	-0.005099438
169	0xeb	-0.1070882
170	0xf1	-0.07649157
171	0x3f	0.3212646
172	0x12	0.09178989
173	0x2d	0.22947472
174	0xfd	-0.015298314
175	0x22	0.1733809
176	0xcc	-0.26517078
177	0x28	0.20397753
178	0xe6	-0.13258539
179	0xcf	-0.24987248
180	0x26	0.19377865
181	0x02	0.010198876
182	0x0e	0.071392134
183	0x07	0.035696067
184	0x50	0.40795505
185	0xea	-0.11218764
186	0xdf	-0.16828147
187	0xe3	-0.14788371
188	0x09	0.045894943
189	0x13	0.096889324
190	0x01	0.005099438
191	0xe0	-0.16318202
192	0x21	0.16828147
193	0x11	0.08669045
194	0xf4	-0.061193258
195	0xdb	-0.18867922
196	0xd8	-0.20397753
197	0xd4	-0.22437528
198	0xcc	-0.26517078
199	0x28	0.20397753
200	0xf4	-0.061193258
201	0xf0	-0.08159101
202	0x0b	0.05609382
203	0xf2	-0.071392134
204	0xdf	-0.16828147
205	0xdf	-0.16828147
206	0xd4	-0.22437528
207	0x07	0.035696067
208	0x3a	0.29576743
209	0xec	-0.10198876
210	0x3f	0.3212646
211	0xf7	-0.045894943
212	0x06	0.030596629
213	0x2c	0.22437528
214	0xef	-0.08669045
215	0x35	0.27027023
216	0x1b	0.13768482
217	0xf4	-0.061193258
218	0x54	0.4283528
219	0x3d	0.31106573
220	0xdd	-0.17848033
221	0xe8	-0.122386515
222	0xc6	-0.29576743
223	0x19	0.12748596
224	0xf7	-0.045894943
225	0x14	0.10198876
226	0x20	0.16318202
227	0x0f	0.07649157
228	0x08	0.040795505
229	0x02	0.010198876
230	0xcc	-0.26517078
231	0xe1	-0.15808257
232	0x17	0.11728708
233	0x13	0.096889324
234	0xe8	-0.122386515
235	0xf7	-0.045894943
236	0x47	0.3620601
237	0xeb	-0.1070882
238	0x29	0.20907697
239	0xfe	-0.010198876
240	0x2d	0.22947472
241	0x27	0.19887808
242	0xe7	-0.12748596
243	0xc2	-0.31616515
244	0x2b	0.21927583
245	0xda	-0.19377865
246	0xcb	-0.27027023
247	0x26	0.19377865
248	0xde	-0.1733809
249	0x18	0.122386515
250	0xed	-0.096889324
251	0xf8	-0.040795505
252	0x02	0.010198876
253	0x37	0.2804691
254	0x0d	0.066292696
255	0x29	0.20907697

functional_1/conv2d/Conv2D i1 [64, 10, 4, 1]
0	0xba	-70
1	0x0c	12
2	0x27	39
3	0xf5	-11
4	0x00	0
5	0xfe	-2
6	0x0f	15
7	0xf0	-16
8	0x0d	13
9	0xe5	-27
10	0xff	-1
11	0xec	-20
12	0x15	21
13	0xfe	-2
14	0x25	37
15	0x07	7
16	0xf3	-13
17	0x06	6
18	0x10	16
19	0xe9	-23
20	0xd9	-39
21	0x11	17
22	0x2a	42
23	0xd3	-45
24	0xf2	-14
25	0x19	25
26	0xe8	-24
27	0xf1	-15
28	0xf1	-15
29	0x2d	45
30	0xda	-38
31	0xd5	-43
32	0x22	34
33	0x44	68
34	0xbf	-65
35	0xec	-20
36	0x7f	127
37	0x3d	61
38	0x8d	-115
39	0xcd	-51
40	0x7f	127
41	0x0d	13
42	0x46	70
43	0x40	64
44	0x45	69
45	0x14	20
46	0x02	2
47	0x46	70
48	0x2b	43
49	0xb4	-76
50	0xe5	-27
51	0x32	50
52	0x19	25
53	0xd3	-45
54	0xfe	-2
55	0x61	97
56	0x0f	15
57	0x2e	46
58	0xd9	-39
59	0x50	80
60	0x00	0
61	0x23	35
62	0xeb	-21
63	0x14	20
64	0x8c	-116
65	0x0f	15
66	0xed	-19
67	0xef	-17
68	0x9b	-101
69	0xd1	-47
70	0x00	0
71	0xde	-34
72	0xba	-70
73	0x39	57
74	0x39	57
75	0xbb	-69
76	0x26	38
77	0x4a	74
78	0x08	8
79	0xa4	-92
80	0x71	113
81	0xfc	-4
82	0x7f	127
83	0x9d	-99
84	0x54	84
85	0xcf	-49
86	0x74	116
87	0xb6	-74
88	0x27	39
89	0xf4	-12
90	0x6c	108
91	0xf0	-16
92	0x26	38
93	0xb7	-73
94	0x48	72
95	0xb6	-74
96	0x0f	15
97	0xb7	-73
98	0x5c	92
99	0xd8	-40
100	0x04	4
101	0xd5	-43
102	0x2a	42
103	0xeb	-21
104	0xe7	-25
105	0xbc	-68
106	0x0a	10
107	0x2d	45
108	0x03	3
109	0xf8	-8
110	0x37	55
111	0xd2	-46
112	0xb1	-79
113	0xe0	-32
114	0x0f	15
115	0x0b	11
116	0x90	-112
117	0xeb	-21
118	0x15	21
119	0x25	37
120	0x40	64
121	0xfc	-4
122	0x1d	29
123	0x62	98
124	0x32	50
125	0xfc	-4
126	0x10	16
127	0x40	64
128	0x08	8
129	0xd4	-44
130	0x0c	12
131	0x7e	126
132	0xdd	-35
133	0xec	-20
134	0x59	89
135	0x51	81
136	0xdd	-35
137	0xff	-1
138	0x3e	62
139	0x0c	12
140	0x04	4
141	0x13	19
142	0x0a	10
143	0xf6	-10
144	0xe8	-24
145	0xde	-34
146	0xce	-50
147	0x0a	10
148	0xd5	-43
149	0xf0	-16
150	0xf8	-8
151	0xd5	-43
152	0xeb	-21
153	0x08	8
154	0xbc	-68
155	0xb9	-71
156	0xf3	-13
157	0x0f	15
158	0xc3	-61
159	0x81	-127
160	0x09	9
161	0x11	17
162	0xf9	-7
163	0xcf	-49
164	0x06	6
165	0xc1	-63
166	0x1e	30
167	0xf1	-15
168	0x29	41
169	0xf6	-10
170	0xf2	-14
171	0xb9	-71
172	0x4c	76
173	0x11	17
174	0x0c	12
175	0xe9	-23
176	0xd7	-41
177	0x16	22
178	0xd8	-40
179	0x62	98
180	0x9c	-100
181	0x1c	28
182	0xda	-38
183	0x7f	127
184	0x9f	-97
185	0xf3	-13
186	0xc2	-62
187	0x17	23
188	0xd4	-44
189	0x05	5
190	0xf6	-10
191	0xd3	-45
192	0x3e	62
193	0xe0	-32
194	0x4d	77
195	0xe5	-27
196	0x5a	90
197	0x1d	29
198	0x43	67
199	0xec	-20
200	0xed	-19
201	0xc6	-58
202	0xf5	-11
203	0x19	25
204	0x0d	13
205	0xe7	-25
206	0x31	49
207	0xdf	-33
208	0xfa	-6
209	0x22	34
210	0x2d	45
211	0xc1	-63
212	0xdc	-36
213	0x2a	42
214	0x1d	29
215	0xfc	-4
216	0x05	5
217	0x0e	14
218	0xdf	-33
219	0x32	50
220	0x06	6
221	0xdb	-37
222	0x04	4
223	0x51	81
224	0xe6	-26
225	0xab	-85
226	0xf6	-10
227	0x01	1
228	0xe8	-24
229	0x1c	28
230	0xb7	-73
231	0xce	-50
232	0x50	80
233	0x1f	31
234	0xa6	-90
235	0x81	-127
236	0x58	88
237	0x6e	110
238	0xbb	-69
239	0x96	-106
240	0x07	7
241	0xb5	-75
242	0xd5	-43
243	0x18	24
244	0xcd	-51
245	0xa3	-93
246	0x94	-108
247	0xc6	-58
248	0xbe	-66
249	0xba	-70
250	0xd9	-39
251	0xd8	-40
252	0xd2	-46
253	0x2c	44
254	0x4f	79
255	0x05	5

functional_1/conv2d_1/Conv2D i1 [48, 10, 4, 64]
0	0xc3	-61
1	0x0b	11
2	0x1a	26
3	0xf2	-14
4	0xe3	-29
5	0xd2	-46
6	0xcf	-49
7	0xde	-34
8	0xfd	-3
9	0xee	-18
10	0xf0	-16
11	0xe5	-27
12	0xcb	-53
13	0xe6	-26
14	0x01	1
15	0x0e	14
16	0xf4	-12
17	0x18	24
18	0x13	19
19	0xb8	-72
20	0xeb	-21
21	0xf3	-13
22	0x1f	31
23	0xe0	-32
24	0x01	1
25	0xf6	-10
26	0x09	9
27	0x07	7
28	0xe4	-28
29	0xfb	-5
30	0x12	18
31	0xd4	-44
32	0x3e	62
33	0xf4	-12
34	0x0d	13
35	0xf5	-11
36	0x06	6
37	0xb7	-73
38	0xef	-17
39	0x24	36
40	0xe7	-25
41	0xf4	-12
42	0xff	-1
43	0xf9	-7
44	0x15	21
45	0xf0	-16
46	0xf2	-14
47	0x12	18
48	0xdf	-33
49	0xde	-34
50	0x1b	27
51	0x06	6
52	0x13	19
53	0x13	19
54	0x15	21
55	0xe4	-28
56	0x13	19
57	0x11	17
58	0xf4	-12
59	0xf7	-9
60	0xb8	-72
61	0xff	-1
62	0x16	22
63	0x2e	46
64	0x0c	12
65	0x0a	10
66	0x0d	13
67	0x18	24
68	0x1d	29
69	0xef	-17
70	0xf9	-7
71	0x2d	45
72	0x05	5
73	0x1e	30
74	0x0e	14
75	0x10	16
76	0x1f	31
77	0x07	7
78	0x07	7
79	0x13	19
80	0x0e	14
81	0x05	5
82	0x3b	59
83	0x07	7
84	0x3d	61
85	0x17	23
86	0xfb	-5
87	0xe7	-25
88	0xef	-17
89	0x0a	10
90	0x10	16
91	0x12	18
92	0xf5	-11
93	0xf7	-9
94	0xf6	-10
95	0x03	3
96	0xfd	-3
97	0x1b	27
98	0xeb	-21
99	0x18	24
100	0x28	40
101	0xeb	-21
102	0x13	19
103	0x03	3
104	0x2c	44
105	0xef	-17
106	0x06	6
107	0x20	32
108	0xff	-1
109	0x2a	42
110	0xf4	-12
111	0xeb	-21
112	0xee	-18
113	0xee	-18
114	0x1e	30
115	0x04	4
116	0x2b	43
117	0x1e	30
118	0x1d	29
119	0x04	4
120	0x26	38
121	0x1f	31
122	0x03	3
123	0xd4	-44
124	0xfd	-3
125	0x0d	13
126	0x0c	12
127	0x11	17
128	0x26	38
129	0x03	3
130	0x01	1
131	0xee	-18
132	0x05	5
133	0x08	8
134	0x37	55
135	0x28	40
136	0xfe	-2
137	0x21	33
138	0xf0	-16
139	0x19	25
140	0xea	-22
141	0x09	9
142	0x05	5
143	0xea	-22
144	0x0e	14
145	0x12	18
146	0x14	20
147	0x15	21
148	0xf2	-14
149	0x09	9
150	0xe9	-23
151	0xfe	-2
152	0x2b	43
153	0x37	55
154	0x2b	43
155	0x03	3
156	0x13	19
157	0x11	17
158	0xe6	-26
159	0x04	4
160	0xca	-54
161	0x17	23
162	0xee	-18
163	0x0d	13
164	0x33	51
165	0x05	5
166	0xf1	-15
167	0xfb	-5
168	0x3f	63
169	0x2f	47
170	0x2b	43
171	0x09	9
172	0xff	-1
173	0x16	22
174	0xfd	-3
175	0xce	-50
176	0x21	33
177	0x16	22
178	0x34	52
179	0xce	-50
180	0x09	9
181	0x10	16
182	0x08	8
183	0x18	24
184	0x32	50
185	0x2a	42
186	0xf9	-7
187	0xf9	-7
188	0x1e	30
189	0xf0	-16
190	0xfc	-4
191	0x26	38
192	0x2f	47
193	0x16	22
194	0x12	18
195	0x05	5
196	0x18	24
197	0x21	33
198	0x3e	62
199	0x04	4
200	0x01	1
201	0x22	34
202	0x04	4
203	0x26	38
204	0x0d	13
205	0x14	20
206	0xf8	-8
207	0xf6	-10
208	0x11	17
209	0xf3	-13
210	0xf9	-7
211	0x30	48
212	0x3a	58
213	0x12	18
214	0x06	6
215	0xf8	-8
216	0x27	39
217	0x19	25
218	0x05	5
219	0xd1	-47
220	0x09	9
221	0xea	-22
222	0x04	4
223	0xd5	-43
224	0xf2	-14
225	0xf4	-12
226	0xf3	-13
227	0x2c	44
228	0x33	51
229	0x2e	46
230	0x18	24
231	0xd5	-43
232	0x07	7
233	0x01	1
234	0x33	51
235	0x25	37
236	0xf9	-7
237	0x16	22
238	0xdc	-36
239	0x17	23
240	0xf5	-11
241	0x00	0
242	0x16	22
243	0xea	-22
244	0x09	9
245	0x22	34
246	0x0c	12
247	0x2c	44
248	0xf4	-12
249	0x0a	10
250	0x1e	30
251	0x13	19
252	0x1f	31
253	0x07	7
254	0x03	3
255	0xf3	-13

functional_1/dense_1/BiasAdd i1 [128, 16] scale=0.005549789 zero_point=0
0	0x59	0.4939312
1	0x35	0.29413882
2	0xc9	-0.3052384
3	0xf3	-0.07214726
4	0xe9	-0.12764515
5	0xe4	-0.15539409
6	0x48	0.3995848
7	0x14	0.11099578
8	0x0b	0.061047677
9	0x25	0.20534219
10	0x00	0.0
11	0x12	0.0998962
12	0x2b	0.23864092
13	0xc1	-0.3496367
14	0x53	0.46063247
15	0xd8	-0.22199155
16	0xeb	-0.116545565
17	0x0a	0.05549789
18	0x1d	0.16094388
19	0xdc	-0.1997924
20	0x24	0.1997924
21	0xe6	-0.14429452
22	0xd8	-0.22199155
23	0xe5	-0.1498443
24	0xf9	-0.038848523
25	0x11	0.09434641
26	0x11	0.09434641
27	0xf5	-0.061047677
28	0xf4	-0.06659747
29	0x12	0.0998962
30	0x10	0.08879662
31	0x15	0.116545565
32	0xed	-0.10544599
33	0x07	0.038848523
34	0x03	0.016649367
35	0xe2	-0.16649367
36	0x24	0.1997924
37	0x00	0.0
38	0x51	0.4495329
39	0x3c	0.33298734
40	0x03	0.016649367
41	0xf2	-0.077697046
42	0xef	-0.09434641
43	0xfa	-0.033298735
44	0xbf	-0.36073628
45	0x55	0.47173205
46	0x13	0.10544599
47	0xe6	-0.14429452
48	0xd2	-0.2552903
49	0x0f	0.083246835
50	0x13	0.10544599
51	0xc5	-0.32743755
52	0x14	0.11099578
53	0xcd	-0.28303924
54	0xdf	-0.18314303
55	0xf0	-0.08879662
56	0xe1	-0.17204346
57	0x23	0.19424261
58	0x13	0.10544599
59	0xf8	-0.04439831
60	0x31	0.27193967
61	0x07	0.038848523
62	0xc3	-0.33853713
63	0x02	0.011099578
64	0x47	0.394035
65	0x26	0.21089198
66	0x03	0.016649367
67	0x0a	0.05549789
68	0x40	0.3551865
69	0x2b	0.23864092
70	0x14	0.11099578
71	0x24	0.1997924
72	0xf5	-0.061047677
73	0x21	0.18314303
74	0xc6	-0.32188776
75	0xf0	-0.08879662
76	0xf9	-0.038848523
77	0x13	0.10544599
78	0x01	0.005549789
79	0x22	0.18869282
80	0x09	0.0499481
81	0x2e	0.2552903
82	0xf8	-0.04439831
83	0xf8	-0.04439831
84	0xd8	-0.22199155
85	0xe2	-0.16649367
86	0x0d	0.07214726
87	0xf9	-0.038848523
88	0xe5	-0.1498443
89	0x13	0.10544599
90	0x1c	0.15539409
91	0x2d	0.2497405
92	0xec	-0.11099578
93	0xea	-0.122095354
94	0xd8	-0.22199155
95	0x38	0.31078818
96	0x23	0.19424261
97	0xcb	-0.29413882
98	0x27	0.21644177
99	0xba	-0.38848522
100	0xed	-0.10544599
101	0x4b	0.41623417
102	0xdc	-0.1997924
103	0xea	-0.122095354
104	0x11	0.09434641
105	0x2d	0.2497405
106	0x72	0.63267595
107	0xa5	-0.5050308
108	0xea	-0.122095354
109	0xc9	-0.3052384
110	0x41	0.36073628
111	0x14	0.11099578
112	0x10	0.08879662
113	0xed	-0.10544599
114	0x65	0.5605287
115	0xff	-0.005549789
116	0xf6	-0.05549789
117	0xce	-0.27748945
118	0xcf	-0.27193967
119	0xe4	-0.15539409
120	0x0c	0.06659747
121	0x08	0.04439831
122	0xdf	-0.18314303
123	0xc8	-0.31078818
124	0xc4	-0.33298734
125	0xf6	-0.05549789
126	0x23	0.19424261
127	0x06	0.033298735
128	0xd2	-0.2552903
129	0x45	0.38293543
130	0xf6	-0.05549789
131	0x01	0.005549789
132	0xf6	-0.05549789
133	0xc0	-0.3551865
134	0xf8	-0.04439831
135	0x23	0.19424261
136	0xcb	-0.29413882
137	0xc1	-0.3496367
138	0x1e	0.16649367
139	0xf1	-0.083246835
140	0x1e	0.16649367
141	0x51	0.4495329
142	0x24	0.1997924
143	0x31	0.27193967
144	0xfe	-0.011099578
145	0xe8	-0.13319494
146	0x30	0.26638988
147	0x1c	0.15539409
148	0x28	0.22199155
149	0xde	-0.18869282
150	0xf6	-0.05549789
151	0x2a	0.23309113
152	0xf7	-0.0499481
153	0xf4	-0.06659747
154	0xdf	-0.18314303
155	0x58	0.48838142
156	0xa5	-0.5050308
157	0x5c	0.5105806
158	0xdd	-0.19424261
159	0xad	-0.46063247
160	0x2a	0.23309113
161	0x49	0.4051346
162	0xed	-0.10544599
163	0xc8	-0.31078818
164	0xe4	-0.15539409
165	0x0c	0.06659747
166	0x11	0.09434641
167	0x04	0.022199156
168	0xcb	-0.29413882
169	0xe4	-0.15539409
170	0xe4	-0.15539409
171	0x27	0.21644177
172	0xea	-0.122095354
173	0x2e	0.2552903
174	0x32	0.27748945
175	0xec	-0.11099578
176	0x2f	0.2608401
177	0xfc	-0.022199156
178	0x15	0.116545565
179	0xf2	-0.077697046
180	0xf8	-0.04439831
181	0x26	0.21089198
182	0x25	0.20534219
183	0x4f	0.43843332
184	0xe0	-0.17759325
185	0xe1	-0.17204346
186	0x12	0.0998962
187	0xd5	-0.23864092
188	0xe0	-0.17759325
189	0xe2	-0.16649367
190	0xd2	-0.2552903
191	0xfc	-0.022199156
192	0x3f	0.3496367
193	0x03	0.016649367
194	0xe3	-0.16094388
195	0xd1	-0.2608401
196	0x26	0.21089198
197	0xe9	-0.12764515
198	0xd4	-0.24419071
199	0x22	0.18869282
200	0x27	0.21644177
201	0xd3	-0.2497405
202	0xfc	-0.022199156
203	0x28	0.22199155
204	0xfd	-0.016649367
205	0x07	0.038848523
206	0x04	0.022199156
207	0xc9	-0.3052384
208	0xcb	-0.29413882
209	0xe1	-0.17204346
210	0xf8	-0.04439831
211	0x09	0.0499481
212	0xd5	-0.23864092
213	0x3c	0.33298734
214	0xfd	-0.016649367
215	0xee	-0.0998962
216	0xd9	-0.21644177
217	0xf7	-0.0499481
218	0xda	-0.21089198
219	0xfc	-0.022199156
220	0xd5	-0.23864092
221	0xdd	-0.19424261
222	0xf9	-0.038848523
223	0xe2	-0.16649367
224	0x01	0.005549789
225	0x08	0.04439831
226	0x2b	0.23864092
227	0x1e	0.16649367
228	0xb7	-0.4051346
229	0x26	0.21089198
230	0xe3	-0.16094388
231	0x11	0.09434641
232	0xed	-0.10544599
233	0x1e	0.16649367
234	0x0e	0.077697046
235	0xe6	-0.14429452
236	0xb1	-0.43843332
237	0x07	0.038848523
238	0x1b	0.1498443
239	0x1c	0.15539409
240	0x0a	0.05549789
241	0x1a	0.14429452
242	0x17	0.12764515
243	0xb1	-0.43843332
244	0x04	0.022199156
245	0xd6	-0.23309113
246	0xe9	-0.12764515
247	0x3e	0.34408692
248	0xd7	-0.22754134
249	0x37	0.3052384
250	0xde	-0.18869282
251	0xfb	-0.027748944
252	0x33	0.28303924
253	0x51	0.4495329
254	0xf8	-0.04439831
255	0xd4	-0.24419071
