tflu-kws-cortex-m/Pretrained_models/CNN/CNN_L/cnn_l_quantized.tflite (tflite, 486560 bytes, 5 tensors)

functional_1/dense/MatMul i1 [58, 4864] scale=0.0035576043 zero_point=0
00000000: 042f 180a 1dfd ec18 f2f5 e805 e50a f313
00000010: e908 effc 14f1 f903 ffff 31fe 12e1 1a0a
00000020: f0f4 e815 0404 110f ebee 34f6 fb0e eb24
00000030: f9e5 ef0e 0506 11eb f8e3 1600 1e13 02fe
00000040: 284b 0113 f804 3d01 06f5 12f5 f1f9 06ff
00000050: 07ef f22a fcf4 16f2 f8e6 11ed 14e2 12f5
00000060: 230f 0604 0215 03fe fcf1 19ff 2001 fd01
00000070: eb03 f803 1027 fcef f3e0 0a12 13e5 100d
00000080: f9f4 1eef 16e5 f90e f5fc 0c17 2f0d d502
00000090: 1601 e6f1 0fff 0cf0 f4f4 e904 f3ee fef5
000000a0: f5e4 1203 e413 fcdc efec ff08 05ec 04eb
000000b0: 07e7 f906 eff1 1af6 0e02 ff0b 07fe 1605
000000c0: e528 f6f7 1dfd 2516 f9e3 09e3 1de8 1eff
000000d0: eb05 fa11 f4f3 0fff 151b 2112 1bfd 1bea
000000e0: f2fb 08fc 0b0c 0304 1cfe e6e1 f1fe 1514
000000f0: e012 faef ec0a f10d 22df f801 da02 1f0b
0.014230417 0.1672074 0.085382506 0.03557604 0.10317052 -0.010672813 -0.07115208 0.085382506
-0.04980646 -0.039133646 -0.085382506 0.01778802 -0.096055314 0.03557604 -0.046248857 0.06759448
-0.0818249 0.028460834 -0.060479272 -0.014230417 0.07115208 -0.053364065 -0.02490323 0.010672813
-0.0035576043 -0.0035576043 0.1743226 -0.0071152085 0.064036876 -0.11028573 0.092497714 0.03557604
-0.05692167 -0.042691253 -0.085382506 0.07470969 0.014230417 0.014230417 0.060479272 0.053364065
-0.07470969 -0.064036876 0.18499543 -0.03557604 -0.01778802 0.04980646 -0.07470969 0.12807375
-0.02490323 -0.096055314 -0.060479272 0.04980646 0.01778802 0.021345627 0.060479272 -0.07470969
-0.028460834 -0.10317052 0.07826729 0.0 0.10672813 0.06759448 0.0071152085 -0.0071152085
0.14230417 0.2668203 0.0035576043 0.06759448 -0.028460834 0.014230417 0.21701387 0.0035576043
0.021345627 -0.039133646 0.064036876 -0.039133646 -0.053364065 -0.02490323 0.021345627 -0.0035576043
0.02490323 -0.060479272 -0.04980646 0.14941938 -0.014230417 -0.042691253 0.07826729 -0.04980646
-0.028460834 -0.092497714 0.060479272 -0.06759448 0.07115208 -0.10672813 0.064036876 -0.039133646
0.12451615 0.053364065 0.021345627 0.014230417 0.0071152085 0.07470969 0.010672813 -0.0071152085
-0.014230417 -0.053364065 0.08894011 -0.0035576043 0.11384334 0.0035576043 -0.010672813 0.0035576043
-0.07470969 0.010672813 -0.028460834 0.010672813 0.05692167 0.13874656 -0.014230417 -0.060479272
-0.046248857 -0.11384334 0.03557604 0.064036876 0.06759448 -0.096055314 0.05692167 0.046248857
-0.02490323 -0.042691253 0.10672813 -0.060479272 0.07826729 -0.096055314 -0.02490323 0.04980646
-0.039133646 -0.014230417 0.042691253 0.0818249 0.1672074 0.046248857 -0.15297699 0.0071152085
0.07826729 0.0035576043 -0.092497714 -0.053364065 0.053364065 -0.0035576043 0.042691253 -0.05692167
-0.042691253 -0.042691253 -0.0818249 0.014230417 -0.046248857 -0.064036876 -0.0071152085 -0.039133646
-0.039133646 -0.09961292 0.064036876 0.010672813 -0.09961292 0.06759448 -0.014230417 -0.12807375
-0.060479272 -0.07115208 -0.0035576043 0.028460834 0.01778802 -0.07115208 0.014230417 -0.07470969
0.02490323 -0.08894011 -0.02490323 0.021345627 -0.060479272 -0.053364065 0.092497714 -0.03557604
0.04980646 0.0071152085 -0.0035576043 0.039133646 0.02490323 -0.0071152085 0.07826729 0.01778802
-0.096055314 0.14230417 -0.03557604 -0.032018438 0.10317052 -0.010672813 0.13163136 0.07826729
-0.02490323 -0.10317052 0.032018438 -0.10317052 0.10317052 -0.085382506 0.10672813 -0.0035576043
-0.07470969 0.01778802 -0.021345627 0.060479272 -0.042691253 -0.046248857 0.053364065 -0.0035576043
0.07470969 0.096055314 0.117400944 0.064036876 0.096055314 -0.010672813 0.096055314 -0.07826729
-0.04980646 -0.01778802 0.028460834 -0.014230417 0.039133646 0.042691253 0.010672813 0.014230417
0.09961292 -0.0071152085 -0.092497714 -0.11028573 -0.053364065 -0.0071152085 0.07470969 0.07115208
-0.11384334 0.064036876 -0.021345627 -0.060479272 -0.07115208 0.03557604 -0.053364065 0.046248857
0.120958544 -0.117400944 -0.028460834 0.0035576043 -0.13518897 0.0071152085 0.11028573 0.039133646

functional_1/dense_2/MatMul i1 [12, 128] scale=0.005178077 zero_point=0
00000000: cb19 159d b93b e636 8ff0 cec0 81e7 8d3b
00000010: b838 c4c0 aeb4 deb5 16ea 9545 0e25 ab03
00000020: b7d6 a5ae a4e9 923f aa25 abc9 e0a7 db85
00000030: 992a 03ad 2dba 46b1 bb0c 95d9 f8b5 b1a5
00000040: d6ca 18bb 2e15 b6fe ed52 afc3 279e 9bac
00000050: ed46 c5fa 2a9d fa17 b2a6 a10d 41fa 3edf
00000060: 27b5 e9ec fa97 a3a0 c54b aaba 1481 d131
00000070: cf3b f7b0 f4c3 ead4 c1c3 f219 31c9 82ff
00000080: dbdc 01d4 daf9 192f fdd0 bd3a e4d5 241b
00000090: e1c3 cf46 32de 20e3 d71c faba ec00 f8dd
000000a0: cb40 d218 292a ddbe eef8 2300 f5ef 02db
000000b0: 4220 f90d dec4 eabe dbcd 35e6 2cdc 05f8
000000c0: 333b 2c49 303f 3bca f3d8 e22b 1ffb f6ca
000000d0: 1637 0ac8 fa13 3fdb 1f1c c51a bd41 14f1
000000e0: df11 c909 1e36 2a22 2737 3a2d d315 36e6
000000f0: 22ad 221d 294e 3142 d00f 3934 d90d dfa4
-0.27443808 0.12945193 0.10873962 -0.5126296 -0.36764348 0.30550656 -0.13463001 0.27961618
-0.5851227 -0.082849234 -0.25890386 -0.33139694 -0.6576158 -0.12945193 -0.5954789 0.30550656
-0.37282157 0.2899723 -0.31068462 -0.33139694 -0.42460233 -0.39353386 -0.17605463 -0.3883558
0.11391769 -0.11391769 -0.55405426 0.35728732 0.07249308 0.19158885 -0.44013655 0.015534231
-0.37799963 -0.21747924 -0.47120503 -0.42460233 -0.4763831 -0.11909577 -0.5695885 0.32621887
-0.44531465 0.19158885 -0.44013655 -0.28479424 -0.16569847 -0.46084887 -0.19158885 -0.63690346
-0.53334194 0.21747924 0.015534231 -0.4297804 0.23301347 -0.3624654 0.3624654 -0.4090681
-0.35728732 0.062136926 -0.55405426 -0.201945 -0.041424617 -0.3883558 -0.4090681 -0.47120503
-0.21747924 -0.27961618 0.12427385 -0.35728732 0.23819155 0.10873962 -0.3831777 -0.010356154
-0.098383464 0.42460233 -0.41942424 -0.31586272 0.201945 -0.50745153 -0.5229858 -0.4349585
-0.098383464 0.3624654 -0.30550656 -0.031068463 0.21747924 -0.5126296 -0.031068463 0.11909577
-0.40389 -0.46602693 -0.49191734 0.067315005 0.336575 -0.031068463 0.32104078 -0.17087655
0.201945 -0.3883558 -0.11909577 -0.10356154 -0.031068463 -0.5436981 -0.48156118 -0.4970954
-0.30550656 0.3883558 -0.44531465 -0.3624654 0.10356154 -0.6576158 -0.24336962 0.25372577
-0.25372577 0.30550656 -0.046602696 -0.41424617 -0.062136926 -0.31586272 -0.11391769 -0.22783539
-0.32621887 -0.31586272 -0.07249308 0.12945193 0.25372577 -0.28479424 -0.65243775 -0.005178077
-0.19158885 -0.18641078 0.005178077 -0.22783539 -0.19676693 -0.03624654 0.12945193 0.24336962
-0.015534231 -0.2485477 -0.34693116 0.30032846 -0.14498615 -0.22265732 0.18641078 0.13980809
-0.16052039 -0.31586272 -0.25372577 0.3624654 0.25890386 -0.17605463 0.16569847 -0.15016423
-0.21230116 0.14498615 -0.031068463 -0.3624654 -0.10356154 0.0 -0.041424617 -0.1812327
-0.27443808 0.33139694 -0.23819155 0.12427385 0.21230116 0.21747924 -0.1812327 -0.3417531
-0.09320539 -0.041424617 0.1812327 0.0 -0.056958847 -0.08802731 0.010356154 -0.19158885
0.3417531 0.16569847 -0.03624654 0.067315005 -0.17605463 -0.31068462 -0.11391769 -0.3417531
-0.19158885 -0.26408193 0.27443808 -0.13463001 0.22783539 -0.18641078 0.025890386 -0.041424617
0.26408193 0.30550656 0.22783539 0.37799963 0.2485477 0.32621887 0.30550656 -0.27961618
-0.067315005 -0.20712309 -0.15534231 0.22265732 0.16052039 -0.025890386 -0.05178077 -0.27961618
0.11391769 0.28479424 0.05178077 -0.2899723 -0.031068463 0.098383464 0.32621887 -0.19158885
0.16052039 0.14498615 -0.30550656 0.13463001 -0.34693116 0.336575 0.10356154 -0.077671155
-0.17087655 0.08802731 -0.28479424 0.046602696 0.15534231 0.27961618 0.21747924 0.17605463
0.201945 0.28479424 0.30032846 0.23301347 -0.23301347 0.10873962 0.27961618 -0.13463001
0.17605463 -0.4297804 0.17605463 0.15016423 0.21230116 0.40389 0.25372577 0.3417531
-0.2485477 0.077671155 0.2951504 0.26926002 -0.201945 0.067315005 -0.17087655 -0.4763831

functional_1/conv2d/Conv2D i1 [60, 10, 4, 1]
00000000: 7fe4 e15f 3fec d255 22c2 081a d8d5 e716
00000010: 02ff 182a eadb 06ec d804 0fdb e50c 0511
00000020: 0e3d 0d1e 0b0b c1cf dd1a 1456 c546 f07a
00000030: b00d 1d6d f82f 1e11 113a 2b04 2d2e 27ae
00000040: 78e6 e581 27ae b5dd 05c3 fdfd cdd1 28f9
00000050: 748d 7f59 3cae 3e28 35eb 29f1 1dfe f6c0
00000060: ea31 daca f70e 18eb 0a3a 0821 db38 f223
00000070: b533 d80b a24f 9edc d2f9 bf4d a530 a90d
00000080: 9d4b 1144 1763 09df 537f 35bc 6d38 49b2
00000090: 3c9e 26ed 0dab fa20 0aaf fde5 edb2 e6f6
000000a0: c40d 0d81 ebfa 2f87 351f e5a7 6301 f5e0
000000b0: 59d9 02e2 320c 2624 0200 2816 c611 263d
000000c0: b32b 1a24 ee06 01e8 272e eac9 426c b2b3
000000d0: 6c6a be83 7f1a 99af 6e3c dec0 563f e3a1
000000e0: 2612 fecc edec 5ed7 d8f2 5da7 ec44 4fa0
000000f0: eff5 61fa a102 2224 be03 edd7 c4c8 f8fe
127 -28 -31 95 63 -20 -46 85
34 -62 8 26 -40 -43 -25 22
2 -1 24 42 -22 -37 6 -20
-40 4 15 -37 -27 12 5 17
14 61 13 30 11 11 -63 -49
-35 26 20 86 -59 70 -16 122
-80 13 29 109 -8 47 30 17
17 58 43 4 45 46 39 -82
120 -26 -27 -127 39 -82 -75 -35
5 -61 -3 -3 -51 -47 40 -7
116 -115 127 89 60 -82 62 40
53 -21 41 -15 29 -2 -10 -64
-22 49 -38 -54 -9 14 24 -21
10 58 8 33 -37 56 -14 35
-75 51 -40 11 -94 79 -98 -36
-46 -7 -65 77 -91 48 -87 13
-99 75 17 68 23 99 9 -33
83 127 53 -68 109 56 73 -78
60 -98 38 -19 13 -85 -6 32
10 -81 -3 -27 -19 -78 -26 -10
-60 13 13 -127 -21 -6 47 -121
53 31 -27 -89 99 1 -11 -32
89 -39 2 -30 50 12 38 36
2 0 40 22 -58 17 38 61
-77 43 26 36 -18 6 1 -24
39 46 -22 -55 66 108 -78 -77
108 106 -66 -125 127 26 -103 -81
110 60 -34 -64 86 63 -29 -95
38 18 -2 -52 -19 -20 94 -41
-40 -14 93 -89 -20 68 79 -96
-17 -11 97 -6 -95 2 34 36
-66 3 -19 -41 -60 -56 -8 -2

functional_1/conv2d_1/Conv2D i1 [76, 10, 4, 60]
00000000: 99f6 dadb e5dc 162c e1c2 ee00 eae3 d817
00000010: 0321 2dcd b112 fae7 960d ce05 ebfe 4ecd
00000020: 2314 e381 e4c4 ced5 a6aa ea0d c701 001d
00000030: f9e4 e3c4 fcfd 2027 af1c 9306 d1fa 192b
00000040: dbe1 fadf 270f 00fb 461a 30f6 e801 2b07
00000050: daee d5f9 f000 9e0f 0111 0c16 3f3b 12e8
00000060: 2527 00e7 20e3 0228 0312 f0f2 0708 25f0
00000070: 1cea 012b bbd2 01e2 d805 30fb 2314 d11f
00000080: 19cd 01e4 1600 e115 f6fe c116 e4f0 ebcd
00000090: fa23 29fb ca2f 2009 5be3 a5a9 0908 32b5
000000a0: d0e2 fe1e c82b 1306 33f5 25dd 30d5 1af4
000000b0: c446 c1d7 120b fbe4 452f 3128 e8f7 e8dc
000000c0: df0c cf07 bcf3 0846 0f22 3e03 3c39 d22c
000000d0: cd1b fb01 42fe cc38 e021 1421 0bab 202d
000000e0: e56d f9ea 02cd 1311 f040 ca01 e424 d6d6
000000f0: c0f8 f4dc 0c03 0e20 f8ca c804 e6e8 e402
-103 -10 -38 -37 -27 -36 22 44
-31 -62 -18 0 -22 -29 -40 23
3 33 45 -51 -79 18 -6 -25
-106 13 -50 5 -21 -2 78 -51
35 20 -29 -127 -28 -60 -50 -43
-90 -86 -22 13 -57 1 0 29
-7 -28 -29 -60 -4 -3 32 39
-81 28 -109 6 -47 -6 25 43
-37 -31 -6 -33 39 15 0 -5
70 26 48 -10 -24 1 43 7
-38 -18 -43 -7 -16 0 -98 15
1 17 12 22 63 59 18 -24
37 39 0 -25 32 -29 2 40
3 18 -16 -14 7 8 37 -16
28 -22 1 43 -69 -46 1 -30
-40 5 48 -5 35 20 -47 31
25 -51 1 -28 22 0 -31 21
-10 -2 -63 22 -28 -16 -21 -51
-6 35 41 -5 -54 47 32 9
91 -29 -91 -87 9 8 50 -75
-48 -30 -2 30 -56 43 19 6
51 -11 37 -35 48 -43 26 -12
-60 70 -63 -41 18 11 -5 -28
69 47 49 40 -24 -9 -24 -36
-33 12 -49 7 -68 -13 8 70
15 34 62 3 60 57 -46 44
-51 27 -5 1 66 -2 -52 56
-32 33 20 33 11 -85 32 45
-27 109 -7 -22 2 -51 19 17
-16 64 -54 1 -28 36 -42 -42
-64 -8 -12 -36 12 3 14 32
-8 -54 -56 4 -26 -24 -28 2

functional_1/dense_1/BiasAdd i1 [128, 58] scale=0.0028768159 zero_point=0
00000000: 312d d61d 31d4 272f cc01 df04 0c26 fb34
00000010: 0100 12dd ffcc 25ca e1cb 0ef2 f1e9 f8ca
00000020: d3fc 0e38 1c19 d2f9 dad8 0a0c f815 e0f0
00000030: 070f fcfc fefb e134 d9f2 1f30 0af1 0212
00000040: 2a16 0ec7 3328 c82c e108 dff7 021a 1019
00000050: fa07 eb27 ff02 27e0 fd01 06da 102c e31b
00000060: 08d2 d825 3838 d344 3cde 1ec9 1427 1a26
00000070: 0804 0a14 c3ee 24df 453e 20b7 c706 ea01
00000080: fc2d 34fe e745 c6ec 2d2e dc47 c9ce dad1
00000090: faf8 f9da e8e7 2114 262c d9ea 21ea 113f
000000a0: 1fcc 3a33 f64b e0af 1a22 10c4 eae6 2dc7
000000b0: d135 3bcc e2d8 c400 3131 ee35 09de cb02
000000c0: f8d9 062e 43d7 5254 4bd4 0c55 923d 0621
000000d0: ea3a e31f ce25 a3e8 e030 dae0 c52c 1230
000000e0: 1a1e c2dd f1c4 f8fa e5b3 1429 19ee fc1f
000000f0: d614 3221 29d2 c416 1d04 d5d9 e9e5 c70f
0.14096397 0.12945671 -0.12082627 0.08342766 0.14096397 -0.1265799 0.11219582 0.13521035
-0.14959443 0.0028768159 -0.094934925 0.011507263 0.03452179 0.109319 -0.01438408 0.14959443
0.0028768159 0.0 0.051782686 -0.100688554 -0.0028768159 -0.14959443 0.10644218 -0.15534806
-0.08918129 -0.15247124 0.04027542 -0.04027542 -0.04315224 -0.066166766 -0.023014527 -0.15534806
-0.12945671 -0.011507263 0.04027542 0.16110168 0.08055084 0.071920395 -0.13233353 -0.02013771
-0.109319 -0.11507264 0.02876816 0.03452179 -0.023014527 0.060413133 -0.09205811 -0.046029054
0.02013771 0.04315224 -0.011507263 -0.011507263 -0.0057536317 -0.01438408 -0.08918129 0.14959443
-0.11219582 -0.04027542 0.08918129 0.13808715 0.02876816 -0.04315224 0.0057536317 0.051782686
0.12082627 0.06328995 0.04027542 -0.1639785 0.14671761 0.11507264 -0.16110168 0.1265799
-0.08918129 0.023014527 -0.094934925 -0.025891343 0.0057536317 0.07479721 0.046029054 0.071920395
-0.017260894 0.02013771 -0.060413133 0.11219582 -0.0028768159 0.0057536317 0.11219582 -0.09205811
-0.008630447 0.0028768159 0.017260894 -0.109319 0.046029054 0.1265799 -0.08342766 0.07767403
0.023014527 -0.13233353 -0.11507264 0.10644218 0.16110168 0.16110168 -0.12945671 0.19562347
0.17260896 -0.097811736 0.08630448 -0.15822487 0.05753632 0.11219582 0.07479721 0.109319
0.023014527 0.011507263 0.02876816 0.05753632 -0.17548576 -0.051782686 0.10356537 -0.094934925
0.19850029 0.17836258 0.09205811 -0.21000756 -0.1639785 0.017260894 -0.06328995 0.0028768159
-0.011507263 0.12945671 0.14959443 -0.0057536317 -0.071920395 0.19850029 -0.16685532 -0.05753632
0.12945671 0.13233353 -0.10356537 0.20425393 -0.15822487 -0.14384079 -0.109319 -0.13521035
-0.017260894 -0.023014527 -0.02013771 -0.109319 -0.06904358 -0.071920395 0.094934925 0.05753632
0.109319 0.1265799 -0.11219582 -0.06328995 0.094934925 -0.06328995 0.048905868 0.1812394
0.08918129 -0.14959443 0.16685532 0.14671761 -0.02876816 0.21576118 -0.09205811 -0.23302208
0.07479721 0.097811736 0.046029054 -0.17260896 -0.06328995 -0.07479721 0.12945671 -0.1639785
-0.13521035 0.15247124 0.16973214 -0.14959443 -0.08630448 -0.11507264 -0.17260896 0.0
0.14096397 0.14096397 -0.051782686 0.15247124 0.025891343 -0.097811736 -0.15247124 0.0057536317
-0.023014527 -0.11219582 0.017260894 0.13233353 0.19274667 -0.11794945 0.2358989 0.24165253
0.21576118 -0.1265799 0.03452179 0.24452935 -0.31644973 0.17548576 0.017260894 0.094934925
-0.06328995 0.16685532 -0.08342766 0.08918129 -0.14384079 0.10644218 -0.26754388 -0.06904358
-0.09205811 0.13808715 -0.109319 -0.09205811 -0.16973214 0.1265799 0.051782686 0.13808715
0.07479721 0.08630448 -0.17836258 -0.100688554 -0.04315224 -0.17260896 -0.023014527 -0.017260894
-0.07767403 -0.22151482 0.05753632 0.11794945 0.071920395 -0.051782686 -0.011507263 0.08918129
-0.12082627 0.05753632 0.14384079 0.094934925 0.11794945 -0.13233353 -0.17260896 0.06328995
0.08342766 0.011507263 -0.123703085 -0.11219582 -0.066166766 -0.07767403 -0.1639785 0.04315224
