tflu-kws-cortex-m/Pretrained_models/DNN/DNN_L/dnn_l_quantized.tflite (tflite, 502928 bytes, 4 tensors)

functional_1/dense/MatMul i1 [436, 250] scale=0.0039822953 zero_point=0
0	0xfb	-0.019911475
1	0xf3	-0.051769838
2	0x05	0.019911475
3	0xfe	-0.007964591
4	0xfb	-0.019911475
5	0x12	0.07168131
6	0x01	0.0039822953
7	0x00	0.0
8	0x0a	0.03982295
9	0x24	0.14336263
10	0x02	0.007964591
11	0x0e	0.055752136
12	0xf4	-0.047787543
13	0xf0	-0.063716725
14	0xf3	-0.051769838
15	0xfa	-0.023893772
16	0x18	0.09557509
17	0x0c	0.047787543
18	0xfd	-0.011946886
19	0x1f	0.12345115
20	0xff	-0.0039822953
21	0x18	0.09557509
22	0xec	-0.0796459
23	0xf4	-0.047787543
24	0xf6	-0.03982295
25	0x01	0.0039822953
26	0x02	0.007964591
27	0x1e	0.11946886
28	0x11	0.06769902
29	0x14	0.0796459
30	0xf9	-0.027876068
31	0x17	0.09159279
32	0xe6	-0.103539675
33	0xf8	-0.031858362
34	0xf7	-0.035840657
35	0xde	-0.13539805
36	0x22	0.13539805
37	0x20	0.12743345
38	0xe1	-0.12345115
39	0x26	0.15132722
40	0xfe	-0.007964591
41	0x02	0.007964591
42	0xdc	-0.14336263
43	0x1c	0.11150427
44	0xfd	-0.011946886
45	0x06	0.023893772
46	0x23	0.13938034
47	0xfe	-0.007964591
48	0x0a	0.03982295
49	0x1e	0.11946886
50	0x16	0.0876105
51	0x0c	0.047787543
52	0xf3	-0.051769838
53	0x08	0.031858362
54	0x14	0.0796459
55	0xf8	-0.031858362
56	0x17	0.09159279
57	0x01	0.0039822953
58	0xf2	-0.055752136
59	0xf6	-0.03982295
60	0xf5	-0.04380525
61	0xee	-0.07168131
62	0xfc	-0.015929181
63	0x1b	0.10752197
64	0x08	0.031858362
65	0x18	0.09557509
66	0x14	0.0796459
67	0xe5	-0.10752197
68	0x00	0.0
69	0xf8	-0.031858362
70	0xfc	-0.015929181
71	0xf8	-0.031858362
72	0xed	-0.07566361
73	0xfe	-0.007964591
74	0x0a	0.03982295
75	0xff	-0.0039822953
76	0x08	0.031858362
77	0xe3	-0.11548656
78	0xef	-0.06769902
79	0xdd	-0.13938034
80	0xfe	-0.007964591
81	0xf4	-0.047787543
82	0xf3	-0.051769838
83	0x07	0.027876068
84	0xf8	-0.031858362
85	0x07	0.027876068
86	0xf7	-0.035840657
87	0xd8	-0.1592918
88	0x10	0.063716725
89	0x02	0.007964591
90	0xf8	-0.031858362
91	0x0d	0.051769838
92	0xeb	-0.0836282
93	0x01	0.0039822953
94	0xf0	-0.063716725
95	0x25	0.14734493
96	0x0f	0.05973443
97	0xfd	-0.011946886
98	0xec	-0.0796459
99	0x11	0.06769902
100	0x09	0.035840657
101	0xf3	-0.051769838
102	0x17	0.09159279
103	0xfd	-0.011946886
104	0xea	-0.0876105
105	0xe4	-0.11150427
106	0xec	-0.0796459
107	0xe8	-0.09557509
108	0xf2	-0.055752136
109	0xf0	-0.063716725
110	0x09	0.035840657
111	0xff	-0.0039822953
112	0x0f	0.05973443
113	0x03	0.011946886
114	0xdc	-0.14336263
115	0x16	0.0876105
116	0xe8	-0.09557509
117	0xf6	-0.03982295
118	0xf4	-0.047787543
119	0xef	-0.06769902
120	0xf2	-0.055752136
121	0xe4	-0.11150427
122	0x07	0.027876068
123	0xfb	-0.019911475
124	0x06	0.023893772
125	0x06	0.023893772
126	0xe1	-0.12345115
127	0x00	0.0
128	0x14	0.0796459
129	0x13	0.07566361
130	0x04	0.015929181
131	0xd2	-0.18318558
132	0x07	0.027876068
133	0xf1	-0.05973443
134	0x0a	0.03982295
135	0x06	0.023893772
136	0xe6	-0.103539675
137	0x08	0.031858362
138	0x14	0.0796459
139	0x0a	0.03982295
140	0x0e	0.055752136
141	0xe0	-0.12743345
142	0xd1	-0.18716788
143	0x0d	0.051769838
144	0x25	0.14734493
145	0x24	0.14336263
146	0xfa	-0.023893772
147	0xfe	-0.007964591
148	0x1c	0.11150427
149	0x03	0.011946886
150	0x08	0.031858362
151	0x09	0.035840657
152	0xf2	-0.055752136
153	0xe2	-0.11946886
154	0x16	0.0876105
155	0x3c	0.23893772
156	0xfe	-0.007964591
157	0x01	0.0039822953
158	0x29	0.16327411
159	0x21	0.13141574
160	0x03	0.011946886
161	0xff	-0.0039822953
162	0x00	0.0
163	0xea	-0.0876105
164	0x2d	0.17920329
165	0x31	0.19513246
166	0x16	0.0876105
167	0x07	0.027876068
168	0xf7	-0.035840657
169	0xf3	-0.051769838
170	0xfb	-0.019911475
171	0x16	0.0876105
172	0xf2	-0.055752136
173	0xf3	-0.051769838
174	0x1f	0.12345115
175	0x0d	0.051769838
176	0xf9	-0.027876068
177	0x15	0.0836282
178	0x04	0.015929181
179	0x05	0.019911475
180	0xed	-0.07566361
181	0xe4	-0.11150427
182	0xe8	-0.09557509
183	0x00	0.0
184	0x29	0.16327411
185	0xf6	-0.03982295
186	0xfc	-0.015929181
187	0x0a	0.03982295
188	0x1c	0.11150427
189	0x03	0.011946886
190	0x0b	0.04380525
191	0xf7	-0.035840657
192	0x0e	0.055752136
193	0xee	-0.07168131
194	0x11	0.06769902
195	0xed	-0.07566361
196	0x20	0.12743345
197	0x24	0.14336263
198	0x04	0.015929181
199	0x02	0.007964591
200	0xf3	-0.051769838
201	0x0c	0.047787543
202	0x0c	0.047787543
203	0x0d	0.051769838
204	0xeb	-0.0836282
205	0x02	0.007964591
206	0xf5	-0.04380525
207	0x0c	0.047787543
208	0x0b	0.04380525
209	0xf3	-0.051769838
210	0x0e	0.055752136
211	0xec	-0.0796459
212	0x15	0.0836282
213	0xff	-0.0039822953
214	0xc8	-0.22300854
215	0x04	0.015929181
216	0x09	0.035840657
217	0xf6	-0.03982295
218	0x05	0.019911475
219	0x06	0.023893772
220	0x07	0.027876068
221	0x07	0.027876068
222	0xf5	-0.04380525
223	0x0a	0.03982295
224	0xf4	-0.047787543
225	0xfe	-0.007964591
226	0xfc	-0.015929181
227	0x01	0.0039822953
228	0x04	0.015929181
229	0x03	0.011946886
230	0xf4	-0.047787543
231	0xfa	-0.023893772
232	0xf9	-0.027876068
233	0x1b	0.10752197
234	0x02	0.007964591
235	0x10	0.063716725
236	0x0c	0.047787543
237	0xf3	-0.051769838
238	0xeb	-0.0836282
239	0x06	0.023893772
240	0x1d	0.11548656
241	0x10	0.063716725
242	0x11	0.06769902
243	0xf2	-0.055752136
244	0x08	0.031858362
245	0x03	0.011946886
246	0xc6	-0.23097312
247	0x08	0.031858362
248	0xfd	-0.011946886
249	0xe9	-0.09159279
250	0x0b	0.04380525
251	0x07	0.027876068
252	0xf3	-0.051769838
253	0xc8	-0.22300854
254	0x2a	0.1672564
255	0x28	0.1592918

functional_1/dense_1/MatMul i1 [436, 436] scale=0.00247652 zero_point=0
0	0x00	0.0
1	0x35	0.13125555
2	0x1e	0.074295595
3	0xd0	-0.118872955
4	0xfc	-0.00990608
5	0xe8	-0.059436478
6	0x25	0.09163123
7	0x07	0.017335638
8	0xf7	-0.02228868
9	0x0a	0.024765199
10	0x1d	0.071819074
11	0xe9	-0.056959957
12	0xcc	-0.12877904
13	0xef	-0.04210084
14	0x2b	0.10649036
15	0xe6	-0.06438952
16	0x1d	0.071819074
17	0x13	0.047053877
18	0x09	0.02228868
19	0xdb	-0.09163123
20	0xf4	-0.029718239
21	0xfd	-0.0074295597
22	0x21	0.08172516
23	0x01	0.00247652
24	0xf9	-0.017335638
25	0xda	-0.094107755
26	0xee	-0.04457736
27	0x0b	0.027241718
28	0x15	0.05200692
29	0xdd	-0.0866782
30	0x18	0.059436478
31	0x0a	0.024765199
32	0xdf	-0.08172516
33	0xf7	-0.02228868
34	0x23	0.0866782
35	0x11	0.04210084
36	0xd6	-0.10401384
37	0xfe	-0.00495304
38	0x07	0.017335638
39	0x2c	0.10896687
40	0xf2	-0.034671277
41	0xe7	-0.061913
42	0xe9	-0.056959957
43	0x0c	0.029718239
44	0xf8	-0.01981216
45	0xec	-0.049530398
46	0x15	0.05200692
47	0xf1	-0.037147798
48	0x08	0.01981216
49	0xd0	-0.118872955
50	0xfe	-0.00495304
51	0x0d	0.03219476
52	0x38	0.1386851
53	0xe1	-0.076772116
54	0x03	0.0074295597
55	0xee	-0.04457736
56	0x0e	0.034671277
57	0xdd	-0.0866782
58	0x23	0.0866782
59	0x14	0.049530398
60	0x16	0.054483436
61	0x1b	0.06686604
62	0xe2	-0.074295595
63	0x41	0.16097379
64	0xe4	-0.06934255
65	0xce	-0.123826
66	0xfb	-0.0123825995
67	0xf7	-0.02228868
68	0xca	-0.13373208
69	0xd7	-0.10153732
70	0x07	0.017335638
71	0x1f	0.076772116
72	0xfb	-0.0123825995
73	0xe4	-0.06934255
74	0xe1	-0.076772116
75	0x1f	0.076772116
76	0x12	0.04457736
77	0x20	0.07924864
78	0xdb	-0.09163123
79	0xfe	-0.00495304
80	0xe3	-0.071819074
81	0xe9	-0.056959957
82	0xef	-0.04210084
83	0x0c	0.029718239
84	0x12	0.04457736
85	0x15	0.05200692
86	0xf0	-0.03962432
87	0xf1	-0.037147798
88	0x12	0.04457736
89	0x0c	0.029718239
90	0x2f	0.116396435
91	0xfb	-0.0123825995
92	0xee	-0.04457736
93	0xeb	-0.05200692
94	0x17	0.056959957
95	0xc6	-0.14363815
96	0x14	0.049530398
97	0xf6	-0.024765199
98	0x0e	0.034671277
99	0xea	-0.054483436
100	0x07	0.017335638
101	0x2e	0.113919914
102	0x11	0.04210084
103	0x05	0.0123825995
104	0xe2	-0.074295595
105	0x14	0.049530398
106	0xe7	-0.061913
107	0x31	0.12134948
108	0xfd	-0.0074295597
109	0xe7	-0.061913
110	0xe9	-0.056959957
111	0xf2	-0.034671277
112	0x1c	0.06934255
113	0xfa	-0.014859119
114	0x07	0.017335638
115	0xe4	-0.06934255
116	0x03	0.0074295597
117	0x00	0.0
118	0x1b	0.06686604
119	0xf6	-0.024765199
120	0xe9	-0.056959957
121	0xe9	-0.056959957
122	0xeb	-0.05200692
123	0xdc	-0.08915472
124	0x0e	0.034671277
125	0x0b	0.027241718
126	0x1b	0.06686604
127	0x0a	0.024765199
128	0xd3	-0.11144339
129	0xef	-0.04210084
130	0xe8	-0.059436478
131	0x10	0.03962432
132	0xd4	-0.10896687
133	0x33	0.12630251
134	0x4b	0.185739
135	0x0b	0.027241718
136	0xfa	-0.014859119
137	0x1b	0.06686604
138	0x00	0.0
139	0xdf	-0.08172516
140	0xd9	-0.096584275
141	0x21	0.08172516
142	0xde	-0.08420168
143	0x25	0.09163123
144	0x12	0.04457736
145	0x1c	0.06934255
146	0x08	0.01981216
147	0xf4	-0.029718239
148	0xed	-0.047053877
149	0xf2	-0.034671277
150	0x12	0.04457736
151	0x01	0.00247652
152	0x2e	0.113919914
153	0x19	0.061913
154	0xf3	-0.03219476
155	0x24	0.08915472
156	0x00	0.0
157	0xcd	-0.12630251
158	0x0a	0.024765199
159	0xea	-0.054483436
160	0x20	0.07924864
161	0xf1	-0.037147798
162	0x12	0.04457736
163	0x0b	0.027241718
164	0xec	-0.049530398
165	0xde	-0.08420168
166	0x0a	0.024765199
167	0x18	0.059436478
168	0x13	0.047053877
169	0x0d	0.03219476
170	0x19	0.061913
171	0x33	0.12630251
172	0xbe	-0.16345032
173	0x20	0.07924864
174	0xf4	-0.029718239
175	0x13	0.047053877
176	0x21	0.08172516
177	0xf1	-0.037147798
178	0x15	0.05200692
179	0x15	0.05200692
180	0xf2	-0.034671277
181	0x00	0.0
182	0x23	0.0866782
183	0xf1	-0.037147798
184	0x0f	0.037147798
185	0x11	0.04210084
186	0xeb	-0.05200692
187	0xef	-0.04210084
188	0x10	0.03962432
189	0x07	0.017335638
190	0x18	0.059436478
191	0xfb	-0.0123825995
192	0xe6	-0.06438952
193	0x18	0.059436478
194	0xed	-0.047053877
195	0x19	0.061913
196	0xef	-0.04210084
197	0x0b	0.027241718
198	0x1f	0.076772116
199	0xf4	-0.029718239
200	0x08	0.01981216
201	0xed	-0.047053877
202	0x0c	0.029718239
203	0x18	0.059436478
204	0xbd	-0.16592683
205	0xec	-0.049530398
206	0x02	0.00495304
207	0xf6	-0.024765199
208	0xee	-0.04457736
209	0xf6	-0.024765199
210	0x07	0.017335638
211	0x29	0.10153732
212	0xd2	-0.113919914
213	0xf7	-0.02228868
214	0x05	0.0123825995
215	0xfe	-0.00495304
216	0xf4	-0.029718239
217	0x01	0.00247652
218	0xf7	-0.02228868
219	0x39	0.14116164
220	0x0c	0.029718239
221	0xef	-0.04210084
222	0x04	0.00990608
223	0xea	-0.054483436
224	0xf7	-0.02228868
225	0x28	0.099060796
226	0x2c	0.10896687
227	0x07	0.017335638
228	0x03	0.0074295597
229	0x02	0.00495304
230	0xe3	-0.071819074
231	0xf1	-0.037147798
232	0x06	0.014859119
233	0xdb	-0.09163123
234	0xfe	-0.00495304
235	0xd3	-0.11144339
236	0xfb	-0.0123825995
237	0x10	0.03962432
238	0xfd	-0.0074295597
239	0xf5	-0.027241718
240	0xd4	-0.10896687
241	0x07	0.017335638
242	0xf7	-0.02228868
243	0x26	0.094107755
244	0x05	0.0123825995
245	0x06	0.014859119
246	0xe9	-0.056959957
247	0xf5	-0.027241718
248	0x20	0.07924864
249	0xf1	-0.037147798
250	0xf5	-0.027241718
251	0x0c	0.029718239
252	0x0c	0.029718239
253	0xdf	-0.08172516
254	0xfd	-0.0074295597
255	0xf1	-0.037147798

functional_1/dense_2/MatMul i1 [436, 436] scale=0.0023693033 zero_point=0
0	0x12	0.04264746
1	0xea	-0.05212467
2	0xfd	-0.00710791
3	0xfa	-0.01421582
4	0x27	0.09240283
5	0xe5	-0.06397119
6	0xfd	-0.00710791
7	0x0f	0.03553955
8	0xcf	-0.116095856
9	0x04	0.009477213
10	0xf0	-0.037908852
11	0x04	0.009477213
12	0xf8	-0.018954426
13	0xd6	-0.09951074
14	0x18	0.05686328
15	0xeb	-0.04975537
16	0x27	0.09240283
17	0xfe	-0.0047386065
18	0x06	0.01421582
19	0x04	0.009477213
20	0xd2	-0.10898795
21	0xd2	-0.10898795
22	0xf9	-0.016585123
23	0x08	0.018954426
24	0xe3	-0.06870979
25	0xf5	-0.026062336
26	0x30	0.11372656
27	0x10	0.037908852
28	0x12	0.04264746
29	0x33	0.12083447
30	0xce	-0.11846516
31	0xf0	-0.037908852
32	0x0f	0.03553955
33	0xde	-0.08055631
34	0x00	0.0
35	0xff	-0.0023693033
36	0x00	0.0
37	0xdd	-0.08292562
38	0xff	-0.0023693033
39	0x14	0.047386065
40	0x30	0.11372656
41	0xed	-0.045016762
42	0xdc	-0.08529492
43	0xf0	-0.037908852
44	0xb3	-0.18243635
45	0x0a	0.023693033
46	0x04	0.009477213
47	0x00	0.0
48	0x0f	0.03553955
49	0xf5	-0.026062336
50	0x09	0.02132373
51	0x0f	0.03553955
52	0x1b	0.06397119
53	0xdd	-0.08292562
54	0x17	0.054493975
55	0x0e	0.033170246
56	0x01	0.0023693033
57	0xff	-0.0023693033
58	0xd0	-0.11372656
59	0x37	0.13031168
60	0x17	0.054493975
61	0xd0	-0.11372656
62	0xfe	-0.0047386065
63	0x23	0.08292562
64	0xe0	-0.075817704
65	0xff	-0.0023693033
66	0x00	0.0
67	0xd0	-0.11372656
68	0xe6	-0.061601885
69	0x08	0.018954426
70	0xf8	-0.018954426
71	0xdf	-0.078187004
72	0x32	0.11846516
73	0x1e	0.0710791
74	0xe0	-0.075817704
75	0xee	-0.04264746
76	0xf9	-0.016585123
77	0x02	0.0047386065
78	0x0c	0.02843164
79	0xf0	-0.037908852
80	0x28	0.09477213
81	0xe1	-0.073448405
82	0xf2	-0.033170246
83	0xcd	-0.12083447
84	0xda	-0.090033524
85	0x07	0.016585123
86	0x03	0.00710791
87	0x0d	0.030800942
88	0xff	-0.0023693033
89	0xfe	-0.0047386065
90	0x21	0.078187004
91	0xe8	-0.05686328
92	0x04	0.009477213
93	0x0d	0.030800942
94	0xfb	-0.011846516
95	0x34	0.12320377
96	0x11	0.040278155
97	0x15	0.04975537
98	0xfc	-0.009477213
99	0xe1	-0.073448405
100	0x01	0.0023693033
101	0x03	0.00710791
102	0xfc	-0.009477213
103	0x01	0.0023693033
104	0x40	0.15163541
105	0x03	0.00710791
106	0xfa	-0.01421582
107	0x1f	0.073448405
108	0xe8	-0.05686328
109	0xec	-0.047386065
110	0x01	0.0023693033
111	0xc4	-0.1421582
112	0xe9	-0.054493975
113	0x1f	0.073448405
114	0xe0	-0.075817704
115	0x03	0.00710791
116	0x1e	0.0710791
117	0x1c	0.06634049
118	0x2b	0.101880044
119	0xfd	-0.00710791
120	0x02	0.0047386065
121	0x23	0.08292562
122	0x02	0.0047386065
123	0xff	-0.0023693033
124	0x17	0.054493975
125	0x04	0.009477213
126	0xf9	-0.016585123
127	0x1c	0.06634049
128	0x00	0.0
129	0x03	0.00710791
130	0x16	0.05212467
131	0x09	0.02132373
132	0xe9	-0.054493975
133	0x01	0.0023693033
134	0xb6	-0.17532843
135	0x02	0.0047386065
136	0x04	0.009477213
137	0x06	0.01421582
138	0x1d	0.06870979
139	0x1d	0.06870979
140	0xfa	-0.01421582
141	0xe6	-0.061601885
142	0x13	0.045016762
143	0x1a	0.061601885
144	0x08	0.018954426
145	0x13	0.045016762
146	0xd9	-0.09240283
147	0x0a	0.023693033
148	0x0a	0.023693033
149	0x0c	0.02843164
150	0x1d	0.06870979
151	0x2e	0.10898795
152	0x0c	0.02843164
153	0x0f	0.03553955
154	0x26	0.090033524
155	0xec	-0.047386065
156	0xda	-0.090033524
157	0x16	0.05212467
158	0x02	0.0047386065
159	0x44	0.16111262
160	0xd9	-0.09240283
161	0xfe	-0.0047386065
162	0x27	0.09240283
163	0xf0	-0.037908852
164	0xce	-0.11846516
165	0x01	0.0023693033
166	0xef	-0.040278155
167	0x23	0.08292562
168	0x15	0.04975537
169	0x14	0.047386065
170	0x15	0.04975537
171	0x10	0.037908852
172	0x00	0.0
173	0xec	-0.047386065
174	0x30	0.11372656
175	0x1d	0.06870979
176	0x19	0.05923258
177	0x2f	0.11135726
178	0xcd	-0.12083447
179	0x19	0.05923258
180	0xe5	-0.06397119
181	0x09	0.02132373
182	0xd8	-0.09477213
183	0xf8	-0.018954426
184	0xe7	-0.05923258
185	0xfc	-0.009477213
186	0xd2	-0.10898795
187	0xd5	-0.101880044
188	0x12	0.04264746
189	0x03	0.00710791
190	0x11	0.040278155
191	0xf8	-0.018954426
192	0x20	0.075817704
193	0xf3	-0.030800942
194	0x44	0.16111262
195	0xf7	-0.02132373
196	0x05	0.011846516
197	0xf5	-0.026062336
198	0x1f	0.073448405
199	0x02	0.0047386065
200	0xf8	-0.018954426
201	0xd1	-0.11135726
202	0xc9	-0.13031168
203	0x06	0.01421582
204	0xcd	-0.12083447
205	0x1e	0.0710791
206	0xfe	-0.0047386065
207	0xfd	-0.00710791
208	0xf3	-0.030800942
209	0x1b	0.06397119
210	0x1c	0.06634049
211	0xef	-0.040278155
212	0x0c	0.02843164
213	0x1c	0.06634049
214	0x07	0.016585123
215	0xfc	-0.009477213
216	0xf1	-0.03553955
217	0x0f	0.03553955
218	0x04	0.009477213
219	0xff	-0.0023693033
220	0x0e	0.033170246
221	0x2c	0.10424934
222	0x28	0.09477213
223	0x07	0.016585123
224	0x06	0.01421582
225	0x0d	0.030800942
226	0xed	-0.045016762
227	0xf7	-0.02132373
228	0x05	0.011846516
229	0x3e	0.14689681
230	0xfb	-0.011846516
231	0x07	0.016585123
232	0x0a	0.023693033
233	0x20	0.075817704
234	0xe3	-0.06870979
235	0x1c	0.06634049
236	0x09	0.02132373
237	0xe1	-0.073448405
238	0xee	-0.04264746
239	0xe9	-0.054493975
240	0x1c	0.06634049
241	0x35	0.12557307
242	0xe9	-0.054493975
243	0x24	0.08529492
244	0xf0	-0.037908852
245	0xe8	-0.05686328
246	0xe6	-0.061601885
247	0x1b	0.06397119
248	0x13	0.045016762
249	0xe6	-0.061601885
250	0x0b	0.026062336
251	0x16	0.05212467
252	0xec	-0.047386065
253	0x2a	0.09951074
254	0xf6	-0.023693033
255	0xfa	-0.01421582

functional_1/dense_3/MatMul i1 [12, 436] scale=0.0053807036 zero_point=0
0	0xd1	-0.25289306
1	0xd7	-0.22060885
2	0x07	0.037664924
3	0x14	0.10761407
4	0xdb	-0.19908604
5	0xcd	-0.27441588
6	0x06	0.032284223
7	0x14	0.10761407
8	0x05	0.026903518
9	0xca	-0.29055798
10	0x16	0.11837548
11	0xc7	-0.3067001
12	0xc9	-0.2959387
13	0xe6	-0.1398983
14	0xcb	-0.2851773
15	0xe0	-0.17218252
16	0xeb	-0.112994775
17	0xd0	-0.25827378
18	0x03	0.016142111
19	0x08	0.04304563
20	0x0f	0.08071055
21	0x15	0.112994775
22	0x04	0.021522814
23	0xdd	-0.18832463
24	0xe9	-0.123756185
25	0xb0	-0.43045628
26	0x20	0.17218252
27	0xd4	-0.23675096
28	0xe1	-0.16680181
29	0x1d	0.1560404
30	0xce	-0.2690352
31	0xd3	-0.24213167
32	0xd3	-0.24213167
33	0xe5	-0.14527899
34	0x01	0.0053807036
35	0x0a	0.053807035
36	0xf1	-0.08071055
37	0xe3	-0.1560404
38	0x05	0.026903518
39	0xd3	-0.24213167
40	0x19	0.1345176
41	0x01	0.0053807036
42	0xe1	-0.16680181
43	0xd2	-0.24751237
44	0x07	0.037664924
45	0x16	0.11837548
46	0xe4	-0.1506597
47	0xeb	-0.112994775
48	0xfd	-0.016142111
49	0xed	-0.102233365
50	0x10	0.08609126
51	0xcc	-0.2797966
52	0x19	0.1345176
53	0xe1	-0.16680181
54	0xe8	-0.12913689
55	0x0b	0.05918774
56	0xef	-0.09147196
57	0x0d	0.06994915
58	0xfa	-0.032284223
59	0xfd	-0.016142111
60	0xee	-0.09685267
61	0xb9	-0.38202995
62	0xf3	-0.06994915
63	0x1e	0.1614211
64	0xfa	-0.032284223
65	0x16	0.11837548
66	0x0c	0.064568445
67	0xff	-0.0053807036
68	0xdb	-0.19908604
69	0xd8	-0.21522814
70	0xdb	-0.19908604
71	0x01	0.0053807036
72	0xd7	-0.22060885
73	0xf5	-0.05918774
74	0xe0	-0.17218252
75	0xda	-0.20446673
76	0xe3	-0.1560404
77	0xfd	-0.016142111
78	0x02	0.010761407
79	0xc3	-0.32822293
80	0xf9	-0.037664924
81	0x17	0.123756185
82	0xda	-0.20446673
83	0xe5	-0.14527899
84	0x10	0.08609126
85	0xd5	-0.23137026
86	0x01	0.0053807036
87	0xe5	-0.14527899
88	0xe0	-0.17218252
89	0x0a	0.053807035
90	0xf1	-0.08071055
91	0x08	0.04304563
92	0xee	-0.09685267
93	0x11	0.09147196
94	0x00	0.0
95	0x08	0.04304563
96	0xfc	-0.021522814
97	0xff	-0.0053807036
98	0xd1	-0.25289306
99	0xde	-0.18294393
100	0xe3	-0.1560404
101	0xf7	-0.048426334
102	0xee	-0.09685267
103	0xdc	-0.19370534
104	0x04	0.021522814
105	0x2f	0.25289306
106	0x20	0.17218252
107	0xf2	-0.07532985
108	0xf2	-0.07532985
109	0xd6	-0.22598955
110	0xf9	-0.037664924
111	0xf5	-0.05918774
112	0x0b	0.05918774
113	0xec	-0.10761407
114	0x09	0.048426334
115	0xcb	-0.2851773
116	0xef	-0.09147196
117	0xe1	-0.16680181
118	0xe8	-0.12913689
119	0x27	0.20984744
120	0xcf	-0.26365447
121	0xf5	-0.05918774
122	0xd0	-0.25827378
123	0xe8	-0.12913689
124	0xfc	-0.021522814
125	0x07	0.037664924
126	0xe4	-0.1506597
127	0xfb	-0.026903518
128	0x12	0.09685267
129	0xdd	-0.18832463
130	0xfb	-0.026903518
131	0x14	0.10761407
132	0x02	0.010761407
133	0xe3	-0.1560404
134	0x20	0.17218252
135	0xf6	-0.053807035
136	0x20	0.17218252
137	0xde	-0.18294393
138	0x18	0.12913689
139	0xfa	-0.032284223
140	0x29	0.22060885
141	0xdf	-0.17756322
142	0xec	-0.10761407
143	0x32	0.2690352
144	0xdc	-0.19370534
145	0xfc	-0.021522814
146	0x0b	0.05918774
147	0xf2	-0.07532985
148	0xe2	-0.1614211
149	0xf4	-0.064568445
150	0xe1	-0.16680181
151	0xdb	-0.19908604
152	0xe0	-0.17218252
153	0x08	0.04304563
154	0xd6	-0.22598955
155	0xf1	-0.08071055
156	0xfb	-0.026903518
157	0x17	0.123756185
158	0xc4	-0.3228422
159	0xf8	-0.04304563
160	0xdb	-0.19908604
161	0xdf	-0.17756322
162	0xd3	-0.24213167
163	0xec	-0.10761407
164	0x0a	0.053807035
165	0xd2	-0.24751237
166	0xc0	-0.34436503
167	0xe3	-0.1560404
168	0x02	0.010761407
169	0x23	0.18832463
170	0xec	-0.10761407
171	0x0d	0.06994915
172	0xfb	-0.026903518
173	0x03	0.016142111
174	0x1a	0.1398983
175	0x21	0.17756322
176	0x10	0.08609126
177	0xfa	-0.032284223
178	0x09	0.048426334
179	0xe9	-0.123756185
180	0xd9	-0.20984744
181	0xd1	-0.25289306
182	0xf7	-0.048426334
183	0x08	0.04304563
184	0x02	0.010761407
185	0x0b	0.05918774
186	0xdc	-0.19370534
187	0x02	0.010761407
188	0x1e	0.1614211
189	0xe6	-0.1398983
190	0xfe	-0.010761407
191	0xdc	-0.19370534
192	0xed	-0.102233365
193	0xf7	-0.048426334
194	0xf8	-0.04304563
195	0xd3	-0.24213167
196	0x10	0.08609126
197	0x26	0.20446673
198	0xd9	-0.20984744
199	0xed	-0.102233365
200	0xfc	-0.021522814
201	0xf0	-0.08609126
202	0x17	0.123756185
203	0x14	0.10761407
204	0xd5	-0.23137026
205	0xe4	-0.1506597
206	0xe2	-0.1614211
207	0xf0	-0.08609126
208	0x17	0.123756185
209	0x19	0.1345176
210	0xfd	-0.016142111
211	0x81	-0.6833494
212	0x11	0.09147196
213	0xe3	-0.1560404
214	0xd8	-0.21522814
215	0xc9	-0.2959387
216	0xf1	-0.08071055
217	0xcb	-0.2851773
218	0xf6	-0.053807035
219	0xe2	-0.1614211
220	0xea	-0.11837548
221	0xc9	-0.2959387
222	0xfc	-0.021522814
223	0xbb	-0.37126854
224	0x37	0.2959387
225	0xdd	-0.18832463
226	0xf9	-0.037664924
227	0xe0	-0.17218252
228	0xf7	-0.048426334
229	0xf7	-0.048426334
230	0xcd	-0.27441588
231	0xc8	-0.3013194
232	0x15	0.112994775
233	0x0c	0.064568445
234	0xd9	-0.20984744
235	0xe3	-0.1560404
236	0x2a	0.22598955
237	0x11	0.09147196
238	0x00	0.0
239	0xc7	-0.3067001
240	0x19	0.1345176
241	0xdd	-0.18832463
242	0xfc	-0.021522814
243	0xf8	-0.04304563
244	0xf6	-0.053807035
245	0xde	-0.18294393
246	0xc8	-0.3013194
247	0xc8	-0.3013194
248	0xe8	-0.12913689
249	0x30	0.25827378
250	0x1f	0.16680181
251	0xd3	-0.24213167
252	0xf5	-0.05918774
253	0xeb	-0.112994775
254	0x09	0.048426334
255	0xec	-0.10761407
