tflu-kws-cortex-m/Pretrained_models/DNN/DNN_S/dnn_s_quantized.tflite (tflite, 84192 bytes, 4 tensors)

functional_1/dense/MatMul i1 [144, 250] scale=0.004622137 zero_point=0
-0.027732823 0.3327939 0.09706488 0.009244274 -0.16639695 -0.2495954 -0.26346183 0.11555343
-0.055465646 -0.069332056 0.0138664115 0.28657252 -0.06470992 -0.050843507 -0.03235496 -0.19412977
-0.20337403 0.0 -0.055465646 0.018488549 0.11093129 0.17564121 0.03235496 0.023110686
-0.03235496 -0.12017557 -0.16639695 -0.055465646 -0.12017557 -0.087820604 0.03235496 -0.04622137
-0.018488549 -0.11093129 -0.04622137 -0.036977097 0.09244274 0.060087785 -0.28195035 -0.036977097
0.073954195 -0.12941983 -0.009244274 -0.101687014 -0.14790839 0.027732823 0.09244274 0.0138664115
-0.20799617 0.073954195 0.050843507 -0.14328626 -0.009244274 -0.060087785 -0.08319847 0.17101908
0.30506104 -0.087820604 -0.18950762 0.036977097 -0.055465646 0.009244274 -0.08319847 -0.027732823
-0.11093129 0.036977097 0.2126183 -0.04622137 -0.14790839 -0.04622137 -0.078576334 -0.060087785
-0.09706488 0.050843507 0.11093129 0.055465646 0.20337403 0.018488549 0.009244274 0.087820604
0.03235496 -0.23110686 -0.078576334 0.050843507 0.18026336 0.04622137 0.09244274 -0.041599236
-0.009244274 -0.009244274 -0.060087785 -0.14328626 0.09244274 -0.036977097 -0.004622137 0.06470992
-0.055465646 -0.078576334 0.004622137 0.027732823 -0.0138664115 -0.08319847 0.0 0.027732823
0.10630915 -0.004622137 0.073954195 -0.041599236 0.09244274 0.0 0.041599236 -0.18950762
-0.10630915 0.08319847 0.041599236 -0.009244274 -0.060087785 0.009244274 0.09706488 0.12017557
-0.0138664115 -0.078576334 -0.17564121 0.087820604 -0.036977097 0.101687014 -0.03235496 0.09706488
0.041599236 -0.13404198 -0.1247977 -0.04622137 -0.12941983 0.10630915 0.04622137 0.069332056
0.12017557 0.13404198 0.050843507 -0.11555343 -0.041599236 0.041599236 -0.101687014 0.050843507
0.06470992 0.13404198 -0.069332056 0.055465646 0.08319847 0.09244274 -0.11555343 0.10630915
0.16639695 -0.03235496 0.12941983 0.060087785 -0.17101908 -0.09244274 0.1247977 0.0138664115
-0.018488549 0.20799617 0.22648472 0.018488549 -0.09706488 -0.10630915 -0.23110686 0.11555343
0.087820604 -0.018488549 0.060087785 0.09706488 0.18026336 0.009244274 -0.09244274 0.09706488
-0.2126183 0.09244274 -0.11555343 -0.12017557 0.041599236 0.069332056 0.073954195 0.073954195
-0.078576334 -0.009244274 0.0138664115 0.18950762 -0.12941983 -0.09706488 0.023110686 0.13866411
0.023110686 0.009244274 -0.15715267 0.009244274 0.12017557 0.09706488 -0.30506104 -0.11093129
0.078576334 -0.055465646 -0.041599236 0.04622137 0.018488549 0.16639695 0.13866411 0.09244274
-0.17101908 -0.13866411 0.055465646 -0.078576334 -0.1247977 -0.101687014 0.018488549 0.17564121
0.24497327 0.073954195 -0.004622137 -0.11093129 0.06470992 -0.0138664115 -0.060087785 -0.15253052
0.2126183 0.12017557 0.18026336 0.069332056 0.0 -0.078576334 -0.03235496 -0.027732823
0.027732823 -0.09706488 0.17101908 0.1247977 0.25883967 0.004622137 -0.069332056 0.0
0.004622137 -0.041599236 -0.036977097 -0.13866411 0.24035114 -0.0138664115 0.06470992 -0.055465646
-0.023110686 -0.050843507 -0.004622137 0.009244274 0.06470992 -0.101687014 -0.0138664115 0.023110686
00000000: fa48 1502 dcca c719 f4f1 033e f2f5 f9d6
00000010: d400 f404 1826 0705 f9e6 dcf4 e6ed 07f6
00000020: fce8 f6f8 140d c3f8 10e4 feea e006 1403
00000030: d310 0be1 fef3 ee25 42ed d708 f402 eefa
00000040: e808 2ef6 e0f6 eff3 eb0b 180c 2c04 0213
00000050: 07ce ef0b 270a 14f7 fefe f3e1 14f8 ff0e
00000060: f4ef 0106 fdee 0006 17ff 10f7 1400 09d7
00000070: e912 09fe f302 151a fdef da13 f816 f915
00000080: 09e3 e5f6 e417 0a0f 1a1d 0be7 f709 ea0b
00000090: 0e1d f10c 1214 e717 24f9 1c0d dbec 1b03
000000a0: fc2d 3104 ebe9 ce19 13fc 0d15 2702 ec15
000000b0: d214 e7e6 090f 1010 effe 0329 e4eb 051e
000000c0: 0502 de02 1a15 bee8 11f4 f70a 0424 1e14
000000d0: dbe2 0cef e5ea 0426 3510 ffe8 0efd f3df
000000e0: 2e1a 270f 00ef f9fa 06eb 251b 3801 f100
000000f0: 01f7 f8e2 34fd 0ef4 fbf5 ff02 0eea fd05

functional_1/dense_1/MatMul i1 [144, 144] scale=0.0028440834 zero_point=0
0.108075164 -0.031284917 -0.056881666 -0.039817166 0.022752667 0.21899442 0.034129 0.15642458
-0.17633317 0.056881666 -0.062569834 -0.062569834 -0.036973085 -0.14789234 0.02559675 -0.0853225
-0.13367192 0.15642458 -0.022752667 -0.05972575 -0.065413915 -0.00853225 -0.15926866 -0.108075164
-0.17633317 0.0170645 -0.05972575 0.00853225 -0.022752667 -0.0853225 -0.04266125 -0.11091925
-0.019908583 0.028440833 0.105231084 -0.011376333 -0.00853225 0.0028440834 -0.019908583 -0.12798375
0.11660742 0.0511935 -0.04266125 0.022752667 0.108075164 0.036973085 -0.1194515 0.13367192
-0.028440833 0.02559675 0.19055359 0.022752667 -0.108075164 -0.08816659 0.11091925 -0.022752667
0.15073642 -0.0056881667 -0.045505334 0.07394617 0.048349418 -0.13367192 0.07963433 0.11376333
-0.11660742 0.09385475 -0.045505334 -0.054037582 -0.019908583 -0.07963433 -0.09101067 -0.096698835
-0.204774 -0.26165566 0.16495684 -0.02559675 -0.105231084 -0.1535805 0.09385475 -0.13936009
-0.02559675 0.096698835 0.0028440834 -0.11660742 0.12229558 0.108075164 -0.136516 0.056881666
-0.05972575 0.019908583 0.16495684 0.068258 -0.19055359 -0.07679025 0.062569834 -0.014220417
-0.022752667 0.062569834 -0.09101067 -0.09385475 -0.13367192 0.056881666 0.00853225 -0.16780092
-0.034129 0.0028440834 0.068258 -0.12513967 0.12798375 -0.14789234 0.0056881667 -0.11376333
-0.039817166 -0.16495684 0.0853225 -0.19624175 -0.15073642 0.07963433 -0.09385475 0.09101067
0.20192991 -0.16211276 0.105231084 0.02559675 -0.07394617 0.02559675 -0.00853225 0.19055359
0.02559675 0.13367192 0.21046217 -0.099542916 0.062569834 0.048349418 -0.00853225 0.062569834
0.039817166 0.054037582 0.08816659 -0.062569834 0.065413915 -0.039817166 0.07963433 0.08247842
-0.096698835 0.07394617 0.07110208 -0.25027934 0.0 -0.1877095 -0.16211276 -0.0056881667
-0.036973085 0.0056881667 -0.13367192 0.09385475 -0.15073642 0.056881666 0.11376333 -0.045505334
-0.0853225 -0.07110208 -0.11091925 0.0170645 -0.0853225 0.062569834 -0.1194515 -0.11091925
0.1877095 -0.0056881667 -0.0028440834 0.08816659 -0.30147284 -0.099542916 0.07963433 0.00853225
0.07110208 -0.00853225 -0.054037582 0.014220417 0.1535805 -0.022752667 0.028440833 0.0511935
0.011376333 -0.07394617 -0.0853225 0.07963433 -0.099542916 0.099542916 0.07679025 0.036973085
0.0028440834 -0.045505334 0.034129 0.0028440834 -0.11376333 0.02559675 0.031284917 -0.15073642
-0.014220417 0.039817166 -0.0028440834 0.15642458 -0.045505334 -0.15926866 0.102387 0.09101067
-0.031284917 0.0 0.036973085 0.05972575 0.031284917 0.022752667 -0.1535805 0.0056881667
-0.136516 -0.14504825 -0.102387 0.14504825 -0.14220417 0.034129 -0.045505334 -0.09101067
-0.09385475 0.170645 0.031284917 0.00853225 0.00853225 -0.045505334 -0.136516 -0.1535805
-0.09101067 -0.07394617 0.07679025 -0.07110208 -0.105231084 0.08816659 0.05972575 -0.09385475
-0.039817166 -0.08247842 0.11091925 0.04266125 -0.11376333 -0.096698835 -0.011376333 -0.07394617
-0.048349418 -0.096698835 0.062569834 0.11091925 0.11376333 0.031284917 0.12798375 -0.011376333
00000000: 26f5 ecf2 084d 0c37 c214 eaea f3cc 09e2
00000010: d137 f8eb e9fd c8da c206 eb03 f8e2 f1d9
00000020: f90a 25fc fd01 f9d3 2912 f108 260d d62f
00000030: f609 4308 dae1 27f8 35fe f01a 11d1 1c28
00000040: d721 f0ed f9e4 e0de b8a4 3af7 dbca 21cf
00000050: f722 01d7 2b26 d014 eb07 3a18 bde5 16fb
00000060: f816 e0df d114 03c5 f401 18d4 2dcc 02d8
00000070: f2c6 1ebb cb1c df20 47c7 2509 e609 fd43
00000080: 092f 4add 1611 fd16 0e13 1fea 17f2 1c1d
00000090: de1a 19a8 00be c7fe f302 d121 cb14 28f0
000000a0: e2e7 d906 e216 d6d9 42fe ff1f 96dd 1c03
000000b0: 19fd ed05 36f8 0a12 04e6 e21c dd23 1b0d
000000c0: 01f0 0c01 d809 0bcb fb0e ff37 f0c8 2420
000000d0: f500 0d15 0b08 ca02 d0cd dc33 ce0c f0e0
000000e0: df3c 0b03 03f0 d0ca e0e6 1be7 db1f 15df
000000f0: f2e3 270f d8de fce6 efde 1627 280b 2dfc

functional_1/dense_2/MatMul i1 [144, 144] scale=0.0034513632 zero_point=0
0.05522181 -0.06902726 -0.048319086 -0.17947088 0.05522181 -0.1415059 -0.058673173 -0.0931868
-0.0931868 0.031062268 -0.13460316 -0.06902726 0.14495726 -0.058673173 -0.100089535 0.08283272
0.024159543 -0.0069027264 -0.013805453 0.02070818 0.05522181 -0.0034513632 0.03451363 0.100089535
-0.0034513632 0.12770043 0.1863736 -0.017256815 0.013805453 -0.14840862 -0.031062268 -0.013805453
0.13805452 0.0655759 0.03451363 0.04486772 0.11044362 -0.04141636 0.07247863 0.013805453
-0.04486772 -0.100089535 0.05177045 0.0931868 0.17947088 0.0069027264 -0.0655759 0.15531135
0.079381354 -0.13460316 0.11044362 -0.0034513632 0.013805453 0.062124535 -0.0655759 0.1035409
0.013805453 -0.058673173 0.08973544 -0.062124535 0.08973544 -0.013805453 -0.037964996 0.0034513632
-0.17601952 -0.06902726 0.08973544 -0.05177045 0.1035409 -0.07247863 -0.18292224 -0.23814406
0.031062268 0.058673173 0.21398452 -0.0034513632 -0.06902726 0.09663817 0.08628408 -0.22778997
-0.113894984 0.04486772 -0.04486772 -0.16566543 -0.0655759 0.12770043 0.0034513632 -0.08283272
-0.031062268 0.07592999 0.048319086 -0.027610905 -0.048319086 -0.16566543 -0.05522181 -0.017256815
0.1415059 0.12770043 0.04141636 -0.1311518 0.01035409 0.09663817 0.08283272 -0.037964996
-0.037964996 0.1311518 -0.0655759 0.024159543 -0.06902726 -0.08283272 -0.027610905 0.08283272
0.013805453 -0.05522181 -0.100089535 0.027610905 0.058673173 -0.08628408 0.08973544 -0.100089535
-0.15531135 -0.06902726 0.11044362 0.07247863 0.08283272 -0.100089535 -0.11734635 -0.1311518
0.07592999 -0.07592999 -0.12424907 0.19327635 0.09663817 -0.031062268 -0.05522181 -0.100089535
-0.031062268 -0.29336587 -0.037964996 -0.0034513632 -0.12770043 -0.08628408 -0.04141636 0.08973544
0.12770043 -0.027610905 -0.07592999 0.13805452 0.05522181 0.013805453 0.11044362 -0.11734635
0.07247863 0.13805452 -0.08283272 0.0069027264 0.08628408 0.05177045 -0.1311518 0.013805453
0.08283272 0.09663817 -0.08973544 -0.06902726 -0.08628408 -0.013805453 -0.14840862 0.03451363
-0.05177045 -0.07247863 0.0 -0.15185998 0.12770043 -0.15876271 -0.0069027264 -0.13460316
-0.07247863 -0.13460316 -0.05177045 0.024159543 -0.14840862 -0.07247863 -0.13460316 0.16566543
-0.1691168 -0.0655759 0.11734635 -0.100089535 -0.15185998 -0.0034513632 -0.1691168 -0.24849814
-0.15185998 0.0069027264 0.013805453 -0.2243386 -0.01035409 -0.01035409 0.079381354 -0.037964996
-0.1415059 0.048319086 0.100089535 -0.0931868 0.08283272 0.11044362 0.11734635 0.07592999
-0.0655759 0.08973544 -0.04486772 -0.04141636 -0.13805452 -0.06902726 -0.04486772 -0.013805453
-0.12770043 0.0034513632 -0.15185998 0.017256815 0.1035409 -0.22088724 0.0931868 0.04486772
0.07592999 -0.17256816 0.017256815 -0.08628408 0.08628408 -0.058673173 0.2346927 0.02070818
-0.0655759 -0.031062268 0.0034513632 0.12770043 -0.062124535 0.07592999 -0.14495726 -0.1863736
-0.07247863 0.031062268 -0.03451363 -0.079381354 -0.0655759 -0.13805452 -0.05522181 -0.024159543
0.05522181 0.08283272 0.17947088 0.11044362 -0.100089535 -0.02070818 -0.031062268 0.027610905
00000000: 10ec f2cc 10d7 efe5 e509 d9ec 2aef e318
00000010: 07fe fc06 10ff 0a1d ff25 36fb 04d5 f7fc
00000020: 2813 0a0d 20f4 1504 f3e3 0f1b 3402 ed2d
00000030: 17d9 20ff 0412 ed1e 04ef 1aee 1afc f501
00000040: cdec 1af1 1eeb cbbb 0911 3eff ec1c 19be
00000050: df0d f3d0 ed25 01e8 f716 0ef8 f2d0 f0fb
00000060: 2925 0cda 031c 18f5 f526 ed07 ece8 f818
00000070: 04f0 e308 11e7 1ae3 d3ec 2015 18e3 deda
00000080: 16ea dc38 1cf7 f0e3 f7ab f5ff dbe7 f41a
00000090: 25f8 ea28 1004 20de 1528 e802 190f da04
000000a0: 181c e6ec e7fc d50a f1eb 00d4 25d2 fed9
000000b0: ebd9 f107 d5eb d930 cfed 22e3 d4ff cfb8
000000c0: d402 04bf fdfd 17f5 d70e 1de5 1820 2216
000000d0: ed1a f3f4 d8ec f3fc db01 d405 1ec0 1b0d
000000e0: 16ce 05e7 19ef 4406 edf7 0125 ee16 d6ca
000000f0: eb09 f6e9 edd8 f0f9 1018 3420 e3fa f708

functional_1/dense_3/MatMul i1 [12, 144] scale=0.0049569844 zero_point=0
-0.11896762 -0.13879557 0.049569845 -0.19332239 0.30237606 -0.084268734 0.05948381 -0.13383858
-0.27759114 0.4758705 -0.29246208 -0.09418271 0.08922572 0.33707494 0.10409667 -0.05452683
0.07931175 -0.14375255 0.07931175 -0.09418271 -0.09913969 0.069397785 0.009913969 -0.27759114
0.30733302 -0.024784923 -0.16853747 0.11896762 -0.35690287 0.034698892 -0.14375255 -0.5650962
-0.27263415 -0.26767716 -0.5898811 -0.13879557 0.16358049 -0.0049569844 -0.322204 -0.064440794
-0.17349446 -0.23793525 0.07435477 0.20323636 -0.1586235 0.024784923 0.33211794 -0.17349446
-0.13383858 -0.37673083 0.05948381 -0.2230643 0.1586235 0.4461286 -0.25280622 -0.07435477
-0.322204 -0.19332239 0.16358049 0.019827938 -0.16853747 0.064440794 0.10905366 0.12392461
-0.23297827 -0.25280622 0.59483814 -0.53039736 0.18836541 0.05452683 -0.317247 0.16358049
0.009913969 0.019827938 -0.16853747 -0.24289224 -0.1586235 0.11896762 -0.30237606 -0.40151575
0.029741906 0.039655875 -0.20323636 -0.31229 -0.029741906 -0.14375255 -0.064440794 -0.23297827
0.07931175 0.15366651 -0.27759114 -0.039655875 -0.19827938 -0.24784923 -0.53039736 0.23793525
-0.07435477 -0.12392461 -0.024784923 -0.13383858 -0.59483814 -0.42134368 -0.29246208 0.50561243
-0.2825481 0.08922572 -0.069397785 -0.21810731 0.30733302 -0.27263415 0.05948381 -0.029741906
-0.29246208 0.16853747 -0.18340842 -0.36681685 -0.08922572 -0.09418271 -0.16358049 -0.19332239
-0.084268734 -0.15366651 0.12888159 -0.12392461 -0.25776318 -0.62953705 0.18836541 -0.019827938
0.11401064 -0.09418271 -0.13879557 0.07435477 -0.25280622 -0.21315034 -0.4114297 -0.18340842
-0.18340842 -0.20323636 -0.22802128 0.13383858 -0.20819335 -0.3519459 0.09913969 -0.07435477
0.049569845 -0.17845143 -0.16853747 -0.07435477 0.064440794 -0.13879557 0.23297827 0.07435477
0.064440794 -0.29246208 0.049569845 0.04461286 -0.05452683 -0.07435477 -0.064440794 -0.084268734
0.07931175 0.0 0.13383858 0.1586235 -0.014870953 0.034698892 -0.049569845 0.07931175
0.019827938 0.16358049 -0.084268734 -0.009913969 -0.029741906 0.13383858 0.16853747 -0.014870953
0.05948381 -0.0049569844 0.05452683 0.0 0.10409667 0.11401064 0.15366651 0.009913969
-0.11401064 0.11401064 -0.11896762 -0.07435477 0.0049569844 0.084268734 -0.014870953 -0.069397785
0.084268734 -0.029741906 0.10905366 0.024784923 -0.317247 -0.064440794 0.21810731 -0.05452683
0.26272017 0.069397785 0.13879557 -0.04461286 0.019827938 0.05948381 -0.10905366 0.05948381
0.0 -0.07435477 0.09418271 -0.05452683 0.25280622 0.029741906 0.07435477 -0.05452683
0.12888159 -0.14375255 0.064440794 0.07435477 0.029741906 0.10409667 0.009913969 -0.069397785
0.12888159 0.0049569844 0.07931175 0.0049569844 -0.16853747 -0.12392461 0.11401064 0.034698892
0.029741906 -0.039655875 -0.0049569844 0.039655875 -0.049569845 0.019827938 0.039655875 -0.05452683
-0.04461286 0.07435477 0.024784923 0.12888159 -0.16853747 -0.10409667 0.07931175 -0.23793525
-0.10905366 -0.04461286 0.0049569844 -0.07435477 0.13879557 -0.084268734 0.23297827 0.019827938
00000000: e8e4 0ad9 3def 0ce5 c860 c5ed 1244 15f5
00000010: 10e3 10ed ec0e 02c8 3efb de18 b807 e38e
00000020: c9ca 89e4 21ff bff3 ddd0 0f29 e005 43dd
00000030: e5b4 0cd3 205a cdf1 bfd9 2104 de0d 1619
00000040: d1cd 7895 260b c021 0204 decf e018 c3af
00000050: 0608 d7c1 fae3 f3d1 101f c8f8 d8ce 9530
00000060: f1e7 fbe5 88ab c566 c712 f2d4 3ec9 0cfa
00000070: c522 dbb6 eeed dfd9 efe1 1ae7 cc81 26fc
00000080: 17ed e40f cdd5 addb dbd7 d21b d6b9 14f1
00000090: 0adc def1 0de4 2f0f 0dc5 0a09 f5f1 f3ef
000000a0: 1000 1b20 fd07 f610 0421 effe fa1b 22fd
000000b0: 0cff 0b00 1517 1f02 e917 e8f1 0111 fdf2
000000c0: 11fa 1605 c0f3 2cf5 350e 1cf7 040c ea0c
000000d0: 00f1 13f5 3306 0ff5 1ae3 0d0f 0615 02f2
000000e0: 1a01 1001 dee7 1707 06f8 ff08 f604 08f5
000000f0: f70f 051a deeb 10d0 eaf7 01f1 1cef 2f04
